lightning_logs/version_82/checkpoints/epoch=5.ckpt (torch_old, 291029 bytes, 21 tensors)

exp_avg f4 [81, 81]
-1.8439561e-05 -1.4915171e-05 1.4186066e-05 3.1421256e-05 3.6588735e-05 2.8396773e-05 -1.6798935e-05 3.2711414e-05
-7.446231e-06 5.426921e-06 1.574342e-05 -5.307635e-06 -1.4025743e-05 2.1572876e-05 2.893187e-05 -1.665173e-05
-1.9840307e-05 -2.6588036e-06 2.2261647e-05 1.6837905e-05 -4.3256337e-06 -2.630606e-05 2.6507752e-05 1.1622489e-05
9.881273e-06 -1.20864825e-05 2.459068e-05 2.7199803e-05 1.8236813e-05 9.235626e-06 -1.1075327e-05 -1.5613401e-05
-2.4332614e-05 1.04398905e-05 -2.3176632e-05 2.0564405e-05 1.7295899e-05 -1.4965022e-05 -1.3928701e-05 2.8020904e-05
-2.2815993e-05 -6.487714e-06 -8.800271e-06 -1.4961852e-05 -2.6060345e-05 3.474155e-05 1.8127403e-05 -1.8880415e-05
1.832507e-05 1.359867e-06 2.0009891e-05 -2.9403956e-05 -9.322938e-06 -1.9454026e-05 2.9792618e-05 -1.0448227e-05
-2.4080897e-05 2.7135942e-05 -2.5662123e-06 1.1287285e-05 -2.3694594e-05 1.5658303e-05 -1.3292236e-05 -5.255099e-06
-1.4712517e-06 2.430907e-05 -1.1066291e-05 4.3088596e-05 2.4078314e-05 2.018072e-05 2.6493295e-05 3.46575e-05
-2.2453056e-05 -2.7602582e-05 1.2572541e-05 1.3522565e-05 -9.722241e-06 -3.700194e-05 -1.1897887e-05 -6.819869e-08
8.496247e-06 -2.9581523e-05 -2.3163142e-05 1.9627296e-05 3.7953196e-05 4.5351917e-05 3.303764e-05 -1.4167797e-05
4.026842e-05 -9.40199e-06 4.4222124e-06 3.5101453e-05 4.29471e-06 -1.2037453e-05 1.4746097e-05 3.1508156e-05
-2.3166755e-05 -1.6584798e-05 2.4442621e-05 2.6718108e-05 2.2573024e-05 3.6385004e-06 -3.5933695e-05 1.7262391e-05
9.094868e-06 -3.263312e-06 -1.5746567e-05 2.558317e-05 3.0646548e-05 2.2683695e-05 1.5440904e-05 -1.4769459e-05
-1.8737499e-05 -4.7930644e-05 1.4817707e-05 -1.3753378e-05 1.3587596e-05 2.741006e-05 -1.1475391e-05 -2.2653663e-05
1.9131407e-05 -2.75518e-05 -2.4363894e-06 -2.366901e-05 -2.4529332e-05 -2.9026147e-05 4.8163492e-05 2.3060094e-05
-2.191215e-05 3.6584883e-05 5.4328602e-06 2.7257864e-05 -2.1115233e-05 -1.3128699e-05 1.1864953e-05 3.540991e-05
4.7133935e-07 -5.1510437e-05 2.955494e-05 -1.1001394e-05 1.279752e-05 -1.8435961e-05 9.5677115e-06 -1.45119775e-05
-3.808488e-06 7.533432e-06 4.8409383e-05 -1.659735e-05 4.4203895e-05 2.9109035e-05 1.840568e-05 4.5124125e-05
5.261614e-05 -2.5120642e-05 -2.216904e-05 2.6632651e-05 2.5552003e-05 -1.134036e-05 -5.6900964e-05 -8.697601e-06
-1.8345092e-05 1.0338691e-05 -5.428218e-07 -5.8726886e-07 7.9101545e-07 1.4060388e-06 2.1580215e-06 1.8411895e-06
-1.2716811e-06 2.1271987e-06 -4.5081367e-07 5.02568e-07 9.586774e-07 1.4394368e-07 -7.337845e-07 9.466982e-07
1.2239001e-06 -1.7446359e-06 -1.2364453e-06 3.9486324e-07 1.50854e-06 4.81551e-07 1.9676861e-07 -1.3930368e-06
1.4075779e-06 7.1838906e-07 6.303949e-07 -7.860864e-07 1.5703315e-06 1.3165153e-06 1.1472923e-06 4.0061352e-07
-7.27278e-07 -7.4841745e-07 -1.223298e-06 6.3064846e-07 -1.2005811e-06 9.778498e-07 1.3716977e-06 -1.1496387e-06
-9.827371e-07 1.1711466e-06 -1.0802199e-06 -2.9493762e-07 -5.0816885e-07 -9.977716e-07 -1.2612965e-06 1.7804535e-06
9.825811e-07 -1.627176e-06 1.3488259e-06 4.8774595e-08 7.4697573e-07 -1.5767163e-06 -4.4508756e-08 -5.300337e-07
1.4774633e-06 -6.1259453e-07 -1.1025788e-06 1.1476866e-06 -3.0508673e-08 9.399424e-08 -1.3262606e-06 1.0495877e-06
-5.3667367e-07 1.1979621e-07 -3.1331894e-07 1.1557901e-06 -3.9731495e-07 1.7339507e-06 1.1082427e-06 1.5012124e-06
2.0092393e-06 1.9776712e-06 -6.242837e-07 -1.4256659e-06 6.717974e-07 3.9232165e-07 -6.243446e-07 -1.627485e-06
-7.9682815e-07 -3.5115895e-07 1.195364e-07 -7.0650412e-06 -6.0589864e-06 3.1384627e-06 1.1947939e-05 1.4935174e-05
1.4188462e-05 -1.0547464e-05 1.3885135e-05 -6.401809e-06 3.9253946e-06 7.969912e-06 -2.3520572e-06 -4.6112923e-06
00000000: a8ae 9ab7 2c3c 7ab7 b100 6e37 51ca 0338
00000010: db76 1938 9b35 ee37 70eb 8cb7 9d33 0938
00000020: a3da f9b6 e518 b636 bd10 8437 3d18 b2b6
00000030: 1c50 6bb7 66f7 b437 b8b2 f237 51af 8bb7
00000040: bc6e a6b7 e66d 32b6 86be ba37 203f 8d37
00000050: e924 91b6 d5ab dcb7 f75c de37 36fe 4237
00000060: bfc7 2537 0cc7 4ab7 1548 ce37 222b e437
00000070: 42fb 9837 b6f2 1a37 2bd0 39b7 86f9 82b7
00000080: e41d ccb7 fd26 2f37 706b c2b7 b981 ac37
00000090: a916 9137 4812 7bb7 51af 69b7 6f0e eb37
000000a0: f964 bfb7 0ab1 d9b6 e0a4 13b7 aa04 7bb7
000000b0: 2a9c dab7 75b7 1138 4d10 9837 6261 9eb7
000000c0: cab8 9937 ad84 b635 eada a737 84a8 f6b7
000000d0: b769 1cb7 3431 a3b7 29eb f937 cb4a 2fb7
000000e0: 5501 cab7 fea1 e337 3137 2cb6 855e 3d37
000000f0: c1c3 c6b7 f359 8337 b801 5fb7 f554 b0b6
00000100: d377 c5b5 55eb cb37 5ca9 39b7 07ba 3438
00000110: c9fb c937 c449 a937 eb3d de37 355d 1138
00000120: 9259 bcb7 188c e7b7 a7ee 5237 f9de 6237
00000130: b51c 23b7 8832 1bb8 099d 47b7 a074 92b3
00000140: 1a8b 0e37 d625 f8b7 784e c2b7 4ca5 a437
00000150: ef2f 1f38 4038 3e38 e591 0a38 3ab2 6db7
00000160: e3e5 2838 3dbd 1db7 8462 9436 e639 1338
00000170: 471b 9036 78f4 49b7 0166 7737 a027 0438
00000180: 3a56 c2b7 951f 8bb7 210a cd37 b320 e037
00000190: 335b bd37 f62c 7436 83b7 16b8 b4ce 9037
000001a0: 2996 1837 46ff 5ab6 7f17 84b7 709b d637
000001b0: 7b8a 0038 dd48 be37 1787 8137 58ca 77b7
000001c0: 792e 9db7 2309 49b8 9199 7837 4fbe 66b7
000001d0: 48f6 6337 a8ee e537 6e86 40b7 5f08 beb7
000001e0: 627c a037 0a1f e7b7 da80 23b6 d08c c6b7
000001f0: 57c4 cdb7 2d7d f3b7 2803 4a38 2d71 c137
00000200: fccf b7b7 b872 1938 ea4b b636 d1a7 e437
00000210: 9e20 b1b7 5543 5cb7 960f 4737 1a85 1438
00000220: 630c fd34 e90c 58b8 c0ec f737 a192 38b7
00000230: eeb4 5637 eda6 9ab7 0285 2037 7878 73b7
00000240: 5395 7fb6 b0c7 fc36 2e0b 4b38 8a3a 8bb7
00000250: 9267 3938 2d2f f437 e665 9a37 a943 3d38
00000260: 26b0 5c38 2bba d2b7 a7f7 b9b7 2f69 df37
00000270: 8258 d637 7a42 3eb7 f2a8 6eb8 e9eb 11b7
00000280: c9e3 99b7 5774 2d37 6eb6 11b5 cfa4 1db5
00000290: 2b56 5435 20b7 bc35 87d2 1036 ca1e f735
000002a0: a1ae aab5 ffc0 0e36 5c07 f2b4 36e8 0635
000002b0: e8ab 8035 f08e 1a34 49f9 44b5 9b20 7e35
000002c0: e344 a435 3c29 eab5 f0f3 a5b5 97fd d334
000002d0: 0a79 ca35 ef43 0135 5847 5334 61f8 bab5
000002e0: 02ec bc35 52d7 4035 6838 2935 7203 53b5
000002f0: 2ec4 d235 1fb3 b035 aafc 9935 e713 d734
00000300: 2a3a 43b5 dbe6 48b5 3330 a4b5 d549 2935
00000310: a723 a1b5 aa3e 8335 2d1b b835 494d 9ab5
00000320: 97e6 83b5 4a30 9d35 13fc 90b5 eb57 9eb4
00000330: 1969 08b5 2ceb 85b5 d149 a9b5 ebf7 ee35
00000340: 3be1 8335 5765 dab5 4e09 b535 3c7c 5133
00000350: c883 4835 8f9f d3b5 e529 3fb3 a347 0eb5
00000360: 414d c635 2d71 24b5 52fc 93b5 360a 9a35
00000370: a408 03b3 e1d9 c933 f801 b2b5 8fdf 8c35
00000380: ef0f 10b5 55a1 0034 3a36 a8b4 a520 9b35
00000390: 8d4e d5b4 18ba e835 eebe 9435 447d c935
000003a0: 78d6 0636 22b8 0436 7394 27b5 8259 bfb5
000003b0: 9155 3435 47a0 d234 a298 27b5 f56f dab5
000003c0: 9de5 55b5 eb86 bcb4 ea59 0034 3e10 edb6
000003d0: 4c4e cbb6 619e 5236 0274 4837 1592 7a37
000003e0: fb0a 6e37 03f5 30b7 33f4 6837 1fcf d6b6
000003f0: e2b6 8336 83b6 0537 09d8 1db6 b3ba 9ab6

exp_avg_sq f4 [81, 81]
7.1053e-10 9.18423e-10 2.4086158e-10 7.936927e-09 6.2662733e-09 5.137468e-09 2.8880134e-09 7.3711734e-09
1.883499e-09 1.5183628e-10 1.4859438e-09 1.43008e-10 3.306673e-10 2.7433171e-09 4.3239647e-09 1.5459936e-09
5.04515e-10 2.0173402e-10 3.3125436e-09 2.010033e-09 3.0187633e-10 5.342767e-09 2.032315e-09 5.320813e-10
3.179744e-09 2.0243554e-09 2.7228602e-09 5.382523e-09 4.1167345e-09 1.1188429e-09 3.766811e-10 1.3684421e-09
2.6802565e-09 4.4430357e-10 3.8534878e-09 1.45374e-09 2.8110432e-09 1.1106457e-09 1.1237767e-09 3.3689813e-09
7.286196e-10 4.3599999e-10 1.4442901e-10 1.1540812e-09 2.6122926e-09 5.218322e-09 3.3202272e-09 2.6846734e-09
5.9565275e-10 8.631923e-11 8.394899e-10 5.881784e-09 6.0698246e-10 2.7177585e-09 4.5082142e-09 2.2780386e-10
3.576179e-09 7.859577e-09 1.2074755e-09 1.6531189e-09 4.0747365e-09 1.3822588e-10 2.7449107e-09 5.8654587e-10
4.5521493e-11 3.096892e-09 1.2972493e-09 1.3213298e-08 5.191379e-09 8.7449464e-10 5.492764e-09 8.35914e-09
2.7960356e-09 2.8536418e-09 2.5056382e-10 6.4623024e-10 7.203631e-11 8.4097085e-09 3.3935135e-10 3.0950542e-10
3.0805714e-10 1.7131857e-09 5.386613e-09 1.2867158e-08 1.0006521e-07 1.5527493e-07 7.57934e-08 1.03882245e-08
1.7526929e-07 9.834401e-08 5.0242734e-09 7.215647e-08 1.3951328e-08 1.13457554e-08 6.159119e-08 4.8134815e-08
1.0704987e-08 1.2952152e-08 1.0484308e-08 1.3113868e-07 2.4995304e-08 3.8527803e-09 7.5384726e-08 1.9683208e-09
1.2566715e-08 2.0835374e-08 4.149292e-08 3.543071e-08 8.713705e-08 2.0079387e-08 3.1068648e-08 1.1924161e-08
2.2932422e-08 9.7662074e-08 6.3394388e-09 1.6342964e-08 1.3492946e-08 1.0580211e-07 1.89086e-08 1.2892224e-08
2.8329046e-08 1.95853e-08 2.469866e-08 2.0993973e-08 6.7280276e-08 3.747188e-08 1.0743601e-07 1.0237096e-07
5.0051064e-08 1.739049e-08 4.0556913e-09 2.2062554e-08 4.535649e-08 1.2439618e-08 6.225251e-09 9.892375e-08
2.1712692e-08 3.2243285e-08 8.545094e-08 5.526693e-09 3.7794678e-08 2.423303e-08 4.498725e-08 2.5150605e-08
4.9465383e-09 9.440876e-09 1.1031202e-07 3.426899e-08 1.565385e-07 2.5193389e-08 4.072785e-09 1.01650784e-07
2.7838416e-07 1.0013924e-08 1.556572e-08 3.9463655e-09 2.1341046e-08 2.6598939e-09 8.424626e-08 3.6738574e-09
2.0835897e-08 2.1427946e-09 5.9258046e-13 6.0540366e-12 1.6149998e-12 2.1881472e-11 3.6546276e-11 2.8247592e-11
1.4027231e-11 4.609559e-11 5.293756e-12 7.910373e-13 1.3309613e-11 8.627714e-12 8.938205e-12 1.2846851e-11
1.07285335e-11 2.8291813e-11 3.330645e-12 5.0729867e-12 1.9057774e-11 1.1665e-12 2.7577662e-12 3.004382e-11
6.161419e-12 7.508448e-12 1.4588008e-11 1.1553398e-11 1.0726631e-11 6.630627e-12 1.90447e-11 1.2204518e-11
8.322248e-12 6.7592078e-12 1.9666603e-11 1.8410282e-12 1.9568042e-11 1.0952677e-11 2.9493474e-11 1.0734166e-11
8.489881e-12 1.3226928e-11 3.8400945e-12 1.2680545e-11 2.9965633e-12 9.946461e-12 1.6587648e-11 3.371352e-11
1.7899002e-11 3.510052e-11 9.230232e-12 6.740066e-13 4.300541e-12 2.0075837e-11 2.6950857e-12 1.5926287e-12
1.7621562e-11 1.0606262e-12 1.13411485e-11 9.9317e-12 1.889063e-12 3.015456e-12 2.3217086e-11 6.6319988e-12
3.700254e-12 2.4048096e-12 2.2470409e-12 1.4428151e-11 1.5418683e-12 5.348883e-11 2.0908202e-11 1.2499072e-11
4.759486e-11 5.4530033e-11 4.223221e-12 7.054641e-12 4.201546e-13 1.924337e-12 2.405451e-12 1.7115979e-11
8.671978e-12 5.6621856e-12 2.7718593e-12 2.358323e-11 6.889407e-11 4.408655e-12 7.4566503e-10 8.9758606e-10
6.9156536e-10 6.6635264e-10 8.9241076e-10 2.4925512e-10 6.507331e-11 3.5654607e-10 2.2188594e-10 2.1725627e-10
00000000: 1b4f 4330 4674 7c30 416a 842f f95a 0832
00000010: b94e d731 a585 b031 7876 4631 8745 fd31
00000020: dd6e 0131 1df2 262f 003a cc30 2c3d 1d2f
00000030: 49c9 b52f f284 3c31 ff91 9431 d07a d430
00000040: 16ae 0a30 14cf 5d2f e2a2 6331 e020 0a31
00000050: 51f5 a52f 7a93 b731 dda8 0b31 e541 1230
00000060: a682 5a31 d61c 0b31 101d 3b31 2cf1 b831
00000070: 2e73 8d31 c9c5 9930 2715 cf2f c713 bc30
00000080: 922f 3831 2b42 f42f a367 8431 eecc c730
00000090: 652c 4131 5fa5 9830 6173 9a30 bf83 6731
000000a0: 0c48 4830 8bb1 ef2f 27cd 1e2f 9f9d 9e30
000000b0: f083 3331 d94c b331 0e2a 6431 467d 3831
000000c0: 56bb 2330 68d1 bd2e dac1 6630 b818 ca31
000000d0: 98d8 2630 50c3 3a31 ace6 9a31 1679 7a2f
000000e0: cec0 7531 c906 0732 44f4 a530 f333 e330
000000f0: c301 8c31 20fb 172f fba0 3c31 7f3a 2130
00000100: a534 482e 1ad1 5431 e74a b230 b300 6332
00000110: da5f b231 1761 7030 ddba bc31 e39b 0f32
00000120: 6124 4031 cc19 4431 b9bf 892f 69a2 3130
00000130: d668 9e2e 4a7a 1032 758f ba2f 0427 aa2f
00000140: 305b a92f 5d75 eb30 2615 b931 5c0e 5d32
00000150: 6ee3 d633 a6b9 2634 ddc3 a233 e577 3232
00000160: a831 3c34 3131 d333 faa1 ac31 70f4 9a33
00000170: 97ae 6f32 29eb 4232 1d44 8433 cabc 4e33
00000180: 08e9 3732 2b84 5e32 791e 3432 20cf 0c34
00000190: 41b5 d632 6a61 8431 31e3 a133 1143 0731
000001a0: ffe4 5732 79f9 b232 f335 3233 7a2c 1833
000001b0: 1a20 bb33 0a7b ac32 5770 0533 04db 4c32
000001c0: eefc c432 4bba d133 4bd2 d931 8f62 8c32
000001d0: 9bce 6732 5335 e333 736c a232 9a7c 5d32
000001e0: 3b58 f332 883c a832 ed28 d432 3c56 b432
000001f0: b97b 9033 c5f0 2033 92b7 e633 08d7 db33
00000200: baf7 5633 1862 9532 3d5a 8b31 1284 bd32
00000210: fdcd 4233 05b6 5532 e3e5 d531 e86f d433
00000220: b782 ba32 de7b 0a33 2781 b733 4ee5 bd31
00000230: b053 2233 ff28 d032 0138 4133 c40a d832
00000240: 36f6 a931 6931 2232 ade4 ec33 272f 1333
00000250: fa14 2834 d968 d832 99f0 8b31 1c4b da33
00000260: d474 9534 b409 2c32 61b5 8532 9998 8731
00000270: 7551 b732 59c9 3631 dfea b433 2f77 7c31
00000280: 9ffa b232 7140 1331 eccb 262b ea01 d52c
00000290: 804a e32b b278 c02d 73bb 202e ec77 f82d
000002a0: 08c5 762d 05bb 4a2e ea41 ba2c 3fa8 5e2b
000002b0: 2b25 6a2d c5c7 172d 193e 1d2d 1301 622d
000002c0: 05bd 3c2d 80db f82d 915f 6a2c 677d b22c
000002d0: 4ba2 a72d 972b a42b 800f 422c 5622 042e
000002e0: 21c9 d82c 0b17 042d 4651 802d e13f 4b2d
000002f0: 74b4 3c2d 614b e92c da84 a72d 43b4 562d
00000300: 1368 122d 88d1 ed2c 41fd ac2d 048d 012c
00000310: 501f ac2d 79ae 402d b3b6 012e 63d6 3c2d
00000320: 065b 152d cab0 682d 7f1c 872c 1914 5f2d
00000330: 49dd 522c e1fa 2e2d 10e8 912d 0d46 142e
00000340: f870 9d2d ac5f 1a2e 4561 222d 4bb7 3d2b
00000350: d44f 972c c496 b02d 59a6 3d2c 7f24 e02b
00000360: 3b00 9b2d 1645 952b fe83 472d 67b8 2e2d
00000370: 55ee 042c a031 542c 3b38 cc2d bc57 e92c
00000380: ed30 822c 3339 292c 171f 1e2c 9ed2 7d2d
00000390: a9ff d82b 123f 6b2e 16e9 b72d d1e2 5b2d
000003a0: 0c53 512e 5cd3 6f2e 6597 942c 8f36 f82c
000003b0: a986 ec2a c669 072c c144 292c c28d 962d
000003c0: 1e8f 182d 6f38 c72c 610d 432c b770 cf2d
000003d0: ea7f 972e a21d 9b2c 83f7 4c30 01ba 7630
000003e0: 9618 3e30 662a 3730 d34d 7530 8a07 892f
000003f0: 0419 8f2e 6603 c42f 57f7 732f 34e0 6e2f

exp_avg f4 [128, 81]
-6.8692184e-06 7.7552395e-06 -6.665646e-07 4.7949306e-05 1.361619e-05 3.199359e-05 -1.8591843e-05 3.08916e-05
-4.5810784e-06 -2.0948612e-06 -7.2896664e-06 -3.325851e-06 -1.7462762e-05 3.299416e-05 6.769425e-06 -3.2075484e-05
-4.4215512e-06 7.348391e-06 1.7137745e-05 -1.1438145e-05 -7.3273077e-06 3.495179e-06 9.077812e-06 7.8505755e-06
-5.830019e-06 -3.5371602e-06 6.6222237e-06 1.468413e-05 1.5817135e-05 1.9194818e-05 -1.522524e-05 -1.742618e-05
-3.4671832e-06 -1.6658907e-05 -1.4790293e-05 7.1901454e-06 2.1992815e-05 1.2289671e-05 2.8484585e-06 1.8128068e-05
-1.9929039e-05 -3.0285753e-06 -1.3929747e-05 -1.9342938e-06 -1.8356202e-05 2.7062737e-05 -7.972921e-06 -5.287435e-06
2.5120304e-05 -1.0231099e-06 2.300076e-05 -2.6991586e-06 -2.989008e-06 -1.3374384e-05 5.102465e-07 -2.078211e-05
-2.1735756e-05 -2.6418259e-06 9.235991e-06 -9.093681e-06 -2.3724522e-05 3.6845906e-06 -2.0624204e-05 2.13602e-05
5.296611e-06 2.0167432e-05 -4.1321955e-06 1.6334758e-05 1.7428481e-05 3.3645424e-06 1.1407426e-05 1.2331897e-05
-1.0119435e-05 -6.770178e-06 -2.2440208e-06 -4.332015e-06 -2.1489519e-05 -1.577655e-05 -8.989349e-07 -7.977154e-07
-6.571813e-06 -2.6921713e-05 2.3980997e-06 1.3080936e-05 5.6419693e-05 9.647541e-06 4.2248597e-05 -2.796176e-05
3.0299523e-05 -2.5250127e-05 1.7367207e-05 2.3825023e-05 1.9762041e-05 -5.28121e-07 6.527039e-05 3.6774632e-05
-3.2951983e-05 1.4147193e-06 2.9887651e-05 9.332557e-06 1.5145578e-05 -8.316352e-06 -8.140883e-06 1.7181437e-05
1.01061205e-05 5.2772557e-06 -2.135331e-06 5.5512637e-06 3.193326e-05 3.6175945e-05 3.8996488e-05 9.605015e-06
-4.1629588e-05 -3.3649558e-05 8.083033e-06 -3.1300035e-05 3.6448833e-05 4.8278802e-05 -8.093945e-06 -8.157928e-06
3.2244177e-05 -2.380026e-05 4.0963487e-06 -1.3411111e-05 -6.6511784e-06 -1.2742137e-05 3.7959202e-05 -2.7835379e-06
-2.1269349e-05 3.3567863e-05 -3.2888556e-06 1.2987522e-05 -1.9672338e-05 -1.2867754e-05 -3.0473266e-05 8.914833e-06
-3.582638e-05 -3.205948e-05 4.2341053e-06 6.9455473e-06 1.744046e-05 -2.7331347e-05 7.3624337e-06 -8.375432e-06
4.48431e-06 2.2418174e-06 2.896838e-05 -1.4613744e-05 4.2273685e-05 1.8792862e-05 -5.925386e-06 1.9920988e-05
5.3519365e-05 -2.235106e-05 -3.910357e-05 3.1131954e-06 -6.903477e-06 -1.2529014e-05 -5.1140505e-05 -1.1456397e-05
-1.11304735e-05 -1.0940273e-05 3.143017e-07 -1.3955778e-05 3.4253258e-06 3.4726414e-05 8.752297e-06 -3.962476e-06
-2.0763908e-05 -8.828417e-06 -3.700152e-05 1.9099605e-05 2.2957938e-05 5.2094906e-06 1.2252509e-05 3.6838355e-05
6.595256e-05 -2.896404e-05 -3.4599085e-05 3.5222587e-05 2.739268e-05 2.6092059e-05 -1.9831119e-05 -3.0706594e-06
3.8603266e-05 -6.295609e-06 1.7333366e-05 2.4102326e-05 2.738388e-05 2.9527091e-05 1.0288355e-05 -1.6710112e-05
1.8151975e-05 -2.2813754e-05 -1.0524152e-05 1.1704897e-05 5.130299e-06 1.2287314e-05 2.5080573e-05 -2.6351889e-05
-2.5022375e-05 4.3486187e-05 -1.5683936e-05 -2.2282187e-05 1.726029e-05 -1.5062761e-05 4.582229e-06 2.2773233e-05
2.55749e-05 1.0959102e-05 3.2354394e-05 -1.7185474e-05 -8.616874e-07 -1.8872071e-05 -1.9705123e-05 -1.9562665e-05
8.651424e-06 -5.4434306e-05 -1.36331455e-05 3.2590804e-05 2.3536093e-05 2.5200377e-05 -4.9447535e-05 2.1760388e-05
-4.612067e-06 -1.4565487e-07 -1.5170776e-05 4.7322465e-05 -9.23806e-06 4.9090308e-05 1.4783786e-05 2.2795904e-05
1.8242386e-05 8.473479e-05 -1.541564e-06 -3.36924e-05 1.8523499e-05 1.9126484e-05 -6.9509097e-06 -8.205212e-05
-1.7140803e-06 -9.4665775e-06 -1.1016616e-05 -4.941004e-06 -1.8335313e-05 -1.296266e-05 1.5212655e-05 3.2960084e-05
1.5842046e-05 -5.72883e-06 3.257909e-05 1.4059389e-05 -5.1603192e-06 -9.3256483e-07 -1.2113952e-05 -9.601193e-06
00000000: 237e e6b6 801c 0237 f8ed 32b5 2d1d 4938
00000010: 1771 6437 db30 0638 aef5 9bb7 9a91 0138
00000020: 2ab7 99b6 7195 0cb6 c299 f4b6 af31 5fb6
00000030: ff7c 92b7 3663 0a38 eb24 e336 ca88 06b8
00000040: d65c 94b6 3392 f636 07c3 8f37 75e6 3fb7
00000050: 18dd f5b6 b88e 6a36 e84c 1837 f7b5 0337
00000060: 7b9f c3b6 f35f 6db6 7834 de36 dc5b 7637
00000070: 0aaf 8437 8f04 a137 e86f 7fb7 702e 92b7
00000080: c1ad 68b6 bbbe 8bb7 d323 78b7 e142 f136
00000090: 367d b837 bc2f 4e37 2528 3f36 bb11 9837
000000a0: 492d a7b7 873e 4bb6 cfb3 69b7 eace 01b6
000000b0: a5fb 99b7 c904 e337 6fc3 05b7 b96a b1b6
000000c0: 71b9 d237 ca51 89b5 c2f1 c037 3123 35b6
000000d0: c496 48b6 8b62 60b7 dff7 0835 3e55 aeb7
000000e0: 2e55 b6b7 394a 31b6 47f4 1a37 1091 18b7
000000f0: 0604 c7b7 c944 7736 2402 adb7 ae2e b337
00000100: 8bb9 b136 3b2d a937 4aa7 8ab6 a006 8937
00000110: 6133 9237 66ca 6136 8662 3f37 18e5 4e37
00000120: a4c6 29b7 632b e3b6 fc97 16b6 ba5b 91b6
00000130: 6444 b4b7 e257 84b7 564e 71b5 9622 56b5
00000140: 7283 dcb6 f0d5 e1b7 0aef 2036 3176 5b37
00000150: 2fa4 6c38 e0db 2137 1634 3138 6c8f eab7
00000160: bb2b fe37 3cd0 d3b7 cbaf 9137 d9db c737
00000170: a9c6 a537 33c4 0db5 c6e1 8838 763e 1a38
00000180: ec35 0ab8 63e1 bd35 3eb7 fa37 0793 1c37
00000190: c319 7e37 7686 0bb7 d494 08b7 db20 9037
000001a0: 758d 2937 4813 b136 b54c 0fb6 fe44 ba36
000001b0: 14f0 0538 a0bb 1738 2990 2338 3a25 2137
000001c0: 6e9b 2eb8 f022 0db8 5d9c 0737 2848 03b8
000001d0: a3e0 1838 f87e 4a38 3bcb 07b7 09de 08b7
000001e0: ec3d 0738 aba6 c7b7 5e73 8936 4800 61b7
000001f0: 302d dfb6 10c7 55b7 6236 1f38 d1cc 3ab6
00000200: 946b b2b7 38cb 0c38 1cb6 5cb6 fbe4 5937
00000210: 0606 a5b7 95e2 57b7 d7a0 ffb7 eb90 1537
00000220: 4844 16b8 9b77 06b8 b012 8e36 cc0d e936
00000230: 1a4d 9237 9f45 e5b7 d30a f736 3584 0cb7
00000240: ee77 9636 2172 1636 1f01 f337 8d2d 75b7
00000250: 064f 3138 5da5 9d37 aed2 c6b6 ff1b a737
00000260: fb79 6038 897e bbb7 2303 24b8 4aec 5036
00000270: 6aa4 e7b6 b533 52b7 b37f 56b8 da34 40b7
00000280: 05bd 3ab7 1d8c 37b7 4cbd a834 9c23 6ab7
00000290: a6de 6536 34a7 1138 d4d6 1237 69f5 84b6
000002a0: 272e aeb7 c31d 14b7 1432 1bb8 1738 a037
000002b0: cc95 c037 2fcd ae36 2090 4d37 e282 1a38
000002c0: 0350 8a38 cdf7 f2b7 7c1e 11b8 f7bb 1338
000002d0: 55c9 e537 45e0 da37 015b a6b7 8711 4eb6
000002e0: f1e9 2138 df3e d3b6 1f67 9137 5a2f ca37
000002f0: 6fb6 e537 f2b0 f737 269c 2c37 b12c 8cb7
00000300: 1245 9837 2a60 bfb7 e390 30b7 2660 4437
00000310: ef24 ac36 9d25 4e37 1f64 d237 400e ddb7
00000320: 24e7 d1b7 f064 3638 ff90 83b7 a2ea bab7
00000330: 31ca 9037 11b6 7cb7 0cc1 9936 2509 bf37
00000340: ae89 d637 fcdc 3737 44b4 0738 8629 90b7
00000350: b54e 67b5 774f 9eb7 6e4c a5b7 811a a4b7
00000360: 9525 1137 6450 64b8 eab9 64b7 1cb2 0838
00000370: 606f c537 6665 d337 e365 4fb8 148a b637
00000380: 5bc1 9ab6 4e65 1cb4 fd85 7eb7 1c7c 4638
00000390: 2afd 1ab7 51e6 4d38 e107 7837 d539 bf37
000003a0: 3a07 9937 a5b3 b138 bce7 ceb5 f050 0db8
000003b0: e962 9b37 d071 a037 dc3b e9b6 6613 acb8
000003c0: 5a0f e6b5 a4d2 1eb7 01d4 38b7 e7ca a5b6
000003d0: c9ce 99b7 337a 59b7 db39 7f37 9f3e 0a38
000003e0: 89e4 8437 463a c0b6 88a5 0838 9ee0 6b37
000003f0: ce26 adb6 5e55 7ab5 073d 4bb7 cf14 21b7

exp_avg_sq f4 [128, 81]
2.7161986e-09 2.1276891e-08 1.0521989e-09 1.548976e-07 5.1036406e-09 6.96198e-08 2.2788063e-08 1.4457786e-08
1.1223241e-10 1.05113696e-08 1.8825604e-08 4.786916e-09 3.2372352e-08 1.3245707e-07 1.4378237e-09 9.114854e-08
1.7519596e-08 4.4513e-09 9.79417e-09 2.972882e-08 5.441022e-09 1.4716905e-09 2.7457798e-09 1.4786726e-09
8.029697e-09 2.5955613e-10 1.3132503e-09 2.8659513e-09 1.3304025e-09 2.6585777e-08 2.5271023e-08 3.7299227e-08
6.8735875e-09 6.5875994e-08 1.0323642e-09 1.0933354e-09 4.7743676e-08 9.311746e-09 2.7532094e-08 3.106249e-08
4.2558264e-09 1.1304374e-08 8.242203e-09 6.229033e-10 5.410133e-09 1.8176799e-08 3.0078902e-09 1.054414e-08
7.517568e-08 7.534416e-09 3.1483285e-08 1.36961935e-08 3.0253688e-10 8.9172865e-08 1.7501808e-09 1.134149e-07
9.581339e-09 1.286789e-08 7.8476137e-10 8.940398e-09 5.0032114e-08 1.4368838e-10 4.9080047e-08 5.8291217e-08
2.271872e-09 6.549391e-09 1.1338681e-09 2.150473e-08 1.567067e-08 2.860883e-09 1.4764484e-08 5.153105e-09
1.2358857e-09 1.515023e-09 5.35151e-10 3.349387e-10 4.747854e-08 3.7143966e-09 4.8370703e-09 1.3049977e-08
2.5076215e-08 9.097666e-09 4.3118487e-09 8.546519e-09 7.5430826e-08 3.0508522e-09 3.896505e-08 3.7839214e-08
3.4653647e-09 7.0137385e-09 9.193775e-09 5.399706e-09 4.838593e-09 6.7063426e-09 1.1565672e-07 1.795982e-08
3.2814363e-08 5.8200578e-09 2.2795493e-08 2.4913371e-09 3.6765038e-09 8.9576115e-09 5.1728324e-09 5.838669e-09
7.7531925e-10 1.2828418e-09 3.0390825e-09 7.6263723e-10 1.156762e-08 1.0716447e-08 1.914908e-08 1.5738302e-09
6.5901936e-08 3.0836624e-08 4.4376787e-09 9.053266e-09 1.5939769e-08 5.6590906e-08 1.2657365e-09 2.7722553e-09
3.3162586e-08 1.764962e-09 5.281194e-09 4.2122963e-09 6.5828862e-09 3.1724061e-09 2.6604972e-08 5.843108e-10
1.1857216e-08 4.9173398e-08 2.6897426e-10 5.846528e-09 3.211953e-08 1.182235e-08 5.021505e-08 1.1315493e-09
1.2885222e-07 2.7073541e-09 2.5071618e-09 1.3442263e-09 2.4206908e-08 4.941923e-08 2.000345e-09 7.647244e-09
8.598108e-09 8.6024343e-10 8.9594705e-09 7.7255496e-10 3.1944683e-08 7.110205e-09 5.7547784e-09 8.63889e-09
4.0460595e-08 4.622824e-09 2.6719766e-08 9.726627e-10 2.8268856e-09 1.1789501e-08 5.036132e-08 4.786258e-09
3.927264e-09 1.6967544e-08 2.4039555e-09 5.4967866e-09 1.1904967e-08 1.3431264e-07 4.2041255e-09 5.7522125e-09
5.4712988e-08 8.424424e-08 1.8961295e-07 2.6941356e-07 6.430863e-08 8.179772e-09 6.0177946e-08 5.0039426e-07
2.8888502e-07 1.5475261e-07 2.130439e-08 2.117296e-07 2.2613975e-08 3.6311015e-08 9.5027744e-08 1.7035223e-08
4.1318813e-08 5.5234526e-08 1.5733704e-08 9.637064e-08 9.496303e-09 1.9264055e-08 1.15654135e-08 9.487971e-09
1.4421559e-07 1.5812978e-07 1.5582513e-07 1.0690801e-08 4.287102e-08 4.0016868e-08 2.4601306e-07 1.0629744e-07
8.591419e-09 2.1100824e-07 9.976208e-09 3.1153554e-08 6.512511e-08 3.2221482e-08 8.775857e-08 2.5415387e-08
1.3718307e-08 1.3367814e-08 2.6056048e-07 3.0687546e-09 5.7597756e-08 1.5068942e-07 1.5120483e-07 4.5673713e-07
8.751512e-09 8.145701e-07 1.2682276e-09 3.941993e-08 1.9335369e-08 5.1509204e-07 2.1790893e-07 3.7543227e-08
1.5722152e-08 6.026239e-09 6.4889276e-09 6.721563e-08 2.8037386e-09 2.8345585e-07 1.6643572e-09 2.3510951e-08
3.190369e-08 5.098e-07 1.9650308e-08 1.8652132e-07 3.0707316e-08 3.0252036e-09 9.110858e-09 3.3461973e-07
6.363527e-09 2.7097022e-09 1.01666856e-07 2.9818594e-09 4.02964e-09 3.5819734e-09 3.4745598e-09 1.147799e-08
1.2960562e-09 1.3348204e-09 1.0325322e-09 1.187469e-08 1.3577836e-09 9.44426e-09 7.752072e-09 7.248498e-09
00000000: dfa7 3a31 61c4 b632 f59c 9030 ee51 2634
00000010: 195c af31 e481 9533 7bbf c332 0462 7832
00000020: 3bcd f62e 7e95 3432 f1b5 a132 297a a431
00000030: c709 0b33 8639 0e34 ed9c c530 71bd c333
00000040: 007e 9632 0df2 9831 3743 2832 5e5e ff32
00000050: bcf3 ba31 8244 ca30 45b0 3c31 2b3a cb30
00000060: fbf2 0932 47b1 8e2f e37d b430 59f2 4431
00000070: 60d9 b630 be5e e432 9113 d932 ef32 2033
00000080: b72c ec31 b677 8d33 16e3 8d30 5244 9630
00000090: ba0e 4d33 7ef9 1f32 b77f ec32 9269 0533
000000a0: a53a 9231 2a35 4232 9899 0d32 ec38 2b30
000000b0: 08e4 b931 3423 9c32 5db3 4e31 9e25 3532
000000c0: 4470 a133 b670 0132 3d38 0733 7f4c 6b32
000000d0: 4852 a62f 4d7f bf33 038b f030 808e f333
000000e0: 2d9b 2432 9411 5d32 acb6 5730 4998 1932
000000f0: e4e2 5633 affc 1d2f 15cc 5233 df5b 7a33
00000100: 321f 1c31 0d09 e131 70d6 9b30 67b9 b832
00000110: 2b9c 8632 3099 4431 e3a6 7d32 310f b131
00000120: dddb a930 2239 d030 e719 1330 6e22 b82f
00000130: 35eb 4b33 5b40 7f31 5233 a631 6832 6032
00000140: 2e67 d732 f54b 1c32 6c27 9431 fdd3 1232
00000150: 89fc a133 29a7 5131 875a 2733 a884 2233
00000160: 5723 6e31 7ffd f031 a6f2 1d32 5188 b931
00000170: b740 a631 9d6d e631 f45e f833 1046 9a32
00000180: c6ef 0c33 c5f9 c731 d2cf c332 1134 2b31
00000190: bda5 7c31 fee3 1932 b7bc b131 7a9d c831
000001a0: 3e1e 5530 fc4f b030 1bd8 5031 d3a1 5130
000001b0: eeba 4632 6f1b 3832 467d a432 3a4e d830
000001c0: f985 8d33 3a71 0433 3c7a 9831 af88 1b32
000001d0: eceb 8832 5c0e 7333 25f6 ad30 0882 3e31
000001e0: a66e 0e33 1493 f230 e075 b531 c0bb 9031
000001f0: ae2f e231 8f01 5a31 f488 e432 389d 2030
00000200: 96b4 4b32 b932 5333 c3de 932f 9be2 c831
00000210: ccf3 0933 3f1b 4b32 08ac 5733 da84 9b30
00000220: a15a 0a34 470c 3a31 754a 2c31 c2bf b830
00000230: 8eef cf32 0541 5433 7176 0931 ef60 0332
00000240: e1b6 1332 4076 6c30 2bec 1932 b95b 5430
00000250: 8d33 0933 064e f431 91bb c531 3d6a 1432
00000260: e5c6 2d33 cad6 9e31 6385 e532 87ae 8530
00000270: 1943 4231 c68a 4a32 db4c 5833 5f74 a431
00000280: 94f0 8631 06c0 9132 d532 2531 3fde bc31
00000290: 9986 4c32 9437 1034 e173 9031 ffa4 c531
000002a0: 91fd 6a33 c3e9 b433 6998 4b34 eba3 9034
000002b0: 0b1a 8a33 0587 0c32 2d3b 8133 d552 0635
000002c0: 0e18 9b34 132a 2634 d900 b732 ca57 6334
000002d0: a840 c232 62f4 1b33 0e12 cc33 da54 9232
000002e0: 8476 3133 013b 6d33 c826 8732 52f4 ce33
000002f0: 2f25 2332 1b7a a532 3ab1 4632 8a00 2332
00000300: aed9 1a34 62ca 2934 e350 2734 a4aa 3732
00000310: 2f21 3833 03df 2b33 c713 8434 a345 e433
00000320: 7699 1332 8191 6234 d463 2b32 b2cd 0533
00000330: e8da 8b33 e563 0a33 c975 bc33 0751 da32
00000340: c1ad 6b32 45a8 6532 29e3 8b34 1ae2 5231
00000350: 6761 7733 31cd 2134 de5a 2234 7935 f534
00000360: 8f59 1632 d5a8 5a35 cb4d ae30 ac4e 2933
00000370: ed16 a632 db44 0a35 5afa 6934 373f 2133
00000380: 610d 8732 5c0f cf31 36f5 de31 2f58 9033
00000390: e4ab 4031 e02d 9834 5dbf e430 21f5 c932
000003a0: 7a06 0933 30d9 0835 7ccb a832 9746 4834
000003b0: 0de3 0333 f2e3 4f31 fa85 1c32 c9a5 b334
000003c0: 2da6 da31 9635 3a31 f253 da33 6de9 4c31
000003d0: 1775 8a31 be26 7631 1ac5 6e31 bc30 4532
000003e0: ec20 b230 d174 b730 ffe8 8d30 7001 4c32
000003f0: c39c ba30 4b40 2232 f92d 0532 760e f931

exp_avg f4 [128, 32]
2.5741185e-06 -3.98292e-06 -3.966278e-06 -4.179465e-06 4.7129984e-06 4.9042233e-06 -3.7960806e-06 -4.669436e-06
-3.6439026e-06 -5.0389453e-06 5.645298e-06 3.9019487e-06 4.0034265e-06 -4.9651794e-06 -3.7505226e-06 -5.1205366e-06
5.193797e-06 5.347369e-06 3.5053295e-06 4.4006715e-06 -3.91438e-06 4.533311e-06 -4.6381497e-06 4.112476e-06
5.47626e-06 -4.4112658e-06 -4.6422e-06 -4.375207e-06 4.1996163e-06 3.9254946e-06 -5.350157e-07 4.4316334e-06
6.4861447e-06 -5.909324e-06 -6.642061e-06 -7.255509e-06 8.363322e-06 8.651811e-06 -6.183979e-06 -6.9827715e-06
-5.896829e-06 -8.5836955e-06 9.648281e-06 7.0504425e-06 6.9252405e-06 -8.124799e-06 -6.6901343e-06 -9.126723e-06
9.246707e-06 9.109198e-06 6.8190425e-06 7.3462447e-06 -7.3582705e-06 8.023063e-06 -8.382302e-06 8.129115e-06
9.2678665e-06 -7.4019053e-06 -7.847336e-06 -6.714646e-06 7.0079745e-06 7.2362195e-06 -1.4324967e-06 6.9099015e-06
7.34395e-06 -7.116958e-06 -6.042912e-06 -8.683747e-06 9.3666495e-06 1.0106282e-05 -5.8717283e-06 -7.690883e-06
-7.119676e-06 -1.0158547e-05 1.129488e-05 8.03341e-06 7.472071e-06 -9.383244e-06 -8.2211445e-06 -9.685424e-06
1.0115983e-05 1.00129e-05 7.731335e-06 8.418955e-06 -9.030384e-06 9.340643e-06 -9.335732e-06 9.595807e-06
1.056633e-05 -8.515511e-06 -8.533212e-06 -7.0675037e-06 7.4728596e-06 7.93239e-06 -2.3734951e-06 7.499278e-06
3.2752803e-06 -2.9020957e-06 -3.103882e-06 -2.0562802e-06 3.2123132e-06 3.589907e-06 -3.3252181e-06 -2.4532246e-06
-2.4498006e-06 -3.3420242e-06 3.6844485e-06 3.3001722e-06 3.4633658e-06 -2.9915398e-06 -2.6962375e-06 -3.3352107e-06
3.926713e-06 3.9011006e-06 3.2157127e-06 2.9798641e-06 -2.9843707e-06 3.2656642e-06 -3.609241e-06 3.224676e-06
3.9239612e-06 -2.983604e-06 -3.0222006e-06 -2.988213e-06 2.829731e-06 3.2480536e-06 -4.1274308e-07 2.486961e-06
2.253545e-06 -2.6824368e-06 -2.5638137e-06 -2.209158e-06 2.5975241e-06 2.8604359e-06 -2.4020558e-06 -2.5439406e-06
-2.0405746e-06 -2.8720149e-06 3.2939831e-06 2.5875684e-06 2.7581843e-06 -2.7424628e-06 -2.116693e-06 -2.8900374e-06
3.2973073e-06 3.0675906e-06 2.4984924e-06 2.532582e-06 -2.3374967e-06 2.6300504e-06 -2.9407092e-06 2.6275882e-06
3.1205163e-06 -2.495364e-06 -2.5904947e-06 -2.4166743e-06 2.3751688e-06 2.2469367e-06 -2.778415e-07 2.1793962e-06
4.533588e-06 -5.44728e-06 -5.5919154e-06 -4.670677e-06 5.4206866e-06 5.0611347e-06 -4.7776916e-06 -5.183321e-06
-4.2741217e-06 -5.786613e-06 6.5027866e-06 4.4777335e-06 5.336054e-06 -5.6316658e-06 -4.0365667e-06 -6.157837e-06
6.530587e-06 5.7495754e-06 4.6417454e-06 5.2327064e-06 -4.3424757e-06 4.689551e-06 -5.6815065e-06 5.60797e-06
5.9613462e-06 -4.2846937e-06 -5.0898298e-06 -4.672888e-06 4.8696347e-06 4.641396e-06 -9.1207716e-07 4.6412383e-06
6.152776e-06 -6.3359407e-06 -6.177251e-06 -6.543691e-06 7.106081e-06 7.755602e-06 -3.9823317e-06 -6.2803233e-06
-5.659865e-06 -7.272974e-06 8.327757e-06 6.3673797e-06 6.6824255e-06 -7.5987637e-06 -6.1351243e-06 -7.30016e-06
7.6558445e-06 7.762812e-06 5.7119687e-06 6.731674e-06 -6.7333085e-06 7.1468917e-06 -6.7928827e-06 6.2225213e-06
7.384421e-06 -6.5921136e-06 -6.50781e-06 -6.4500605e-06 5.375638e-06 6.242544e-06 -2.6982057e-06 6.583314e-06
3.4664508e-06 -2.9481132e-06 -2.9324278e-06 -2.641824e-06 3.5812213e-06 3.7105071e-06 -2.8655265e-06 -2.1608823e-06
-2.7334322e-06 -3.5667229e-06 3.565726e-06 3.2688476e-06 3.719502e-06 -2.991281e-06 -2.7920275e-06 -3.7112077e-06
4.2325446e-06 3.9733695e-06 3.020849e-06 3.1515456e-06 -2.7137855e-06 3.4214115e-06 -3.5596884e-06 3.7997447e-06
3.821427e-06 -3.1462619e-06 -3.1300917e-06 -2.8430159e-06 2.613453e-06 3.435801e-06 -7.784334e-07 2.5767504e-06
00000000: 05bf 2c36 06a5 85b6 1216 85b6 553d 8cb6
00000010: 5924 9e36 f58e a436 2bc0 7eb6 26ae 9cb6
00000020: c589 74b6 3614 a9b6 be6c bd36 7ced 8236
00000030: 2c55 8636 919a a6b6 7db1 7bb6 13d1 abb6
00000040: 6046 ae36 8d6d b336 1a3d 6b36 7ba9 9336
00000050: 4558 83b6 d81c 9836 67a1 9bb6 e6fd 8936
00000060: b7c0 b736 7c04 94b6 32c4 9bb6 bece 92b6
00000070: 6eea 8c36 beb7 8336 009e 0fb5 71b3 9436
00000080: 8fa3 d936 b548 c6b6 dfde deb6 5974 f3b6
00000090: 3250 0c37 3f27 1137 fa7f cfb6 8d4d eab6
000000a0: 60dd c5b6 b102 10b7 0ddf 2137 d792 ec36
000000b0: 5d5f e836 bf4f 08b7 d17b e0b6 fa1e 19b7
000000c0: 4e22 1b37 b5d3 1837 21cf e436 c37f f636
000000d0: 10e7 f6b6 cb9a 0637 b7a1 0cb7 4862 0837
000000e0: 2f7d 1b37 e25d f8b6 0da8 03b7 5f4e e1b6
000000f0: 0b26 eb36 a7ce f236 3644 c0b5 9adb e736
00000100: 0d6c f636 34ce eeb6 38c4 cab6 69b0 11b7
00000110: 7425 1d37 278e 2937 c305 c5b6 1708 01b7
00000120: 8de5 eeb6 a16e 2ab7 247f 3d37 3cc7 0637
00000130: 9ab8 fa36 ba6c 1db7 8ced 09b7 947e 22b7
00000140: d1b7 2937 14fd 2737 d5b5 0137 233f 0d37
00000150: 3481 17b7 c2b5 1c37 aaa0 1cb7 adfd 2037
00000160: 0b46 3137 d7dd 0eb7 de29 0fb7 6525 edb6
00000170: 60bf fa36 5b15 0537 5648 1fb6 4fa2 fb36
00000180: e3cc 5b36 a0c1 42b6 494c 50b6 a0fe 09b6
00000190: 1f93 5736 22ea 7036 d026 5fb6 14a2 24b6
000001a0: 4167 24b6 8a47 60b6 5842 7736 8778 5d36
000001b0: 2c6c 6836 43c2 48b6 02f1 34b6 7cd2 5fb6
000001c0: 35c2 8336 33e6 8236 86cd 5736 adf9 4736
000001d0: 1947 48b6 af27 5b36 4a36 72b6 8367 5836
000001e0: 92aa 8336 ed39 48b6 03d1 4ab6 1c89 48b6
000001f0: 69e6 3d36 23f9 5936 fa96 ddb4 aae5 2636
00000200: 9c3b 1736 ea03 34b6 fc0d 2cb6 0c41 14b6
00000210: 2051 2e36 eaf5 3f36 0133 21b6 91b8 2ab6
00000220: cef0 08b6 d7bc 40b6 330e 5d36 16a6 2d36
00000230: 3f19 3936 270b 38b6 820c 0eb6 77f2 41b6
00000240: 4f47 5d36 cedc 4d36 c6ab 2736 6df5 2936
00000250: e3dd 1cb6 ec7f 3036 0059 45b6 9f55 3036
00000260: 106a 5136 0776 27b6 5cd8 2db6 262e 22b6
00000270: 1765 1f36 14ca 1636 3f2a 95b4 be41 1236
00000280: 391f 9836 c7c7 b6b6 30a2 bbb6 cfb8 9cb6
00000290: 58e3 b536 d1d2 a936 0f50 a0b6 63ec adb6
000002a0: 6d6a 8fb6 a12a c2b6 8332 da36 703f 9636
000002b0: 5b0c b336 a4f7 bcb6 d871 87b6 6b9f ceb6
000002c0: 5121 db36 7aec c036 4ac0 9b36 9b94 af36
000002d0: 95b5 91b6 f05a 9d36 c5a3 beb6 182c bc36
000002e0: 9307 c836 3dc5 8fb6 4ec9 aab6 cdcb 9cb6
000002f0: d865 a336 4abd 9b36 77d5 74b5 efbb 9b36
00000300: f273 ce36 5199 d4b6 2f46 cfb6 e191 dbb6
00000310: c570 ee36 0f1e 0237 f89f 85b6 91bb d2b6
00000320: dfe9 bdb6 5f0a f4b6 72b7 0b37 60a7 d536
00000330: 9939 e036 e2f8 feb6 51dc cdb6 e6f3 f4b6
00000340: 9a71 0037 063d 0237 70a9 bf36 a4e0 e136
00000350: aeee e1b6 55cf ef36 6bee e3b6 0dcb d036
00000360: b2c7 f736 d331 ddb6 aa5d dab6 996d d8b6
00000370: 6160 b436 0b77 d136 d212 35b6 3de6 dc36
00000380: 2ca1 6836 33d8 45b6 baca 44b6 314a 31b6
00000390: ea54 7036 0702 7936 5f4d 40b6 ad03 11b6
000003a0: 0270 37b6 d55b 6fb6 b54a 6f36 605e 5b36
000003b0: 8f9c 7936 d1bd 48b6 ab5e 3bb6 100e 79b6
000003c0: 4805 8e36 fc52 8536 cab9 4a36 247f 5336
000003d0: 7b1e 36b6 679b 6536 fbe2 6eb6 1eff 7e36
000003e0: cf39 8036 5e24 53b6 910e 52b6 a4ca 3eb6
000003f0: c862 2f36 9d92 6636 89f5 50b5 3cec 2c36

exp_avg_sq f4 [128, 32]
8.321324e-09 1.2895788e-08 1.2791228e-08 4.8623344e-10 7.7830835e-09 1.4015059e-08 3.3102762e-10 1.8522911e-09
6.375115e-10 1.1203976e-08 1.9939197e-08 9.450332e-10 1.2607367e-09 1.3996891e-08 3.8278647e-09 1.238622e-08
2.4337066e-08 1.06886695e-08 6.658073e-10 9.015842e-09 1.3700494e-08 4.6536734e-09 1.28125e-09 7.692523e-09
1.4778929e-08 1.1688477e-08 2.9638483e-10 1.05093845e-08 1.5772058e-09 2.1085573e-09 8.3421096e-11 1.2791946e-08
1.4570211e-08 1.7273761e-08 1.7429137e-08 8.6541646e-10 1.04917985e-08 1.7713633e-08 3.0155162e-10 2.8601368e-09
7.598962e-10 1.4904176e-08 3.1280205e-08 1.6012205e-09 1.9840118e-09 1.9289638e-08 4.500713e-09 1.7293518e-08
3.4581635e-08 1.6465112e-08 6.2242805e-10 1.21404184e-08 2.0054191e-08 5.942951e-09 1.5840788e-09 1.1722949e-08
1.8742716e-08 1.5659737e-08 5.878034e-10 1.1403518e-08 2.2828361e-09 2.9621567e-09 5.1104468e-11 1.532256e-08
3.560849e-08 5.4296628e-08 3.8744428e-08 2.224435e-09 3.0874155e-08 5.767647e-08 6.1366007e-10 4.771418e-09
2.8534108e-09 4.6008797e-08 7.68653e-08 3.4238266e-09 2.7893712e-09 5.9157152e-08 1.541227e-08 4.9874824e-08
8.650128e-08 4.3305885e-08 2.3451312e-09 3.3865238e-08 5.6885174e-08 1.6796372e-08 4.156713e-09 2.9867735e-08
5.6627677e-08 4.8195833e-08 1.8395363e-09 4.0111004e-08 4.836874e-09 6.260828e-09 5.0900315e-11 3.8876028e-08
1.8588193e-09 1.7229731e-09 1.8977575e-09 7.636212e-11 1.004988e-09 1.921402e-09 2.0549e-10 3.819548e-10
2.716447e-10 1.5408596e-09 2.2745084e-09 6.4310846e-10 5.0490645e-10 1.7750733e-09 1.0591216e-09 1.600901e-09
2.401713e-09 1.597275e-09 4.0236275e-10 1.4295904e-09 1.8864066e-09 1.0104773e-09 5.209525e-10 1.3520205e-09
1.7483278e-09 1.651821e-09 2.1571268e-10 1.3337677e-09 2.6666905e-10 6.1423183e-10 9.281965e-12 1.6407568e-09
2.966992e-09 3.544894e-09 3.1251437e-09 1.00621525e-10 1.8816295e-09 3.1122742e-09 9.7009456e-11 4.487269e-10
9.5920764e-11 2.8220255e-09 6.2911827e-09 4.1219325e-10 3.8423456e-10 3.5552503e-09 8.559471e-10 2.867987e-09
6.5094237e-09 3.2712841e-09 9.216654e-11 2.3821338e-09 3.6593737e-09 1.087598e-09 2.620523e-10 1.9776565e-09
3.5213403e-09 3.0195906e-09 6.5419385e-11 2.0273316e-09 3.7251324e-10 4.0901157e-10 5.283524e-12 2.5624598e-09
8.036128e-09 9.7120125e-09 9.979662e-09 4.5097107e-10 4.736676e-09 7.609681e-09 1.8027381e-10 1.5113787e-09
3.2762293e-10 9.290328e-09 1.5994834e-08 6.949436e-10 8.454191e-10 9.122147e-09 2.1772042e-09 9.336003e-09
1.8710999e-08 1.0068757e-08 2.7145647e-10 6.604639e-09 9.510947e-09 2.5638347e-09 5.1543414e-10 8.2298355e-09
1.0683838e-08 7.388084e-09 2.840431e-10 4.765402e-09 1.4180199e-09 1.866752e-09 2.6223268e-11 6.3984618e-09
1.4852947e-08 1.43342085e-08 1.7054884e-08 2.6692961e-09 8.722158e-09 1.4532668e-08 1.746034e-09 7.907696e-09
3.9222843e-09 1.4488615e-08 1.6746892e-08 6.5927757e-09 6.834839e-09 1.5951954e-08 9.736641e-09 1.40524685e-08
1.8235323e-08 1.4911866e-08 3.9683776e-09 1.218094e-08 1.612081e-08 9.404708e-09 5.8420015e-09 1.3154242e-08
1.2974931e-08 1.4610883e-08 3.0972955e-09 1.2657465e-08 5.461244e-09 7.503456e-09 1.52083e-10 1.5527291e-08
6.6844114e-10 5.739693e-10 5.928033e-10 2.9866457e-11 3.7180434e-10 7.5284157e-10 3.8865685e-11 1.5583698e-10
9.00064e-11 5.64979e-10 7.4907164e-10 1.6925872e-10 9.8143695e-11 6.421942e-10 3.3742065e-10 5.3808813e-10
7.935924e-10 5.2059684e-10 1.2181409e-10 4.82388e-10 5.755177e-10 3.024511e-10 1.5114075e-10 4.2237266e-10
5.115162e-10 5.5842914e-10 6.213742e-11 6.132591e-10 8.647802e-11 1.8925284e-10 5.5312543e-12 5.6452193e-10
00000000: 92f5 0e32 478c 5d32 6ac0 5b32 a3a7 0530
00000010: 5db6 0532 e2c6 7032 fffb b52f b393 fe30
00000020: e23c 2f30 9c7b 4032 c246 ab32 66e2 8130
00000030: 3b46 ad30 fa76 7032 4186 8331 2ccb 5432
00000040: c60d d132 44a1 3732 0604 3730 18e4 1a32
00000050: 695f 6b32 25e6 9f31 fa17 b030 1328 0432
00000060: 6be6 7d32 77ce 4832 75f0 a22f c38c 3432
00000070: ffc4 d830 22e6 1031 e771 b72e 93c3 5b32
00000080: 7750 7a32 6761 9432 14b7 9532 45e2 6d30
00000090: 6b3f 3432 b128 9832 9ec7 a52f 0f8c 4431
000000a0: f1e0 5030 a106 8032 f358 0633 f011 dc30
000000b0: 1b57 0831 5db2 a532 b1a4 9a31 d98c 9432
000000c0: e986 1433 2a6f 8d32 7b17 2b30 2092 5032
000000d0: a243 ac32 c032 cc31 d1b6 d930 1366 4932
000000e0: abff a032 2084 8632 fd92 2130 34e9 4332
000000f0: 14e0 1c31 d08e 4b31 84c2 602e aa9e 8332
00000100: f3ef 1833 c633 6933 f367 2633 addc 1831
00000110: 7e9a 0433 f3b7 7733 7dae 2830 d6f1 a331
00000120: bc15 4431 359b 4533 2511 a533 9848 6b31
00000130: 23af 3f31 fa13 7e33 f163 8432 f335 5633
00000140: 95c2 b933 53ff 3933 fc27 2131 3973 1133
00000150: e951 7433 9d47 9032 d6d2 8e31 ec47 0033
00000160: ca36 7333 e1ff 4e33 eed2 fc30 8446 2c33
00000170: 9831 a631 d31e d731 a9dc 5f2e a5f8 2633
00000180: 6479 ff30 bacd ec30 b469 0231 0dec a72e
00000190: df1f 8a30 a909 0431 4bf0 612f 5cfb d12f
000001a0: 9856 952f 2dc6 d330 934d 1c31 bcc6 3030
000001b0: a2c9 0a30 d7f6 f330 8790 9130 b206 dc30
000001c0: 620b 2531 1e87 db30 8633 dd2f 3e7b c430
000001d0: 04a2 0131 02e1 8a30 c632 0f30 fed1 b930
000001e0: d149 f030 4906 e330 b92d 6d2f c74f b730
000001f0: 559a 922f b9d6 2830 414a 232d ff80 e130
00000200: e0e3 4b31 6f9a 7331 1cc2 5631 e244 dd2e
00000210: fa4d 0131 b5df 5531 7853 d52e b2b0 f62f
00000220: 97ee d22e 99ed 4131 d429 d831 0b9b e22f
00000230: 353c d32f a050 7431 ec47 6b30 2916 4531
00000240: 7fa9 df31 0acd 6031 26ad ca2e f1b2 2331
00000250: 6278 7b31 747a 9530 9510 902f 4de7 0731
00000260: 13fc 7131 3381 4f31 d7db 8f2e 3251 0b31
00000270: 94ca cc2f 43db e02f c1e5 b92c 4517 3031
00000280: 440f 0a32 e2d9 2632 0573 2b32 89ec f72f
00000290: 3ec0 a231 bbbb 0232 9136 462f e9b8 cf30
000002a0: d41c b42f 4b9b 1f32 0365 8932 4f06 3f30
000002b0: 1563 6830 a0b7 1c32 c89d 1531 2d64 2032
000002c0: ecb9 a032 ddfa 2c32 1a3c 952f 05ef e231
000002d0: 9665 2332 752f 3031 74ae 0d30 3363 0d32
000002e0: 048c 3732 46da fd31 8327 9c2f ebbc a331
000002f0: 24e4 c230 4048 0031 8da9 e62d 77d9 db31
00000300: f42b 7f32 8442 7632 1680 9232 c16e 3731
00000310: 75d8 1532 5aab 7932 1cf9 ef30 6ada 0732
00000320: c7c4 8631 9ae9 7832 ceda 8f32 ab86 e231
00000330: e1d7 ea31 b806 8932 3346 2732 696b 7132
00000340: e6a3 9c32 8a17 8032 385a 8831 5744 5132
00000350: 097a 8a32 5892 2132 caba c831 f8fc 6132
00000360: 5ae8 5e32 5803 7b32 33d8 5431 1f74 5932
00000370: 9ca5 bb31 8ce8 0032 8f37 272f e060 8532
00000380: 5dbd 3730 80c5 1d30 d3f2 2230 a45a 032e
00000390: cf66 cc2f 84f0 4e30 dfee 2a2e 3658 2b2f
000003a0: 19ed c52e dd4c 1b30 3be7 4d30 181a 3a2f
000003b0: fdd1 d72e 6686 3030 bc7f b92f 96e8 1330
000003c0: 1a24 5a30 bf19 0f30 9eef 052f 0a99 0430
000003d0: 7532 1e30 3546 a62f 572e 262f ab33 e82f
000003e0: c19a 0c30 f57f 1930 42a4 882e 4692 2830
000003f0: cc2a be2e f015 502f 1c9d c22c b32c 1b30

exp_avg f4 [128]
-4.38329e-05 -7.731073e-05 -7.6133896e-05 -4.4957338e-05 -4.7461403e-05 -7.319344e-05 -3.670763e-05 -5.1998144e-05
-5.202417e-05 -5.914101e-05 -4.8769198e-05 -5.9460734e-05 -4.2964697e-05 -6.534848e-05 -0.00011494661 -6.0190858e-05
-9.615801e-05 -6.646843e-05 -6.872654e-05 -0.00011468698 -0.000119822726 -5.5862612e-05 -5.9243896e-05 -5.3416363e-05
-6.138336e-05 -9.506143e-05 -7.8783196e-05 -6.954192e-05 -3.870905e-05 -7.953461e-05 -1.9620433e-05 -0.00010186208
-6.1208e-06 -1.0699398e-05 -1.164097e-05 -1.405008e-05 -5.944535e-06 -7.261016e-06 -8.781484e-06 -9.151832e-06
-5.398366e-06 -1.6753076e-05 -7.4453214e-06 -8.450028e-06 -1.0719091e-05 -1.1061415e-05 -1.6610615e-05 -1.398202e-05
-1.0896502e-05 -9.676845e-06 -1.2750231e-05 -1.5030493e-05 -1.3197241e-05 -1.2375594e-05 -7.9929005e-06 -1.1623066e-05
-7.681052e-06 -1.2564286e-05 -9.130142e-06 -6.4367937e-06 -9.08385e-06 -1.1535343e-05 -3.0905771e-06 -1.3359064e-05
0.00017238848 -0.000116643154 -0.00022101752 -0.0001235937 0.00011615665 0.00017231259 -0.00013704221 -0.00012877547
-0.00014944373 -0.00016354976 7.284784e-05 0.00011937635 0.00012280908 -0.00018869952 -0.00014492472 -0.00018602541
0.00013891257 8.200091e-05 0.00014316489 0.00016189233 -0.00018408164 0.00011773009 -0.00011916859 0.00016413844
0.0001966491 -0.00019910555 -0.0001308974 -0.00017380217 0.00015081342 0.00016437189 -0.00016160282 0.00014921367
-8.724062e-05 -0.00014502964 -0.00011094836 -0.00023423911 -0.00013922715 -0.000118455544 -0.00021946577 -0.00013468166
-9.122405e-05 -0.0001584018 -9.129262e-05 -0.00012052639 -6.763879e-05 -0.00012620671 -0.000204241 -0.00015441656
-0.00010569287 -9.9314486e-05 -0.000106188876 -0.0002241649 -0.00013880387 -0.00014626417 -0.00016279235 -0.0001026391
-0.00014685499 -0.00016198182 -0.0001831349 -0.0001517106 -0.000151801 -0.00013906261 -7.5365824e-05 -0.00014127672
00000000: 38d9 37b8 e221 a2b8 13aa 9fb8 9390 3cb8
00000010: 4b11 47b8 6e7f 99b8 85f6 19b8 9518 5ab8
00000020: 8734 5ab8 2d0e 78b8 878d 4cb8 7a65 79b8
00000030: fe34 34b8 b30b 89b8 7e0f f1b8 7175 7cb8
00000040: 70a8 c9b8 f764 8bb8 4821 90b8 1b84 f0b8
00000050: 5649 fbb8 064e 6ab8 a67c 78b8 620b 60b8
00000060: f1ba 80b8 b75b c7b8 6838 a5b8 09d7 91b8
00000070: 875b 22b8 d2cb a6b8 8f96 a4b7 ca9e d5b8
00000080: 4661 cdb6 9181 33b7 964d 43b7 a2b8 6bb7
00000090: 2b77 c7b6 a7a3 f3b6 3054 13b7 d28a 19b7
000000a0: 9c23 b5b6 f588 8cb7 d3d2 f9b6 98c4 0db7
000000b0: 25d6 33b7 6a94 39b7 0657 8bb7 5294 6ab7
000000c0: 1fd0 36b7 bc59 22b7 d3e9 55b7 7a2b 7cb7
000000d0: b869 5db7 c6a0 4fb7 3f19 06b7 b000 43b7
000000e0: dedd 00b7 33cb 52b7 a92d 19b7 a3fb d7b6
000000f0: d766 18b7 ec87 41b7 b667 4fb6 be20 60b7
00000100: 2ec3 3439 519e f4b8 f0c0 67b9 ee98 01b9
00000110: 2099 f338 cfae 3439 fdb2 0fb9 e707 07b9
00000120: ffb3 1cb9 8e7e 2bb9 e3c5 9838 b159 fa38
00000130: 50c6 0039 a4dd 45b9 eff6 17b9 d10f 43b9
00000140: 0fa9 1139 e7f7 ab38 881e 1639 a4c1 2939
00000150: 0a06 41b9 dce5 f638 26ea f9b8 941c 2c39
00000160: 9733 4e39 fdc6 50b9 8141 09b9 aa3e 36b9
00000170: ab23 1e39 3e5b 2c39 ed73 29b9 3d76 1c39
00000180: f4f4 b6b8 1913 18b9 f2ac e8b8 159e 75b9
00000190: 81fd 11b9 566b f8b8 6520 66b9 5539 0db9
000001a0: 8a4f bfb8 a918 26b9 5a74 bfb8 1dc3 fcb8
000001b0: 4dd9 8db8 5b56 04b9 8729 56b9 e1ea 21b9
000001c0: 6da7 ddb8 0f47 d0b8 b8b1 deb8 cf0d 6bb9
000001d0: e18b 11b9 7d5e 19b9 3db3 2ab9 f23f d7b8
000001e0: 16fd 19b9 aad9 29b9 e707 40b9 8114 1fb9
000001f0: c52c 1fb9 56d1 11b9 b80d 9eb8 ae23 14b9

exp_avg_sq f4 [128]
6.211412e-08 1.0414097e-07 2.5701732e-07 4.8921884e-09 2.2931722e-08 5.610444e-08 2.5502882e-08 2.2924336e-09
1.9594529e-08 5.0761194e-08 9.307541e-08 2.3171157e-08 6.479897e-08 2.213308e-07 2.266146e-07 8.8298606e-08
3.4123207e-07 1.10971094e-07 2.4800016e-08 5.359441e-07 8.4569507e-07 5.6122975e-08 3.315288e-08 1.3526571e-07
3.5910848e-08 6.7633187e-07 2.085247e-08 9.562978e-08 1.3650462e-08 1.6462064e-08 1.3350523e-09 1.4247453e-07
2.1231256e-07 3.1730497e-07 1.1247736e-06 4.4059725e-08 7.737073e-08 1.9026727e-07 4.5642043e-08 8.0902645e-08
1.9096142e-08 2.9650948e-07 3.6263586e-07 3.805694e-08 1.3150019e-07 4.907588e-07 4.526159e-07 3.7933282e-07
8.8787885e-07 3.6763404e-07 4.7926083e-08 6.494559e-07 1.9975391e-06 1.8307747e-07 9.0833566e-08 6.607455e-07
9.51901e-08 1.7561487e-06 3.4065245e-08 2.3622843e-07 6.853109e-08 1.8232916e-07 1.3429213e-09 8.2350186e-07
6.515405e-07 3.8322682e-07 4.397631e-06 3.6773548e-07 2.2545113e-07 1.3162329e-06 1.0226624e-07 4.859093e-07
3.059728e-07 7.591585e-07 2.970866e-07 1.8162844e-07 6.058156e-07 2.5670238e-06 1.0189959e-06 1.6823766e-06
3.5001797e-06 4.5860668e-07 2.3901174e-07 1.4854586e-06 6.308855e-06 8.9417927e-07 1.1458717e-06 1.139571e-06
8.8130236e-07 5.9792774e-06 2.3588264e-07 7.547244e-07 3.924327e-07 1.5525392e-06 1.4914446e-07 2.4406452e-06
4.3942612e-07 1.0177365e-06 1.0966958e-06 2.4795128e-07 8.813364e-07 7.9633656e-07 1.7939665e-07 1.7430197e-07
6.529323e-08 1.1459816e-06 5.9519755e-07 1.3271465e-07 1.16715846e-07 1.1507402e-06 1.5113759e-06 1.1602456e-06
1.1072316e-06 7.142822e-07 6.009046e-08 4.0263135e-06 2.4665649e-06 4.7189278e-07 3.3727315e-07 5.980406e-07
1.0645803e-06 2.1040282e-06 1.8129693e-07 6.102067e-07 1.9525416e-07 2.1917292e-07 3.0170408e-09 8.924442e-07
00000000: 9963 8533 1ba4 df33 31fc 8934 2518 a831
00000010: 64fb c432 7cf7 7033 6e11 db32 eb88 1d31
00000020: d350 a832 8604 5a33 bfe0 c733 ea09 c732
00000030: 9c27 8b33 f2a6 6d34 5953 7334 ac9e bd33
00000040: 9432 b734 014f ee33 d007 d532 ccdd 0f35
00000050: b903 6335 dd0b 7133 fa63 0e33 8e3d 1134
00000060: 653c 1a33 2c8d 3535 111f b332 075d cd33
00000070: 5e83 6a32 7668 8d32 fa7c b730 1afb 1834
00000080: 08f8 6334 105a aa34 edf6 9635 2e3c 3d33
00000090: 0227 a633 454c 4c34 f507 4433 b3bc ad33
000000a0: dc08 a432 f42f 9f34 4bb0 c234 0c74 2333
000000b0: 7f32 0d34 b0bc 0335 0eff f234 1ba7 cb34
000000c0: 9256 6e35 3d5f c534 49d7 4d33 4556 2e35
000000d0: 760d 0636 f493 4434 4810 c333 165e 3135
000000e0: 506b cc33 cfb4 eb35 224f 1233 faa5 7d34
000000f0: 5d2b 9333 42c6 4334 d891 b830 9e0e 5d35
00000100: 86e5 2e35 4bbe cd34 5d8f 9336 2e6d c534
00000110: 8913 7234 6ba9 b035 769d db33 6f6f 0235
00000120: 9544 a434 fac8 4b35 457f 9f34 a505 4334
00000130: 559f 2235 2245 2c36 6fc4 8835 05ce e135
00000140: a1e4 6a36 6c36 f634 8651 8034 f85f c735
00000150: a7b0 d336 8807 7035 dacb 9935 5df3 9835
00000160: a392 6c35 9aa1 c836 ed46 7d34 4498 4a35
00000170: 8aaf d234 d760 d035 8424 2034 f7c9 2336
00000180: 44ea eb34 2999 8835 2e32 9335 2a1e 8534
00000190: fa94 6c35 d5c3 5535 2da0 4034 c327 3b34
000001a0: 5537 8c33 a1cf 9935 aac5 1f35 5380 0e34
000001b0: 37a5 fa33 2273 9a35 7bda ca35 bcb9 9b35
000001c0: 309c 9435 19bd 3f35 140b 8133 c519 8736
000001d0: 4387 2536 7358 fd34 7812 b534 0989 2035
000001e0: b3e2 8e35 ee32 0d36 85aa 4234 16cd 2335
000001f0: 0ea7 5134 cb55 6b34 5854 4f31 4c90 6f35
