lightning_logs/version_83/checkpoints/epoch=1.ckpt (torch_old, 291029 bytes, 21 tensors)

exp_avg f4 [81, 81]
0	0xb73dea62	-1.1319849e-05
1	0xb70faf26	-8.564244e-06
2	0x371f4ce8	9.495045e-06
3	0x35ff67b0	1.9029158e-06
4	0x36541767	3.1604084e-06
5	0xb7eb1f9d	-2.8028904e-05
6	0xb7806961	-1.530786e-05
7	0xb74b5869	-1.21203275e-05
8	0x356a1c41	8.721291e-07
9	0x36ebc341	7.0262763e-06
10	0x36aeea71	5.2128967e-06
11	0xb7ad7eac	-2.0682193e-05
12	0xb6a1c62b	-4.8212437e-06
13	0xb5689355	-8.664113e-07
14	0x363c4d48	2.8059167e-06
15	0x37228c77	9.688657e-06
16	0xb7248198	-9.805335e-06
17	0xb72f0388	-1.0431635e-05
18	0xb73500c6	-1.0788621e-05
19	0xb6acfeeb	-5.155676e-06
20	0xb575bc5e	-9.154372e-07
21	0xb74556d4	-1.1762331e-05
22	0x375f0bcb	1.3294582e-05
23	0x36e1612e	6.7168357e-06
24	0x36b72fcc	5.4593893e-06
25	0x378efc3e	1.7045179e-05
26	0xb6c93803	-5.9967874e-06
27	0xb796bf60	-1.797051e-05
28	0xb6bcde0f	-5.6286876e-06
29	0x35e57c90	1.7098082e-06
30	0x369b4ed0	4.628535e-06
31	0xb6f1e127	-7.208571e-06
32	0xb6fc6cb5	-7.5228404e-06
33	0x369bc803	4.6426444e-06
34	0x35f8d479	1.8539278e-06
35	0xb65aef83	-3.2623946e-06
36	0xb669b2c1	-3.4823754e-06
37	0x37887423	1.6266544e-05
38	0x35c89151	1.4943454e-06
39	0x367da56f	3.7796233e-06
40	0x372f667f	1.0454677e-05
41	0x36c72a05	5.935554e-06
42	0xb69d82b8	-4.6941823e-06
43	0x365780c0	3.211244e-06
44	0xb74d1aa9	-1.22251595e-05
45	0xb6888fc6	-4.0698533e-06
46	0xb727d32f	-1.0003146e-05
47	0xb6c9d68f	-6.0152447e-06
48	0xb790fb83	-1.7283257e-05
49	0xb6b1783d	-5.2890086e-06
50	0x36a61974	4.9501487e-06
51	0xb70273e0	-7.775583e-06
52	0xb689fc4c	-4.1122894e-06
53	0x36abd5d9	5.1210923e-06
54	0xb611418f	-2.1644844e-06
55	0x37651ada	1.36557155e-05
56	0x370d7471	8.431366e-06
57	0x36e30e8d	6.766821e-06
58	0xb7580014	-1.28746215e-05
59	0xb79f8af0	-1.9018975e-05
60	0x371e59c1	9.438431e-06
61	0xb59c4fc3	-1.164612e-06
62	0xb7c6e80c	-2.3711495e-05
63	0xb68335b0	-3.9103543e-06
64	0x35dbf557	1.6388175e-06
65	0x366c49fc	3.5209805e-06
66	0xb7788a4f	-1.4814154e-05
67	0x370c7f6c	8.374318e-06
68	0x37770179	1.472269e-05
69	0xb76511fc	-1.3653651e-05
70	0x36fb1eaf	7.483955e-06
71	0xb6b81fb3	-5.4873176e-06
72	0x371b48c1	9.255659e-06
73	0x37bb052f	2.2294551e-05
74	0xb7834109	-1.5646701e-05
75	0x37cb8eeb	2.4266037e-05
76	0xb6bb08ee	-5.574074e-06
77	0x36d3cd6d	6.3122047e-06
78	0xb786d10f	-1.6071395e-05
79	0xb7185d8f	-9.081689e-06
80	0x371a9a6e	9.215071e-06
81	0x3790b660	1.7251063e-05
82	0xb890ed2a	-6.91063e-05
83	0x386822e3	5.53456e-05
84	0x381a0e65	3.6729867e-05
85	0xb717c0ea	-9.045218e-06
86	0xb8fe2f1e	-0.0001212044
87	0x376f4801	1.4262275e-05
88	0xb8153f6b	-3.558343e-05
89	0xb7b71b24	-2.1827938e-05
90	0x37210bc8	9.599091e-06
91	0xb70c7948	-8.372888e-06
92	0xb7fb8004	-2.9981144e-05
93	0x38955c02	7.1220114e-05
94	0xb8a15132	-7.692202e-05
95	0x385a83a5	5.2097854e-05
96	0x3831246b	4.2234005e-05
97	0x36bc67b3	5.614909e-06
98	0xb82e09f7	-4.1494113e-05
99	0xb83eb409	-4.54672e-05
100	0x3866cddc	5.5027995e-05
101	0xb7001339	-7.63387e-06
102	0xb4a9b6f1	-3.161181e-07
103	0x37beef85	2.27613e-05
104	0xb7e88162	-2.7716804e-05
105	0x38383293	4.391612e-05
106	0xb76fcd47	-1.4293305e-05
107	0x373d141f	1.1269963e-05
108	0xb8a4044c	-7.82093e-05
109	0xb8376136	-4.3721135e-05
110	0x35d52395	1.5880092e-06
111	0x370b35f6	8.297609e-06
112	0xb81d3aba	-3.748641e-05
113	0xb83ec9e2	-4.5487548e-05
114	0xb4b98783	-3.4557533e-07
115	0xb7966aa7	-1.7931057e-05
116	0x3782a5bd	1.5574386e-05
117	0xb795d183	-1.7859746e-05
118	0x37f856f5	2.9604396e-05
119	0x37dd5b6c	2.6387825e-05
120	0xb79dd3af	-1.8814431e-05
121	0x37e720ed	2.7552678e-05
122	0xb7e3f9c0	-2.7176808e-05
123	0xb694b7c9	-4.432139e-06
124	0x381062bd	3.4424233e-05
125	0x36c1dea1	5.7777656e-06
126	0x3796c9f1	1.797543e-05
127	0xb894a5a6	-7.0880444e-05
128	0xb8c936fe	-9.59467e-05
129	0x370a353f	8.237838e-06
130	0xb8976d6b	-7.220622e-05
131	0x37bc2438	2.2428212e-05
132	0xb7f96c59	-2.9733566e-05
133	0xb72bf1c8	-1.0248688e-05
134	0x37ed2488	2.8269613e-05
135	0xb84ad724	-4.836092e-05
136	0xb8815253	-6.1665334e-05
137	0xb80be670	-3.3354794e-05
138	0xb81cc44e	-3.737612e-05
139	0x37c45536	2.34047e-05
140	0xb8813b43	-6.162238e-05
141	0x388b571f	6.644264e-05
142	0xb76ef358	-1.4242563e-05
143	0xb82d9353	-4.138362e-05
144	0xb8156f73	-3.5628163e-05
145	0x36b1b099	5.2955697e-06
146	0x37b6254f	2.1713464e-05
147	0xb8df8165	-0.0001065757
148	0xb8079cb7	-3.233246e-05
149	0x38a01a25	7.634264e-05
150	0xb7a456a4	-1.9590669e-05
151	0x37e18307	2.6883105e-05
152	0xb7b8bd4a	-2.2022654e-05
153	0x377a66d7	1.49251055e-05
154	0x38602204	5.343744e-05
155	0xb80eb26e	-3.4021614e-05
156	0x36a5354a	4.923587e-06
157	0xb8422823	-4.6290585e-05
158	0x3813beff	3.522541e-05
159	0xb784bc5f	-1.5823343e-05
160	0xb8844a61	-6.308105e-05
161	0xb7ccd432	-2.4417506e-05
162	0xb583ded1	-9.825109e-07
163	0xb62fa063	-2.617039e-06
164	0x344d5f8d	1.9126874e-07
165	0xb4ec5b64	-4.402492e-07
166	0xb5a52cfc	-1.230655e-06
167	0xb698dc19	-4.5555757e-06
168	0xb5d3d5dc	-1.5782966e-06
169	0xb532462a	-6.641227e-07
170	0xb5801b01	-9.544602e-07
171	0x3633fee8	2.6821454e-06
172	0x35ac406a	1.2833746e-06
173	0xb60cfc2d	-2.1008411e-06
174	0x344e861b	1.9234032e-07
175	0x34c5c347	3.6836192e-07
176	0xb58fb9ac	-1.0708368e-06
177	0x360c34ef	2.0892437e-06
178	0xb53510fc	-6.745247e-07
179	0xb5931995	-1.0959799e-06
180	0xb57c0e3b	-9.3898024e-07
181	0xb5111a44	-5.405493e-07
182	0x359aea28	1.1542043e-06
183	0xb55c76fc	-8.212953e-07
184	0x362343c1	2.432833e-06
185	0x3544eed4	7.336323e-07
186	0xb48e38ed	-2.649098e-07
187	0x35a7236b	1.2452778e-06
188	0xb5b5cbd5	-1.3544874e-06
189	0xb664b7de	-3.4081672e-06
190	0x357d4c0c	9.436051e-07
191	0x35bc6f2b	1.4039446e-06
192	0x3599fda2	1.1473205e-06
193	0xb44aabff	-1.8875288e-07
194	0xb4d3a332	-3.9420553e-07
195	0xb50c26e4	-5.221066e-07
196	0x3559a010	8.107172e-07
197	0xb5704c11	-8.951766e-07
198	0xb6158ee5	-2.2285906e-06
199	0x351c74ed	5.828468e-07
200	0x351d71f1	5.8652864e-07
201	0x35b8f397	1.3779962e-06
202	0x35cad68b	1.5112613e-06
203	0x35df7fbb	1.6651969e-06
204	0x35c47a20	1.4638681e-06
205	0x35ad4a85	1.2911192e-06
206	0xb6032327	-1.9540983e-06
207	0xb617c61b	-2.2616066e-06
208	0xb5eaf872	-1.7506666e-06
209	0xb5ff19fe	-1.9006545e-06
210	0xb5d5eba6	-1.5938319e-06
211	0xb40b10e3	-1.2951527e-07
212	0xb4b23123	-3.3190835e-07
213	0xb59d50e3	-1.1720953e-06
214	0x3405519d	1.2416281e-07
215	0x359829ae	1.1337013e-06
216	0x3580809b	9.574172e-07
217	0x344407ef	1.8256809e-07
218	0x35cad4a8	1.5112064e-06
219	0x360c9a5c	2.0951475e-06
220	0x32dc3793	2.5636643e-08
221	0xb5fa8cc9	-1.8667425e-06
222	0x35c1c3dc	1.4436623e-06
223	0xb49b3688	-2.8910677e-07
224	0xb586339a	-9.998796e-07
225	0xb65462b0	-3.1647905e-06
226	0xb4fc6fd2	-4.7020018e-07
227	0xb367ee03	-5.400035e-08
228	0xb641e7bb	-2.8894126e-06
229	0x36164120	2.238965e-06
230	0x3610e3b5	2.1590215e-06
231	0xb61b0440	-2.3099274e-06
232	0x343df1f8	1.7690024e-07
233	0xb61f3e6e	-2.3729185e-06
234	0x35f34993	1.8126324e-06
235	0x366d6bac	3.5378425e-06
236	0xb5ec4beb	-1.7605465e-06
237	0x361ea426	2.3639382e-06
238	0xb544313b	-7.308733e-07
239	0xb4aca0b2	-3.2154418e-07
240	0xb5d795e9	-1.6062378e-06
241	0x351dae28	5.874049e-07
242	0x362fb8ee	2.6184675e-06
243	0xb6f3d65e	-7.26692e-06
244	0xb73fe7e9	-1.1438483e-05
245	0x36b89560	5.501017e-06
246	0x367da3a8	3.7795198e-06
247	0x35805a2f	9.56299e-07
248	0xb76505f5	-1.3650851e-05
249	0xb6945d46	-4.421602e-06
250	0xb4974030	-2.8172644e-07
251	0xb63435c5	-2.6853388e-06
252	0x3699ce5c	4.5837787e-06
253	0x36fc5278	7.519786e-06
254	0xb7243eda	-9.7897955e-06
255	0x36eebd08	7.114959e-06

exp_avg_sq f4 [81, 81]
0	0x2fba1d68	3.3854097e-10
1	0x2f3abc7c	1.6983565e-10
2	0x2f1d0033	1.4279138e-10
3	0x2d5c6296	1.2527443e-11
4	0x2e17a6d9	3.4481615e-11
5	0x308f73f0	1.0437571e-09
6	0x3003f4f1	4.8005605e-10
7	0x2f5e3e60	2.0212942e-10
8	0x2d6c3647	1.3427099e-11
9	0x2eece48b	1.0772635e-10
10	0x2ec80cf5	9.0972486e-11
11	0x3028dc72	6.1431316e-10
12	0x2f1255df	1.330913e-10
13	0x2cff87ae	7.2625994e-12
14	0x2f504755	1.8942832e-10
15	0x2fb3e315	3.2721262e-10
16	0x2f99f8b3	2.800725e-10
17	0x2ef192d1	1.0985491e-10
18	0x2f647350	2.0777446e-10
19	0x2e8c9364	6.392645e-11
20	0x2f2b1210	1.5558776e-10
21	0x2fa0b0ec	2.922954e-10
22	0x2fb3df1b	3.2718436e-10
23	0x2eb963ea	8.430574e-11
24	0x2e029d9f	2.9698573e-11
25	0x300c07dc	5.094287e-10
26	0x2ef34d69	1.10641114e-10
27	0x306542b6	8.3404517e-10
28	0x2ea1d02f	7.358413e-11
29	0x2dedef07	2.704993e-11
30	0x2f2f7a7c	1.5959672e-10
31	0x2f07b4ac	1.2342366e-10
32	0x2ef62b0f	1.11944336e-10
33	0x2e2a4a11	3.871931e-11
34	0x2ddb89bb	2.4958582e-11
35	0x2e8f0cfa	6.505192e-11
36	0x2f359c77	1.6517442e-10
37	0x2fbcd304	3.4346936e-10
38	0x2eee98e6	1.0850147e-10
39	0x2e2b6ef5	3.8979448e-11
40	0x2f8b5cd7	2.534992e-10
41	0x2d8d9eb3	1.610032e-11
42	0x2e71d716	5.498809e-11
43	0x2f9434d9	2.6958594e-10
44	0x2f098bf3	1.2509797e-10
45	0x2ef12a88	1.0966966e-10
46	0x2f37af5a	1.670605e-10
47	0x2ef7bfa8	1.12663046e-10
48	0x2fbb8a1f	3.4113243e-10
49	0x2d9b0e88	1.7627913e-11
50	0x2e8aa470	6.3047234e-11
51	0x2f4ebe18	1.8803126e-10
52	0x2f03c806	1.1985443e-10
53	0x2e2afe85	3.8879584e-11
54	0x2f2b4624	1.5577278e-10
55	0x2f9b325f	2.8230127e-10
56	0x2f41427e	1.757687e-10
57	0x2f1c1be5	1.4198027e-10
58	0x2ec4818e	8.9360616e-11
59	0x2fc1226a	3.5130948e-10
60	0x2f4f26c9	1.884032e-10
61	0x2f8aa484	2.521895e-10
62	0x30852f69	9.690498e-10
63	0x2f1e9929	1.442443e-10
64	0x2e1886ac	3.468041e-11
65	0x2e2502cf	3.751915e-11
66	0x303a5ce7	6.779843e-10
67	0x2fe72c51	4.2050144e-10
68	0x2feffa8f	4.365188e-10
69	0x2fb400c8	3.2742364e-10
70	0x2e9af1a0	7.0460304e-11
71	0x2f455dd0	1.7950375e-10
72	0x2fae9e27	3.176279e-10
73	0x3087d990	9.884378e-10
74	0x2fe874a0	4.228342e-10
75	0x3087469f	9.842615e-10
76	0x2e093273	3.1195e-11
77	0x2d661937	1.3079585e-11
78	0x301c6171	5.689094e-10
79	0x2ef694a3	1.1213188e-10
80	0x2ffefc2d	4.6381513e-10
81	0x3189d306	4.0112154e-09
82	0x30f170ed	1.7567153e-09
83	0x319e1bd8	4.6015707e-09
84	0x31503861	3.0300031e-09
85	0x2fb0c558	3.2154435e-10
86	0x32c92add	2.3418972e-08
87	0x304e422b	7.5036394e-10
88	0x32295a5e	9.857642e-09
89	0x31145b91	2.1588884e-09
90	0x31e1a5e4	6.5672214e-09
91	0x3110cff2	2.1072961e-09
92	0x3216e717	8.783693e-09
93	0x31c1e9bc	5.643612e-09
94	0x3146d295	2.8932494e-09
95	0x313a4dfb	2.711089e-09
96	0x32528a06	1.2254992e-08
97	0x32021bb8	7.573298e-09
98	0x3067a0b6	8.4265694e-10
99	0x32bf3923	2.226131e-08
100	0x311d1577	2.2858708e-09
101	0x3208c49f	7.960948e-09
102	0x30418524	7.0402195e-10
103	0x326aee1e	1.3674734e-08
104	0x307cf706	9.202811e-10
105	0x2ffb9b98	4.576719e-10
106	0x3154a365	3.094294e-09
107	0x31aff0ea	5.120559e-09
108	0x32ef818c	2.7882173e-08
109	0x2fee3bb2	4.3334364e-10
110	0x309d5308	1.1446852e-09
111	0x31519a9a	3.0501384e-09
112	0x310bd463	2.034789e-09
113	0x31aa8bc8	4.9635425e-09
114	0x3152708c	3.0622997e-09
115	0x319ec686	4.6209747e-09
116	0x31a71aa1	4.863367e-09
117	0x31e605bc	6.694533e-09
118	0x3183ec92	3.8394967e-09
119	0x311fb0a9	2.3237965e-09
120	0x30e79edc	1.6852613e-09
121	0x323cb484	1.0984085e-08
122	0x3112f8e9	2.1387285e-09
123	0x30fc5d25	1.8361886e-09
124	0x31b98f6c	5.400514e-09
125	0x3193bcb8	4.299718e-09
126	0x314fb9e1	3.0228124e-09
127	0x31e50661	6.6655024e-09
128	0x323891ad	1.07433324e-08
129	0x312b82c6	2.4958111e-09
130	0x31007c0b	1.8696962e-09
131	0x31064377	1.9537916e-09
132	0x317d741f	3.6882353e-09
133	0x30f71be0	1.7979538e-09
134	0x30b6d43f	1.3302567e-09
135	0x319bfb83	4.5396873e-09
136	0x31389d3d	2.6864904e-09
137	0x30697eeb	8.494527e-10
138	0x303f02fa	6.9489625e-10
139	0x311d9a2c	2.2934143e-09
140	0x324e8734	1.202152e-08
141	0x30a54e17	1.2027525e-09
142	0x31931446	4.280568e-09
143	0x32568817	1.2487383e-08
144	0x3092b6d0	1.0674857e-09
145	0x31cd9121	5.9827845e-09
146	0x3062de7d	8.2534496e-10
147	0x3222510f	9.448072e-09
148	0x321f1e81	9.261954e-09
149	0x328212de	1.5142572e-08
150	0x31b2f4d5	5.208316e-09
151	0x318eb03f	4.152781e-09
152	0x31e570aa	6.6775856e-09
153	0x322a12d7	9.899586e-09
154	0x3259d961	1.2680489e-08
155	0x3294c0ee	1.7317202e-08
156	0x32906170	1.6808116e-08
157	0x319a8821	4.497466e-09
158	0x3106a581	1.9593644e-09
159	0x31ecdec6	6.8938304e-09
160	0x31192bb2	2.2289268e-09
161	0x31cfc1c2	6.0465206e-09
162	0x2c34268a	2.5600932e-12
163	0x2cd85e6b	6.1495717e-12
164	0x2b00d0cf	4.5764515e-13
165	0x2ae55072	4.0734392e-13
166	0x2c0f6b28	2.0381006e-12
167	0x2d9b472b	1.7653065e-11
168	0x2babba06	1.2201913e-12
169	0x2b2e9dc0	6.203614e-13
170	0x2baef799	1.2432166e-12
171	0x2cd027aa	5.916119e-12
172	0x2be7583f	1.643803e-12
173	0x2cd186d3	5.9551058e-12
174	0x2aa323aa	2.8979363e-13
175	0x29ee0734	1.0570573e-13
176	0x2b26b953	5.9232236e-13
177	0x2c98f499	4.3472556e-12
178	0x2c9187e4	4.1362348e-12
179	0x2b2ced82	6.1436284e-13
180	0x2c0d1bba	2.0052696e-12
181	0x2ba45811	1.1677344e-12
182	0x2c4ff988	2.9554987e-12
183	0x2b8a07f3	9.807696e-13
184	0x2cb168c5	5.0422743e-12
185	0x2b8f1b3d	1.0168321e-12
186	0x29cb4f1d	9.028735e-14
187	0x2bcc85a3	1.4532163e-12
188	0x2c0a2d4d	1.9636126e-12
189	0x2d670179	1.3131157e-11
190	0x2b7a4902	8.891916e-13
191	0x2c05c6dc	1.9010826e-12
192	0x2c6906c9	3.3115058e-12
193	0x2b74f7c1	8.703004e-13
194	0x2b8e34d7	1.0104373e-12
195	0x2b05e6ba	4.757129e-13
196	0x2bcf267e	1.4718918e-12
197	0x2b8ace23	9.862704e-13
198	0x2c9c6ae5	4.4456543e-12
199	0x2a817370	2.2995104e-13
200	0x2b58d42b	7.703306e-13
201	0x2af321e6	4.3188993e-13
202	0x2c57d29e	3.0670254e-12
203	0x2bd2bfef	1.497467e-12
204	0x2c5b6490	3.1177595e-12
205	0x2b990019	1.0871331e-12
206	0x2c8e5045	4.0447944e-12
207	0x2cae40f7	4.95259e-12
208	0x2c2996f8	2.410015e-12
209	0x2c8f7fb7	4.0784836e-12
210	0x2bc63e94	1.4086115e-12
211	0x2b336dfa	6.37462e-13
212	0x2a848542	2.3540376e-13
213	0x2c04f1e8	1.8892613e-12
214	0x2b42438d	6.901639e-13
215	0x2c1a95a2	2.196778e-12
216	0x2af8c57c	4.4190682e-13
217	0x29c88d88	8.906336e-14
218	0x2c298771	2.409153e-12
219	0x2c641bf8	3.2416275e-12
220	0x2a4ee12e	1.83746e-13
221	0x2ca3ce47	4.65564e-12
222	0x2c40285b	2.7307243e-12
223	0x2c123f68	2.0783045e-12
224	0x2c0a3450	1.9640019e-12
225	0x2d32cc8e	1.0163549e-11
226	0x2b750158	8.704335e-13
227	0x2ae1f7fc	4.0140103e-13
228	0x2cf0bd09	6.8421974e-12
229	0x2c937426	4.1908864e-12
230	0x2cd8f0fb	6.1658434e-12
231	0x2c553c78	3.0302687e-12
232	0x2ab4ae1a	3.209523e-13
233	0x2c65d30c	3.2660012e-12
234	0x2c890647	3.894471e-12
235	0x2d5a7498	1.2417754e-11
236	0x2c56b211	3.0510076e-12
237	0x2cc49f74	5.588358e-12
238	0x2ad9a0d1	3.8658532e-13
239	0x2af3baa1	4.329497e-13
240	0x2c1ce6d0	2.229706e-12
241	0x2b03510b	4.665302e-13
242	0x2cdbed7b	6.25072e-12
243	0x2e9be13c	7.0885936e-11
244	0x2eb9a83b	8.44271e-11
245	0x2e0e8166	3.240199e-11
246	0x2e2adb2f	3.88482e-11
247	0x2d493c5b	1.1438929e-11
248	0x2f873632	2.4594865e-10
249	0x2d72ddf0	1.3805387e-11
250	0x2d761671	1.3988464e-11
251	0x2c5d1ef2	3.1423167e-12
252	0x2e0e46aa	3.2349824e-11
253	0x2e97635a	6.8843334e-11
254	0x2f2d0f43	1.573968e-10
255	0x2e2c9558	3.9240916e-11

exp_avg f4 [128, 81]
0	0xb85e9c72	-5.3074626e-05
1	0xb8ec4bce	-0.00011267477
2	0x383b3117	4.4629993e-05
3	0xb8870f7a	-6.4401844e-05
4	0xb6139beb	-2.1995463e-06
5	0xb90f1b58	-0.00013647729
6	0x3603293f	1.954453e-06
7	0xb789bd93	-1.641995e-05
8	0x389e578c	7.550334e-05
9	0x379e3756	1.8860836e-05
10	0x38043ac4	3.1525982e-05
11	0xb602c151	-1.9484035e-06
12	0xb7ae8fbd	-2.080935e-05
13	0x389c83ea	7.4632306e-05
14	0xb796d9da	-1.7982838e-05
15	0x38776866	5.8986618e-05
16	0xb7c03910	-2.2914755e-05
17	0x3649289d	2.9974974e-06
18	0xb6c72a42	-5.9355816e-06
19	0xb668d735	-3.469596e-06
20	0x38790043	5.936647e-05
21	0xb83f74e6	-4.564682e-05
22	0xb6c0862e	-5.7376665e-06
23	0x38c054b7	9.171053e-05
24	0xb7001ec6	-7.6365595e-06
25	0x3900dda8	0.00012289605
26	0xb8c4a39c	-9.376483e-05
27	0xb8a0c4f0	-7.666077e-05
28	0x36c3d99a	5.836785e-06
29	0x38bbc35b	8.953243e-05
30	0x380aff9f	3.313983e-05
31	0xb78b8788	-1.6633203e-05
32	0xb76a95a6	-1.398233e-05
33	0xb782525e	-1.5535563e-05
34	0x38333265	4.272386e-05
35	0xb8378c27	-4.3761127e-05
36	0xb8a80b43	-8.012962e-05
37	0x38099e89	3.2810993e-05
38	0x3830220a	4.199337e-05
39	0xb87350e2	-5.8011043e-05
40	0x36c9fac8	6.0194616e-06
41	0x36526d4f	3.1356064e-06
42	0x387bb4b7	6.0011367e-05
43	0xb807bf8b	-3.2364896e-05
44	0xb7e30f1c	-2.7067545e-05
45	0xb7baaebe	-2.2254299e-05
46	0xb84af003	-4.838408e-05
47	0xb83ebb0a	-4.5473724e-05
48	0xb8aff2ab	-8.389851e-05
49	0xb68e0f2f	-4.2336974e-06
50	0xb8001c1b	-3.0543753e-05
51	0xb7c41364	-2.337405e-05
52	0xb89e0d09	-7.536455e-05
53	0x381485db	3.5410612e-05
54	0xb832d15d	-4.2633492e-05
55	0x38dd5710	0.00010554318
56	0x38897481	6.5543696e-05
57	0x37d9e665	2.5975702e-05
58	0xb81e1bbd	-3.769597e-05
59	0xb89e31c7	-7.543299e-05
60	0x3857a8e0	5.141727e-05
61	0xb8875eb1	-6.454939e-05
62	0xb8f488c5	-0.00011660302
63	0xb8d8e7ff	-0.00010342895
64	0xb7dd6abe	-2.6394959e-05
65	0x38a8d3b5	8.050298e-05
66	0xb8fac64b	-0.00011957864
67	0x3801f491	3.0983767e-05
68	0x38866550	6.408489e-05
69	0xb80d4d4a	-3.3689e-05
70	0xb7f2c1fb	-2.8938977e-05
71	0xb883ebe7	-6.290507e-05
72	0x3877b196	5.905478e-05
73	0x390e0ebb	0.00013547663
74	0xb879ee82	-5.9588354e-05
75	0x390965b8	0.00013103231
76	0xb69f105f	-4.740475e-06
77	0xb65853fb	-3.2235391e-06
78	0xb7fa46d0	-2.9835297e-05
79	0xb76c249c	-1.407522e-05
80	0x3889b659	6.566634e-05
81	0x37a49a4a	1.962217e-05
82	0xb898ad1a	-7.2801675e-05
83	0x38d46b53	0.000101289384
84	0xb87da4b6	-6.04733e-05
85	0x388a47a0	6.593694e-05
86	0xb8db28a9	-0.00010450307
87	0xb7381284	-1.0971566e-05
88	0x38c1a59f	9.2338065e-05
89	0x382d1ddd	4.1274227e-05
90	0xb72b1bd3	-1.0198873e-05
91	0x385230f1	5.0113482e-05
92	0x375e9c8e	1.3268682e-05
93	0xb718b16d	-9.101216e-06
94	0x38ae5aaa	8.313854e-05
95	0xb7e9f4ff	-2.788985e-05
96	0x38d18907	9.99142e-05
97	0xb82ad9ab	-4.0733878e-05
98	0xb8258fe8	-3.947309e-05
99	0xb866c884	-5.5023018e-05
100	0x381ef1bf	3.789528e-05
101	0x394dd090	0.00019628019
102	0xb8bdc8c0	-9.049615e-05
103	0xb8df51b5	-0.00010648688
104	0x3766ec3a	1.3764069e-05
105	0x386fc546	5.7165766e-05
106	0x39068587	0.00012828979
107	0xb8dcfaa4	-0.00010537103
108	0xb8ad20b1	-8.255372e-05
109	0x37cc8adc	2.4383357e-05
110	0xb710a7d8	-8.622148e-06
111	0x38a83b5d	8.0219215e-05
112	0xb9234076	-0.00015568905
113	0xb70ca663	-8.38339e-06
114	0xb89d0e02	-7.4889525e-05
115	0xb691e984	-4.3485215e-06
116	0xb81e94e6	-3.7808808e-05
117	0xb7609a56	-1.3387375e-05
118	0x38e9c81a	0.000111475776
119	0x388e8cf8	6.797345e-05
120	0x386be1cf	5.6238667e-05
121	0x3814a62f	3.544072e-05
122	0xb84e5266	-4.9190967e-05
123	0x3898bca7	7.283064e-05
124	0x38453cb5	4.7024998e-05
125	0xb867812d	-5.5194996e-05
126	0x38cbf818	9.7260054e-05
127	0xb9892a1b	-0.00026162047
128	0xb819bec0	-3.6655692e-05
129	0x37750e5e	1.4606483e-05
130	0xb8344314	-4.2977816e-05
131	0x38077aa2	3.230072e-05
132	0xb81385c8	-3.5172125e-05
133	0xb899fc78	-7.3426345e-05
134	0x38be3354	9.0694666e-05
135	0xb6a64087	-4.9546975e-06
136	0x381ae20d	3.6926987e-05
137	0xb7730b15	-1.4486509e-05
138	0x384944ac	4.798609e-05
139	0xb7e38e02	-2.7126636e-05
140	0xb9415fd3	-0.00018441612
141	0x37e9e350	2.7881615e-05
142	0xb8c0d9a2	-9.195811e-05
143	0xb894ce99	-7.095672e-05
144	0xb89db560	-7.520127e-05
145	0x38acb0ad	8.2345075e-05
146	0x38e7338c	0.0001102454
147	0xb8c12e78	-9.2116126e-05
148	0xb768a375	-1.3866335e-05
149	0x384ae8f5	4.837751e-05
150	0x3709608c	8.188315e-06
151	0x3804833a	3.1593467e-05
152	0xb8ced640	-9.8627526e-05
153	0x38d6d119	0.00010243263
154	0x3721b3c2	9.638201e-06
155	0xb71769e2	-9.024954e-06
156	0xb6b53b42	-5.401119e-06
157	0x38015c14	3.084175e-05
158	0x3835844d	4.3276978e-05
159	0xb8a82b06	-8.018878e-05
160	0xb90155bf	-0.00012334342
161	0xb863fbb8	-5.435545e-05
162	0xb82a6995	-4.062949e-05
163	0xb90dc77f	-0.00013521126
164	0x386e897c	5.6871664e-05
165	0xb82fe9b9	-4.1940923e-05
166	0xb78d5106	-1.684624e-05
167	0xb8473636	-4.7495785e-05
168	0x374854d7	1.1940682e-05
169	0x3687029e	4.023618e-06
170	0x38419128	4.6149973e-05
171	0x3707b6b6	8.089168e-06
172	0x37ee83d7	2.8433204e-05
173	0xb7cc3d52	-2.434725e-05
174	0x37f63a68	2.9352683e-05
175	0xb74dc260	-1.2264209e-05
176	0xb78313bf	-1.5625612e-05
177	0x3875d9e2	5.861547e-05
178	0xb85127c0	-4.9866503e-05
179	0xb6ff9713	-7.6171796e-06
180	0x3847f1a7	4.7670354e-05
181	0x37af93b2	2.0930402e-05
182	0x36aab8d9	5.087914e-06
183	0x376da0c9	1.41637365e-05
184	0xb6bebd17	-5.684454e-06
185	0x38371c20	4.3656793e-05
186	0x376904a3	1.3888962e-05
187	0x382de909	4.1463445e-05
188	0xb8a68541	-7.940317e-05
189	0xb8912fcd	-6.9230424e-05
190	0x3722668c	9.6798285e-06
191	0x38428d6d	4.6384917e-05
192	0x37215001	9.614975e-06
193	0xb76671ce	-1.37355655e-05
194	0xb702dbdc	-7.799794e-06
195	0x37d42a1c	2.5291978e-05
196	0x36a512f7	4.919591e-06
197	0xb62c324a	-2.565927e-06
198	0xb8036a9f	-3.1332132e-05
199	0x37b81f60	2.194912e-05
200	0x382e6427	4.1578107e-05
201	0xb85097af	-4.973233e-05
202	0x3834d8e1	4.311733e-05
203	0xb78f51fc	-1.7085105e-05
204	0x387f0bab	6.0807604e-05
205	0xb7c14efe	-2.3044176e-05
206	0xb7bdfc45	-2.2648028e-05
207	0x346a3c6e	2.1814932e-07
208	0x36a0ba30	4.7900467e-06
209	0xb6fdaff0	-7.5604694e-06
210	0xb7ff77e4	-3.0454197e-05
211	0x3671e256	3.6043543e-06
212	0x369410b9	4.4126905e-06
213	0xb783fc5c	-1.5733931e-05
214	0xb85bda64	-5.241706e-05
215	0x370452a3	7.8870535e-06
216	0xb868332c	-5.5360768e-05
217	0x38932735	7.016809e-05
218	0x37e7fc72	2.76549e-05
219	0x37c116be	2.3017983e-05
220	0x382aa088	4.0680665e-05
221	0xb814813b	-3.5406305e-05
222	0x387070ed	5.732563e-05
223	0xb87dd11c	-6.051465e-05
224	0xb770c360	-1.4350604e-05
225	0xb7c942bb	-2.3992141e-05
226	0xb6f69414	-7.34861e-06
227	0x380184b0	3.087957e-05
228	0xb8c31770	-9.30269e-05
229	0x38376507	4.372469e-05
230	0x383039bd	4.2015443e-05
231	0xb6a032cd	-4.7742856e-06
232	0xb72c5bc4	-1.0273365e-05
233	0xb7b26e13	-2.127051e-05
234	0x38149730	3.5426754e-05
235	0x38b881a4	8.797951e-05
236	0xb7985d28	-1.8163191e-05
237	0x37d1f56f	2.502903e-05
238	0x37b6f15a	2.1808479e-05
239	0x36b8dbb7	5.5092055e-06
240	0xb7b99749	-2.2124166e-05
241	0xb7d43dc4	-2.5301131e-05
242	0x37dc58a7	2.6267326e-05
243	0xb8293fcc	-4.0352155e-05
244	0xb8c9e2ac	-9.626648e-05
245	0xb5fd5715	-1.8875313e-06
246	0xb6f7e8f7	-7.3882943e-06
247	0xb830ea5c	-4.2179934e-05
248	0xb8ad4926	-8.262908e-05
249	0xb7ed3d14	-2.8281043e-05
250	0xb77d447f	-1.5095923e-05
251	0x381d449c	3.7495614e-05
252	0x3806291d	3.198638e-05
253	0x38503a9c	4.964565e-05
254	0xb7789d93	-1.481864e-05
255	0x365205f9	3.1295915e-06

exp_avg_sq f4 [128, 81]
0	0x31a4530c	4.7824695e-09
1	0x32b0b9d2	2.0573598e-08
2	0x3176b232	3.5899004e-09
3	0x321dcd79	9.185322e-09
4	0x310461de	1.926416e-09
5	0x32d252c8	2.4484862e-08
6	0x2f6eeabe	2.1729371e-10
7	0x303cca90	6.868186e-10
8	0x326240a9	1.3169633e-08
9	0x303bf495	6.8377776e-10
10	0x30c2b788	1.416752e-09
11	0x2f62dddb	2.0633399e-10
12	0x305feb67	8.1461454e-10
13	0x31d3c07d	6.1627916e-09
14	0x306ef636	8.693378e-10
15	0x31c01e82	5.591404e-09
16	0x30d42abe	1.5437178e-09
17	0x2f126917	1.3315958e-10
18	0x2f70ba4e	2.1894062e-10
19	0x3057ff92	7.857973e-10
20	0x319c34ab	4.546185e-09
21	0x3122d539	2.3695306e-09
22	0x2feaacf3	4.268724e-10
23	0x32554834	1.2414649e-08
24	0x2f01c48a	1.1802306e-10
25	0x32bbc620	2.1859762e-08
26	0x32810ac0	1.5022465e-08
27	0x321f05c9	9.2563335e-09
28	0x2fa149a1	2.9338046e-10
29	0x32828bce	1.5197568e-08
30	0x30a375f1	1.1893332e-09
31	0x3037b7b4	6.683607e-10
32	0x2f777ab3	2.250811e-10
33	0x2fb88f0c	3.3571046e-10
34	0x312b473c	2.4924267e-09
35	0x31c5fc75	5.7621556e-09
36	0x323faef8	1.11574465e-08
37	0x3107ea83	1.977839e-09
38	0x317e816e	3.7035437e-09
39	0x3228d3e3	9.8270645e-09
40	0x2f473b02	1.8119908e-10
41	0x30afa266	1.2779082e-09
42	0x31e2e61b	6.6036256e-09
43	0x31945e00	4.3180535e-09
44	0x309ffe4f	1.1641051e-09
45	0x3086d1b8	9.809389e-10
46	0x31b7b189	5.3461844e-09
47	0x31069bc6	1.9588113e-09
48	0x323ef8a4	1.111599e-08
49	0x2f06e258	1.2267642e-10
50	0x312a7750	2.4806077e-09
51	0x308a4aed	1.0062117e-09
52	0x325d5899	1.2884038e-08
53	0x30eea3f8	1.7363382e-09
54	0x31cce2a2	5.9629466e-09
55	0x329de5ae	1.8381652e-08
56	0x3204169a	7.68855e-09
57	0x306b911a	8.5698704e-10
58	0x30f87759	1.8078296e-09
59	0x3270d6ea	1.4018704e-08
60	0x31ebc448	6.8617148e-09
61	0x31f1d931	7.038715e-09
62	0x3271efd9	1.4082581e-08
63	0x32871df1	1.5729684e-08
64	0x30af0503	1.273435e-09
65	0x32617b5c	1.3124772e-08
66	0x32dc16c4	2.5621723e-08
67	0x30e489e1	1.6628371e-09
68	0x31a8e61f	4.9156053e-09
69	0x30b88190	1.3424586e-09
70	0x310e0b22	2.0670048e-09
71	0x318d7aaa	4.1175854e-09
72	0x31a5b5d3	4.822803e-09
73	0x32e62b8f	2.6795332e-08
74	0x31b56d7d	5.2802407e-09
75	0x32d54acd	2.4830479e-08
76	0x2fa38e62	2.9750696e-10
77	0x2f770127	2.2464929e-10
78	0x2fecdce5	4.3085105e-10
79	0x30c12441	1.4052902e-09
80	0x3205b30d	7.78233e-09
81	0x30f191df	1.7576517e-09
82	0x332c225c	4.007812e-08
83	0x32d60575	2.491536e-08
84	0x324bf3a3	1.1871552e-08
85	0x3222e6d8	9.482129e-09
86	0x321c487e	9.096878e-09
87	0x30a8a39b	1.2270108e-09
88	0x32c364f6	2.27469e-08
89	0x3205542d	7.760758e-09
90	0x311f7c38	2.3208155e-09
91	0x31fa5973	7.286127e-09
92	0x30fdcf99	1.8467176e-09
93	0x30e2f951	1.6514524e-09
94	0x31b9d53f	5.408452e-09
95	0x314a52bd	2.94419e-09
96	0x32b4cbd8	2.1047455e-08
97	0x31924892	4.2574095e-09
98	0x30de1b40	1.6160371e-09
99	0x31c3a315	5.693787e-09
100	0x320ebde8	8.3086675e-09
101	0x3387349b	6.295996e-08
102	0x3208f985	7.972976e-09
103	0x32a9a4d3	1.9749143e-08
104	0x30b823e4	1.3397963e-09
105	0x31c30059	5.6752865e-09
106	0x32a3838b	1.9035516e-08
107	0x32a4004e	1.9092251e-08
108	0x32915a81	1.6921378e-08
109	0x301e6d80	5.7635674e-10
110	0x305099c4	7.5888473e-10
111	0x31ff1ea4	7.42496e-09
112	0x33256e1f	3.851721e-08
113	0x2f3a9cd0	1.6972312e-10
114	0x3226a92b	9.700936e-09
115	0x31485ac5	2.9155427e-09
116	0x318e99f2	4.1502455e-09
117	0x2f1d8925	1.432779e-10
118	0x32af939c	2.0439806e-08
119	0x32330582	1.0420424e-08
120	0x3210c40f	8.426482e-09
121	0x3130343a	2.5641058e-09
122	0x31cb996e	5.9255205e-09
123	0x326a0d20	1.3623577e-08
124	0x324e1e33	1.1997645e-08
125	0x31da7c77	6.358785e-09
126	0x32afe4b9	2.0476692e-08
127	0x33ca8ff7	9.432545e-08
128	0x30c9a830	1.4672477e-09
129	0x312b66c4	2.494219e-09
130	0x312de516	2.5305034e-09
131	0x320acb7d	8.078925e-09
132	0x3144cd72	2.8638536e-09
133	0x3279b8e1	1.4535744e-08
134	0x3225f3ca	9.659695e-09
135	0x3201e3dc	7.5605975e-09
136	0x3164cbb9	3.329417e-09
137	0x31bbd1de	5.4662754e-09
138	0x31f1af3d	7.0339454e-09
139	0x3140a271	2.8032014e-09
140	0x335216d9	4.8915215e-08
141	0x30d29119	1.532075e-09
142	0x3294cec2	1.732349e-08
143	0x31317b90	2.5827127e-09
144	0x31fc1fba	7.337772e-09
145	0x32917ab7	1.6936026e-08
146	0x3297f706	1.7691047e-08
147	0x3289cb59	1.6041371e-08
148	0x311ca821	2.2796558e-09
149	0x31818935	3.7699928e-09
150	0x303d6f36	6.891584e-10
151	0x31ea9322	6.8270234e-09
152	0x323a5fec	1.0848435e-08
153	0x326538e8	1.3342493e-08
154	0x2ebc726d	8.569576e-11
155	0x302d9142	6.3143457e-10
156	0x3187eee1	3.9561745e-09
157	0x31e873d2	6.765256e-09
158	0x319b6552	4.5226125e-09
159	0x325c782c	1.2833009e-08
160	0x32d8e6f0	2.5250728e-08
161	0x3228f458	9.834444e-09
162	0x31400451	2.794213e-09
163	0x333c99b4	4.3911953e-08
164	0x32263449	9.67436e-09
165	0x31c45e05	5.7150396e-09
166	0x302f7d37	6.384257e-10
167	0x3184864e	3.8569743e-09
168	0x3029826a	6.166717e-10
169	0x30ca93b6	1.4739416e-09
170	0x31e4edf8	6.6627273e-09
171	0x309ba3c3	1.1324278e-09
172	0x310b2fc7	2.025432e-09
173	0x3075c3d2	8.940876e-10
174	0x30ac830f	1.2551896e-09
175	0x307a742c	9.111456e-10
176	0x30c020b7	1.3979137e-09
177	0x31ea91e7	6.8268835e-09
178	0x31a01e37	4.660048e-09
179	0x2ec8bc41	9.1283876e-11
180	0x31afbf5d	5.114926e-09
181	0x312f1570	2.5478037e-09
182	0x304a3735	7.3565626e-10
183	0x30622168	8.2265794e-10
184	0x2f581d21	1.9655434e-10
185	0x3186c3ec	3.922187e-09
186	0x30062c4d	4.881187e-10
187	0x31831a2f	3.8155785e-09
188	0x3286efb1	1.5708652e-08
189	0x322d57c6	1.0089883e-08
190	0x2f80bf01	2.341878e-10
191	0x3184d437	3.8658317e-09
192	0x2fa1dddf	2.9443378e-10
193	0x30946a0f	1.0798561e-09
194	0x2f689888	2.1154467e-10
195	0x3034b16c	6.573575e-10
196	0x2f12771f	1.3320943e-10
197	0x30458ae6	7.186557e-10
198	0x310ffaa4	2.0951711e-09
199	0x30c9885e	1.4663433e-09
200	0x31875b5a	3.9394026e-09
201	0x3196c8ff	4.388425e-09
202	0x312e6652	2.5378495e-09
203	0x314bcc69	2.9656582e-09
204	0x32057b31	7.769629e-09
205	0x3028331b	6.119067e-10
206	0x3075ba3b	8.939513e-10
207	0x303f21a4	6.95332e-10
208	0x2d56d66d	1.2212104e-11
209	0x312abf4f	2.4847002e-09
210	0x312d4381	2.5213185e-09
211	0x2e4106ef	4.3889278e-11
212	0x30b0e1e8	1.2869892e-09
213	0x301de482	5.7440996e-10
214	0x32194efe	8.923733e-09
215	0x301b7598	5.655578e-10
216	0x32171c55	8.795799e-09
217	0x3251debf	1.2216048e-08
218	0x30db9b50	1.597849e-09
219	0x30877827	9.856692e-10
220	0x314727c1	2.8980909e-09
221	0x318dbac1	4.1248716e-09
222	0x31dcb02f	6.4228725e-09
223	0x32026499	7.589869e-09
224	0x308fab5e	1.0453325e-09
225	0x31060c05	1.9506399e-09
226	0x2fdfb5b9	4.0692585e-10
227	0x315c6671	3.2072445e-09
228	0x3295aa38	1.742329e-08
229	0x31575dfe	3.1340046e-09
230	0x3160deda	3.2722967e-09
231	0x2ef45e4d	1.11125865e-10
232	0x30354e83	6.595899e-10
233	0x30121ded	5.315702e-10
234	0x30efc0fc	1.7444388e-09
235	0x32732d2a	1.4154731e-08
236	0x300b4392	5.066393e-10
237	0x30ee057e	1.731834e-09
238	0x316005d2	3.2599599e-09
239	0x304a6c06	7.364068e-10
240	0x301bed97	5.6726307e-10
241	0x3127e8b1	2.4433968e-09
242	0x3078f425	9.0568825e-10
243	0x316b57e0	3.4246952e-09
244	0x32cf481f	2.4130768e-08
245	0x30ee938b	1.7358713e-09
246	0x31146224	2.159262e-09
247	0x312b8a85	2.4962514e-09
248	0x32272a9d	9.7303685e-09
249	0x309bda23	1.1339732e-09
250	0x30392a87	6.7363043e-10
251	0x31afaa8f	5.1125606e-09
252	0x30fcafd1	1.8385383e-09
253	0x31899ebf	4.005272e-09
254	0x2faa4a0e	3.097544e-10
255	0x2e80a394	5.8498234e-11

exp_avg f4 [128, 32]
0	0xb896b3c4	-7.186041e-05
1	0xb8d3e04f	-0.00010103045
2	0xb88d21b4	-6.7296816e-05
3	0x38d966cf	0.00010366516
4	0xb852d8e9	-5.0269915e-05
5	0x38d3a2f4	0.000100916164
6	0x387b716f	5.9948707e-05
7	0x388a1f1e	6.586149e-05
8	0x38e6efca	0.00011011919
9	0x363158f2	2.6426828e-06
10	0xb80bb674	-3.3310105e-05
11	0xb8af1681	-8.348842e-05
12	0xb8d9ccec	-0.00010385536
13	0xb8b980a8	-8.8454515e-05
14	0xb836199f	-4.3416043e-05
15	0xb8a007d1	-7.6308505e-05
16	0xb794bcd9	-1.7730914e-05
17	0xb7cee619	-2.4664261e-05
18	0xb8bf87f5	-9.132914e-05
19	0x38112298	3.4602912e-05
20	0x373049c8	1.0507596e-05
21	0x38f8796a	0.00011848177
22	0x38979fbc	7.229994e-05
23	0xb806f2af	-3.2174106e-05
24	0xb8cfbe9e	-9.9060344e-05
25	0x38251545	3.9358874e-05
26	0x36739b31	3.6300155e-06
27	0xb8c566ba	-9.412826e-05
28	0x389c38ac	7.4492156e-05
29	0x38287ca0	4.0170387e-05
30	0xb8f58522	-0.00011707308
31	0x385a7edf	5.2093408e-05
32	0xb75cbd22	-1.3157058e-05
33	0xb7312d08	-1.0560507e-05
34	0xb76022a9	-1.335951e-05
35	0x37b09570	2.1050422e-05
36	0xb71fc180	-9.522191e-06
37	0x37bfd160	2.2866472e-05
38	0x37789332	1.48162235e-05
39	0x376065ba	1.33751255e-05
40	0x37ebd201	2.8111974e-05
41	0xb3c093ed	-8.967604e-08
42	0xb723c86c	-9.762221e-06
43	0xb7a8952b	-2.0096622e-05
44	0xb7b33507	-2.1363156e-05
45	0xb7ac888f	-2.0567588e-05
46	0xb71e0a28	-9.419899e-06
47	0xb771b11b	-1.4405955e-05
48	0xb5ee94b4	-1.777566e-06
49	0xb6dfe8fd	-6.6730413e-06
50	0xb77084c1	-1.4336024e-05
51	0x36dd670e	6.5983104e-06
52	0x3644a6e3	2.9303417e-06
53	0x37d12f2f	2.4936713e-05
54	0x3796f3b6	1.799488e-05
55	0xb6d57397	-6.361351e-06
56	0xb7b2bf80	-2.1308428e-05
57	0x37377ad2	1.0936246e-05
58	0x35b7058c	1.3636177e-06
59	0xb78b1be6	-1.6583082e-05
60	0x37665309	1.3728401e-05
61	0x36bd4c28	5.6415047e-06
62	0xb7a8ddfd	-2.0130532e-05
63	0x3748b638	1.1963355e-05
64	0xb80591b6	-3.1845375e-05
65	0xb83827b6	-4.3906002e-05
66	0xb7d5fac4	-2.550835e-05
67	0x38493be6	4.797792e-05
68	0xb79a84c8	-1.8420062e-05
69	0x383d6186	4.5151937e-05
70	0x37d6f95a	2.5626901e-05
71	0x3808bf7e	3.2603268e-05
72	0x3854ee5a	5.076672e-05
73	0x357e23af	9.46743e-07
74	0xb76022e2	-1.3359562e-05
75	0xb8173c5f	-3.605743e-05
76	0xb83993ad	-4.424497e-05
77	0xb827e0f6	-4.0025414e-05
78	0xb78a8400	-1.651235e-05
79	0xb8115f45	-3.465942e-05
80	0xb719f52c	-9.176594e-06
81	0xb7419a1a	-1.1539576e-05
82	0xb827eed5	-4.0038332e-05
83	0x37604e68	1.3369696e-05
84	0x36bc26f3	5.607371e-06
85	0x38640cd2	5.4371376e-05
86	0x380692fd	3.2084983e-05
87	0xb76448ee	-1.3606839e-05
88	0xb840e3a8	-4.598839e-05
89	0x377683e7	1.46934535e-05
90	0x35648ec5	8.5144376e-07
91	0xb8307272	-4.2068255e-05
92	0x380cde25	3.358549e-05
93	0x378db87b	1.6894415e-05
94	0xb866499f	-5.4904838e-05
95	0x37c090d1	2.2955619e-05
96	0xb839eb48	-4.432656e-05
97	0xb88aac35	-6.612429e-05
98	0xb81578aa	-3.5636745e-05
99	0x38883596	6.4949665e-05
100	0xb7e37027	-2.7112734e-05
101	0x3897d355	7.239605e-05
102	0x3813e64a	3.5262005e-05
103	0x3841190f	4.6038123e-05
104	0x38a3b094	7.805336e-05
105	0x36684a92	3.46141e-06
106	0xb79c1048	-1.860423e-05
107	0xb8551119	-5.079908e-05
108	0xb8870078	-6.437389e-05
109	0xb872e669	-5.7911882e-05
110	0xb7c8d5a3	-2.394134e-05
111	0xb8555151	-5.085889e-05
112	0xb740936b	-1.1478415e-05
113	0xb781dc2b	-1.5480522e-05
114	0xb85b5377	-5.22914e-05
115	0x3778cf2c	1.4830188e-05
116	0x36be7f0e	5.6772324e-06
117	0x38a90a67	8.0604856e-05
118	0x38450250	4.6970614e-05
119	0xb7a6e33a	-1.9894553e-05
120	0xb88f4134	-6.8309164e-05
121	0x37c227c6	2.3145123e-05
122	0x35f875ec	1.851176e-06
123	0xb87d6697	-6.0415445e-05
124	0x383cd415	4.502021e-05
125	0x37b3f8cf	2.1454323e-05
126	0xb8b1d2fc	-8.4793166e-05
127	0x380acef6	3.309451e-05
128	0xb8093c01	-3.271923e-05
129	0xb824cd9d	-3.929214e-05
130	0xb80007a9	-3.0524712e-05
131	0x38235c72	3.8948325e-05
132	0xb7ae494a	-2.0776544e-05
133	0x381b5b18	3.7039717e-05
134	0x37d7e758	2.5737725e-05
135	0x37d2c6eb	2.512658e-05
136	0x382e283b	4.15223e-05
137	0x34632653	2.1154965e-07
138	0xb7436724	-1.164692e-05
139	0xb8054150	-3.1770498e-05
140	0xb8255f74	-3.9427963e-05
141	0xb80fe6ad	-3.430869e-05
142	0xb7aa6623	-2.031314e-05
143	0xb7f24e82	-2.8885206e-05
144	0xb701bfe7	-7.73368e-06
145	0xb72f635d	-1.0453948e-05
146	0xb8230d7f	-3.8874798e-05
147	0x3787cf7d	1.6189873e-05
148	0x36829cc1	3.8925505e-06
149	0x383701ff	4.363246e-05
150	0x37facc93	2.9897585e-05
151	0xb7731b55	-1.4490292e-05
152	0xb821db5e	-3.8589693e-05
153	0x3797e662	1.8107883e-05
154	0x35e897ae	1.7329492e-06
155	0xb82b557b	-4.0849187e-05
156	0x37fbac35	3.0001722e-05
157	0x3798f195	1.8232307e-05
158	0xb8400fbc	-4.579102e-05
159	0x37b9b2cc	2.2136977e-05
160	0xb834d189	-4.311049e-05
161	0xb8803b51	-6.114564e-05
162	0xb8219742	-3.852626e-05
163	0x38806970	6.123155e-05
164	0xb7e235e6	-2.6966398e-05
165	0x3884b8f8	6.3287036e-05
166	0x380f6a43	3.419282e-05
167	0x382d18a0	4.1269348e-05
168	0x389b6fa3	7.41177e-05
169	0x3641579b	2.8810234e-06
170	0xb7852697	-1.5872805e-05
171	0xb848dcc8	-4.7889334e-05
172	0xb879ca8e	-5.955487e-05
173	0xb8685c5a	-5.539912e-05
174	0xb7dca44a	-2.6302547e-05
175	0xb842376c	-4.630482e-05
176	0xb71d1070	-9.361756e-06
177	0xb73b2d04	-1.115655e-05
178	0xb856fefa	-5.125904e-05
179	0x37a0aaef	1.9153083e-05
180	0x3635eb06	2.7107903e-06
181	0x3895b494	7.138509e-05
182	0x38397b31	4.4222168e-05
183	0xb7ad8c4f	-2.0688543e-05
184	0xb885319f	-6.351177e-05
185	0x37d49748	2.5342815e-05
186	0x35a097f6	1.1965155e-06
187	0xb87cdc56	-6.0286686e-05
188	0x38287fa1	4.0173185e-05
189	0x379cc2e6	1.8687406e-05
190	0xb8a6fc7d	-7.9625264e-05
191	0x38064205	3.2009575e-05
192	0xb76cd495	-1.4116192e-05
193	0xb798f4ea	-1.8233859e-05
194	0xb72ba31e	-1.0230373e-05
195	0x37b8b77b	2.2019949e-05
196	0xb6ef70f9	-7.135907e-06
197	0x379ca524	1.8673549e-05
198	0x37283e05	1.002802e-05
199	0x377c6bb3	1.5045446e-05
200	0x37bd96c7	2.2600767e-05
201	0x349c5f53	2.9126622e-07
202	0xb6ba66ea	-5.5552127e-06
203	0xb7865c13	-1.601692e-05
204	0xb7a7a1c2	-1.9983276e-05
205	0xb7861739	-1.5984859e-05
206	0xb7015c87	-7.710542e-06
207	0xb79e0006	-1.8835079e-05
208	0xb6b37a6a	-5.3488666e-06
209	0xb69d1513	-4.681418e-06
210	0xb797d182	-1.8098162e-05
211	0x36ac55b4	5.1359766e-06
212	0x366758d4	3.4473387e-06
213	0x37d4b6f1	2.5357558e-05
214	0x3789d411	1.6430424e-05
215	0xb63d2c7b	-2.8189086e-06
216	0xb7c6ce76	-2.369958e-05
217	0x36eefce4	7.122393e-06
218	0x34b9270e	3.448735e-07
219	0xb79c5730	-1.8637249e-05
220	0x377d9a3a	1.5115884e-05
221	0x36c7ead2	5.957999e-06
222	0xb7c77474	-2.3776876e-05
223	0x371e1402	9.422192e-06
224	0xb7d5588f	-2.5432817e-05
225	0xb82e92b3	-4.1621457e-05
226	0xb7cc3c83	-2.4346873e-05
227	0x382db02f	4.1410498e-05
228	0xb7a0fd82	-1.9191535e-05
229	0x383b72cf	4.4691198e-05
230	0x37b876aa	2.1989767e-05
231	0x37d6566a	2.5551028e-05
232	0x38490bd6	4.7933157e-05
233	0x36093dff	2.0450677e-06
234	0xb73e29f4	-1.13346505e-05
235	0xb8093c98	-3.2719778e-05
236	0xb82859a2	-4.01378e-05
237	0xb821d5f7	-3.858466e-05
238	0xb78859eb	-1.6254335e-05
239	0xb7f3b6a2	-2.9052902e-05
240	0xb7022294	-7.756655e-06
241	0xb71e78c5	-9.445653e-06
242	0xb807615a	-3.2277174e-05
243	0x3740bb3b	1.1487685e-05
244	0x36ab28cb	5.100946e-06
245	0x384e0d24	4.9126465e-05
246	0x37f48aeb	2.9151755e-05
247	0xb77ef51b	-1.5196648e-05
248	0xb82a32ab	-4.0578347e-05
249	0x3767003a	1.3768726e-05
250	0x35a7dcf7	1.2506779e-06
251	0xb8213eb9	-3.8443806e-05
252	0x37df7109	2.6636308e-05
253	0x37634ab9	1.3547652e-05
254	0xb8678e1e	-5.520705e-05
255	0x37ab5328	2.0423511e-05

exp_avg_sq f4 [128, 32]
0	0x320b43c1	8.10627e-09
1	0x32841c82	1.5379786e-08
2	0x31f5f3f3	7.1581723e-09
3	0x328c53d3	1.6336264e-08
4	0x317f7a66	3.717696e-09
5	0x32846920	1.5414628e-08
6	0x31b6596d	5.3070637e-09
7	0x31ddf1c0	6.4594303e-09
8	0x329f0f3a	1.851696e-08
9	0x2d7ec4fa	1.4481966e-11
10	0x30d2bd6c	1.5333348e-09
11	0x323101c0	1.0303154e-08
12	0x328e8c9c	1.6594917e-08
13	0x324aaf04	1.17977415e-08
14	0x3136a23a	2.65767e-09
15	0x32174871	8.805828e-09
16	0x2fe09fa4	4.0858794e-10
17	0x305ca619	8.027157e-10
18	0x325fb11a	1.3020577e-08
19	0x30e78aaa	1.6846873e-09
20	0x2f2f547e	1.5946175e-10
21	0x32b7e22d	2.1406857e-08
22	0x32065e26	7.821233e-09
23	0x30c56429	1.4362104e-09
24	0x3281110a	1.5025325e-08
25	0x311d2e15	2.2872702e-09
26	0x2d8cabc7	1.5992442e-11
27	0x326acd2b	1.36672424e-08
28	0x320f27ab	8.332715e-09
29	0x3116dc9e	2.195328e-09
30	0x32b475ac	2.1008269e-08
31	0x31871565	3.9314494e-09
32	0x2f5f4784	2.0307139e-10
33	0x2f661bf0	2.0928304e-10
34	0x2f7b8d9a	2.2878624e-10
35	0x3033603a	6.5256567e-10
36	0x2f0b0a16	1.264556e-10
37	0x30467694	7.220049e-10
38	0x2f9a5afe	2.807709e-10
39	0x2f9348f7	2.679099e-10
40	0x30a7be48	1.220493e-09
41	0x2c0c53cc	1.9941713e-12
42	0x2eccbdd9	9.31057e-11
43	0x30285817	6.1243227e-10
44	0x302f8055	6.3847e-10
45	0x303cd5a5	6.869761e-10
46	0x2f0360f7	1.194883e-10
47	0x2f9d182a	2.8575303e-10
48	0x2d60ea52	1.2784955e-11
49	0x2e7615da	5.5953332e-11
50	0x2fa5eb21	3.0180394e-10
51	0x2ec27ccb	8.844266e-11
52	0x2dc249dd	2.2088048e-11
53	0x307d0671	9.205002e-10
54	0x2fefd906	4.362805e-10
55	0x2ebdce1a	8.631336e-11
56	0x30324f5e	6.486881e-10
57	0x2f198185	1.3961284e-10
58	0x2cf1d89b	6.87368e-12
59	0x2ff076f4	4.3740267e-10
60	0x2f855449	2.4252447e-10
61	0x2e7b9c39	5.7209546e-11
62	0x3033091a	6.5132755e-10
63	0x2f38c1cb	1.6803552e-10
64	0x30f423d7	1.7763523e-09
65	0x316c54a6	3.4390637e-09
66	0x30a45082	1.1955452e-09
67	0x318ee3ba	4.1586334e-09
68	0x3028d2e5	6.1417743e-10
69	0x317d6b0a	3.687719e-09
70	0x309d9244	1.1464825e-09
71	0x3101b019	1.887207e-09
72	0x31a358f4	4.754037e-09
73	0x2c3dd550	2.6976928e-12
74	0x2fb6c091	3.3242434e-10
75	0x311ed7da	2.3114723e-09
76	0x3179c4d3	3.634615e-09
77	0x31462c07	2.8837819e-09
78	0x2ff6e626	4.491067e-10
79	0x3114357c	2.1567237e-09
80	0x2f16972a	1.3696125e-10
81	0x2f821908	2.3664648e-10
82	0x31464349	2.885104e-09
83	0x2fa9c5fc	3.0881597e-10
84	0x2e75a490	5.585271e-11
85	0x31ba1ac5	5.416356e-09
86	0x310007f0	1.8630963e-09
87	0x2fad7496	3.1551356e-10
88	0x31847e17	3.8560404e-09
89	0x2fd94d51	3.9527007e-10
90	0x2c1db909	2.2413757e-12
91	0x315c9c6e	3.2103133e-09
92	0x31090f49	1.9944812e-09
93	0x3007d254	4.941161e-10
94	0x31be4101	5.537118e-09
95	0x307f945e	9.29793e-10
96	0x3153f3d1	3.0843135e-09
97	0x3204f3a9	7.738813e-09
98	0x311b1c3e	2.2571522e-09
99	0x320acbfe	8.07904e-09
100	0x30b35b38	1.304989e-09
101	0x32252811	9.613374e-09
102	0x3117fd08	2.2117224e-09
103	0x31854e3c	3.8797037e-09
104	0x324923f1	1.1707912e-08
105	0x2e481c5e	4.549993e-11
106	0x304dba7a	7.4843565e-10
107	0x31a09507	4.6735553e-09
108	0x320411a4	7.687422e-09
109	0x31d521d9	6.202964e-09
110	0x3080ce77	9.371907e-10
111	0x31a25971	4.724989e-09
112	0x2fa0d2da	2.925365e-10
113	0x3012b6f1	5.3374466e-10
114	0x31a6d5bd	4.855535e-09
115	0x2ffce851	4.6003604e-10
116	0x2eee3ba6	1.08335826e-10
117	0x3254f7ab	1.2396337e-08
118	0x318d9b1a	4.121273e-09
119	0x304f34a6	7.538098e-10
120	0x32135ad0	8.5771745e-09
121	0x307681e6	8.9678875e-10
122	0x2d857a0a	1.5174546e-11
123	0x31e38eac	6.6227894e-09
124	0x31808c4f	3.7412415e-09
125	0x307d5bbe	9.217124e-10
126	0x3264f6cc	1.3327462e-08
127	0x310dda2e	2.0642221e-09
128	0x3084bb83	9.657558e-10
129	0x30c88b6a	1.4591539e-09
130	0x307054a5	8.743178e-10
131	0x30c4672a	1.4290198e-09
132	0x2fd142dc	3.8064385e-10
133	0x30af193a	1.2740096e-09
134	0x301e4b99	5.7587496e-10
135	0x301d84c7	5.7304955e-10
136	0x30e33a82	1.6533053e-09
137	0x2acee894	3.6754334e-13
138	0x2efad671	1.1406776e-10
139	0x307e22ad	9.245394e-10
140	0x30ce7a43	1.5023222e-09
141	0x3097d2b1	1.1046578e-09
142	0x2fc54862	3.5885522e-10
143	0x30541a36	7.71624e-10
144	0x2e55838a	4.8547423e-11
145	0x2ebcadc4	8.580117e-11
146	0x30c8de32	1.4615067e-09
147	0x2f847864	2.4096203e-10
148	0x2d749165	1.3902078e-11
149	0x30fc22b7	1.834528e-09
150	0x30634ee2	8.269422e-10
151	0x2f442632	1.7839666e-10
152	0x30c03d3f	1.3987246e-09
153	0x2f9d5c4d	2.8623717e-10
154	0x2c30d7d2	2.5130909e-12
155	0x30da8dc3	1.5901879e-09
156	0x30604215	8.1584633e-10
157	0x2f9b1dfa	2.8215635e-10
158	0x310b890b	2.0305062e-09
159	0x2fec691f	4.3002843e-10
160	0x312129cf	2.345235e-09
161	0x31bd4eb9	5.5095737e-09
162	0x31123df0	2.1281004e-09
163	0x31c3d88e	5.6998664e-09
164	0x308e25ff	1.0342659e-09
165	0x31cd6527	5.977785e-09
166	0x30e39884	1.6559771e-09
167	0x312e3256	2.5348945e-09
168	0x3214dcf5	8.664974e-09
169	0x2e72eeef	5.5236645e-11
170	0x2fe7235a	4.2043774e-10
171	0x316b2e14	3.4223193e-09
172	0x31b751dc	5.3353073e-09
173	0x319fb298	4.647813e-09
174	0x307c048d	9.1683533e-10
175	0x3157e73f	3.1418066e-09
176	0x2f68cf3a	2.1173899e-10
177	0x2f901335	2.6207095e-10
178	0x3188289f	3.962739e-09
179	0x303768ad	6.6723765e-10
180	0x2ed90d2a	9.870356e-11
181	0x3206f5d8	7.855725e-09
182	0x314a0036	2.9394989e-09
183	0x304908c7	7.313585e-10
184	0x31cf384f	6.0308945e-09
185	0x30655eee	8.344462e-10
186	0x2d8433f4	1.5029734e-11
187	0x31bbbc3a	5.463815e-09
188	0x31226adf	2.3634852e-09
189	0x304034f3	6.992444e-10
190	0x322934de	9.849115e-09
191	0x30d567ed	1.5527327e-09
192	0x301259e8	5.3242255e-10
193	0x305b10f8	7.969585e-10
194	0x2fbb7f38	3.4105496e-10
195	0x308d275e	1.0270289e-09
196	0x2f52e0b6	1.9179222e-10
197	0x305a945d	7.9518775e-10
198	0x2fa27b96	2.9555441e-10
199	0x3013bf71	5.3750343e-10
200	0x30983f4b	1.1077445e-09
201	0x2b133762	5.230175e-13
202	0x2ec4b39e	8.9449545e-11
203	0x3028509b	6.123259e-10
204	0x307a1c2e	9.0989516e-10
205	0x3021c1bf	5.884679e-10
206	0x2f20a101	1.4609115e-10
207	0x305877a2	7.875035e-10
208	0x2e5615da	4.8677375e-11
209	0x2ea03917	7.286099e-11
210	0x305b931d	7.9880796e-10
211	0x2eff26bd	1.1602939e-10
212	0x2db37a88	2.0404359e-11
213	0x30b73c7a	1.3332191e-09
214	0x3029f14d	6.182475e-10
215	0x2e5c0b2a	5.0032124e-11
216	0x30a1af4e	1.1764116e-09
217	0x2f3dae60	1.72514e-10
218	0x2c3cff14	2.6858004e-12
219	0x30622084	8.226453e-10
220	0x301c6d3b	5.6907695e-10
221	0x2f0d89a2	1.2872772e-10
222	0x30a81def	1.2232116e-09
223	0x2f9161a7	2.6444733e-10
224	0x3093b097	1.0745848e-09
225	0x31566331	3.1197482e-09
226	0x309c4e7f	1.1372804e-09
227	0x316a38f2	3.4083851e-09
228	0x30387640	6.7106853e-10
229	0x3182911a	3.799994e-09
230	0x30723fcb	8.812974e-10
231	0x30ac60d0	1.2542163e-09
232	0x319f9f62	4.6456288e-09
233	0x2d9daff2	1.7926969e-11
234	0x2f8c2ae9	2.549634e-10
235	0x3107203e	1.9663413e-09
236	0x31586f0e	3.1495264e-09
237	0x313f390d	2.7826588e-09
238	0x2fee4dbc	4.3347181e-10
239	0x30dd1e59	1.6088492e-09
240	0x2f07c1b0	1.234699e-10
241	0x2f61f237	2.0549683e-10
242	0x31098db7	2.001668e-09
243	0x2f8c098b	2.5472632e-10
244	0x2e8cb05d	6.397791e-11
245	0x31a44910	4.7813344e-09
246	0x30dff9e5	1.629641e-09
247	0x2ff4730a	4.4465082e-10
248	0x3159abcf	3.1675318e-09
249	0x2fc120b9	3.5129746e-10
250	0x2c6ae808	3.3382203e-12
251	0x3147cbf1	2.9074239e-09
252	0x30bb6153	1.3633702e-09
253	0x2fca64b5	3.6815143e-10
254	0x31c6b8c3	5.7835634e-09
255	0x30577ffa	7.839841e-10

exp_avg f4 [128]
0	0xb94e24f1	-0.00019659453
1	0xb8bb56b7	-8.933007e-05
2	0xb8cfae6f	-9.90302e-05
3	0xb94717bd	-0.00018986962
4	0xb897a858	-7.2315976e-05
5	0xb94b415d	-0.00019383938
6	0xb859e166	-5.194675e-05
7	0xb9048569	-0.000126382
8	0xb8fc7996	-0.000120389435
9	0x36c7b8cb	5.952175e-06
10	0xb8b1fb3b	-8.486813e-05
11	0xb93475ef	-0.00017210071
12	0xb8c05efb	-9.172965e-05
13	0xb8078bcd	-3.2316708e-05
14	0xb870e10b	-5.7430047e-05
15	0xb928adcf	-0.00016086477
16	0x38350c80	4.3165404e-05
17	0xb8678455	-5.5197936e-05
18	0xb8e66cba	-0.000109875065
19	0x375cd21f	1.31619445e-05
20	0x38870faa	6.440219e-05
21	0xb98c96a9	-0.0002681513
22	0xb8f4b32e	-0.000116682015
23	0xb7a31ff8	-1.9446e-05
24	0xb9304a92	-0.00016812448
25	0xb8d11206	-9.969254e-05
26	0x3902da45	0.00012479078
27	0xb8c25d2d	-9.267996e-05
28	0xb9285397	-0.00016052868
29	0xb8ce007d	-9.8229364e-05
30	0xb930898c	-0.00016835908
31	0xb8329020	-4.2572734e-05
32	0xb96cd151	-0.0002258469
33	0xb9c69906	-0.00037879514
34	0xb8eeb147	-0.00011381745
35	0xb97575e5	-0.0002340894
36	0xb8d0f8ca	-9.9645535e-05
37	0xb987e720	-0.00025921408
38	0xb8aada50	-8.1468956e-05
39	0xb94547f8	-0.00018814194
40	0xb9419098	-0.0001845978
41	0x368b936e	4.159686e-06
42	0xb7942444	-1.7659862e-05
43	0xb9abf41f	-0.00032797546
44	0xb968eec2	-0.00022214188
45	0xb9127880	-0.00013968535
46	0xb8496293	-4.801394e-05
47	0xb938afe3	-0.0001761313
48	0x38656cde	5.4699245e-05
49	0xb860567e	-5.3486314e-05
50	0xb9a82172	-0.00032068376
51	0x3898745c	7.2695984e-05
52	0x37ee0cb4	2.8377726e-05
53	0xb9c1d797	-0.00036972456
54	0xb90345cb	-0.00012519133
55	0xb8865ca5	-6.406874e-05
56	0xb960ab56	-0.00021426132
57	0xb8e1e4b5	-0.00010771436
58	0x39589cb8	0.00020657748
59	0xb9613c60	-0.00021480164
60	0xb955aaf0	-0.00020376942
61	0xb84680f5	-4.732698e-05
62	0xb9a78e34	-0.00031958672
63	0xb8bc0aa4	-8.9665205e-05
64	0xb9c6e83e	-0.00037938537
65	0xba371e2e	-0.0006985393
66	0xb998550a	-0.00029055058
67	0x39ba003c	0.0003547686
68	0xb95b428e	-0.00020910261
69	0x3996dc04	0.00028774154
70	0x3985eb92	0.0002554325
71	0x39e33547	0.0004333651
72	0x39c651a4	0.0003782633
73	0x376b6154	1.40297525e-05
74	0xb96cc84e	-0.00022581333
75	0xba3d0b0b	-0.00072114234
76	0xb9b3b621	-0.00034277237
77	0xb986a259	-0.0002567943
78	0xb9208830	-0.00015309523
79	0xb98d2b15	-0.00026925714
80	0xb88c1c5a	-6.681001e-05
81	0xb9079083	-0.00012928438
82	0xba21e846	-0.0006176274
83	0x39852fc2	0.0002540332
84	0x3905121d	0.00012690616
85	0x3a3078e7	0.0006731883
86	0x398a2019	0.00026345326
87	0xb8fc6a9f	-0.00012036156
88	0xb9a6bf11	-0.00031804343
89	0x3990999d	0.0002758027
90	0x38854efe	6.356648e-05
91	0xba10119f	-0.000549579
92	0x3987ddd6	0.00025914487
93	0x39dd876c	0.00042253302
94	0xba0bea49	-0.00053373404
95	0x397bb786	0.00024005593
96	0xb92e2d26	-0.00016610752
97	0xb9a4e529	-0.00031451255
98	0x387c74a7	6.0190123e-05
99	0xb9c1c490	-0.0003695828
100	0xb853c6b4	-5.0491377e-05
101	0xba0e6de6	-0.0005433246
102	0x37b77f74	2.187465e-05
103	0xba0860e4	-0.0005202426
104	0xb9f6c786	-0.00047069433
105	0x36f5ed56	7.3291985e-06
106	0xb8584e36	-5.1571253e-05
107	0xb968a544	-0.0002218681
108	0xb9c3a954	-0.00037319458
109	0xb917bcb8	-0.00014470785
110	0x39ce2d8f	0.00039325326
111	0xb8dfa394	-0.000106639374
112	0x3927b150	0.00015992415
113	0x390a31a8	0.00013179204
114	0xb9b37b95	-0.00034233616
115	0x39040b21	0.00012592647
116	0x388c66cc	6.6948676e-05
117	0xba2a8371	-0.00065045716
118	0x368cb1a3	4.1930048e-06
119	0x399e1bac	0.00030156726
120	0xb9a05f82	-0.00030588737
121	0x39932fe5	0.0002807371
122	0x398e8fa2	0.00027191365
123	0xb94e32f1	-0.00019664668
124	0xb9c891d9	-0.00038255638
125	0xb8dede29	-0.000106271655
126	0xba1cfce3	-0.0005988611
127	0xb8d112b0	-9.9693774e-05
