lightning_logs/version_75/checkpoints/epoch=5.ckpt (torch_old, 167741 bytes, 18 tensors)

exp_avg f4 [96, 81]
000000 1e c4 3b b2 bf e9 9c b3 bb 8d a2 b0 ff ff 1c b1
       -1.09294245e-08 -7.306834e-08 -1.1827334e-09 -2.2846505e-09
000010 00 00 00 00 00 00 00 00 05 b0 06 b0 23 ac 2a af
       0.0 0.0 -4.8999055e-10 -1.5522565e-10
000020 a9 8f ab 2f fc df bf 2e 12 69 a9 b1 c7 a1 98 b0
       3.1206795e-10 8.725462e-11 -4.9304925e-09 -1.1105435e-09
000030 92 1b d1 b1 00 00 00 00 c7 81 90 a9 e0 bc 42 2f
       -6.085835e-09 0.0 -6.4173974e-14 1.7711299e-10
000040 72 82 69 2e 59 c8 28 29 f7 c2 04 25 af 15 17 2e
       5.3093925e-11 3.7477268e-14 1.1515232e-16 3.4352684e-11
000050 5f 44 4c a9 79 b9 82 27 ac e3 2a ab d7 4c 44 28
       -4.5356402e-14 3.628334e-15 -6.071209e-13 1.0896848e-14
000060 d5 c4 3b b0 b3 60 23 b0 00 00 00 00 13 98 98 af
       -6.830992e-10 -5.943647e-10 0.0 -2.7756694e-10
000070 00 00 00 00 96 4b 08 b1 f8 4c 64 2f f2 62 5a af
       0.0 -1.983357e-09 2.0763824e-10 -1.9862137e-10
000080 27 07 79 b0 70 68 21 2f 92 73 ce af d0 6d 7e ac
       -9.0595836e-10 1.4679968e-10 -3.75533e-10 -3.615653e-12
000090 bd dd 4a 30 b5 b5 cd af 54 4b 51 2e 57 ee 55 2f
       7.380228e-10 -3.7418393e-10 4.7588003e-11 1.9456912e-10
0000a0 c6 f7 a0 af b8 dd b4 b0 46 70 46 b1 9c f7 cb 2f
       -2.9279884e-10 -1.315974e-09 -2.8876612e-09 3.7101422e-10
0000b0 5f 4a f5 2f 35 6e d2 2e 38 c8 c0 b0 38 00 e4 af
       4.4618084e-10 9.569271e-11 -1.4026744e-09 -4.1473114e-10
0000c0 e2 a7 96 b0 ea 19 13 2e 00 3c c5 b0 98 2c c8 b0
       -1.0961652e-09 3.3446947e-11 -1.435069e-09 -1.456459e-09
0000d0 28 95 38 2e 10 23 fa af 72 1d 1d b1 94 0f 0a b3
       4.1969234e-11 -4.5499648e-10 -2.2863245e-09 -3.2144797e-08
0000e0 52 2b dc b1 9e 35 57 b2 02 d8 f4 b2 c9 ae 89 b3
       -6.4077676e-09 -1.2526838e-08 -2.8503568e-08 -6.411353e-08
0000f0 b3 d3 06 b2 88 98 3b b2 6d c1 aa b2 6c 57 c0 b2
       -7.847961e-09 -1.0919514e-08 -1.9878565e-08 -2.2391497e-08
000100 06 17 11 b1 fe 2c 06 af 17 f4 9d b2 88 54 83 b2
       -2.1113364e-09 -1.2203213e-10 -1.8388205e-08 -1.5288848e-08
000110 04 e5 15 b3 13 e6 fe b2 8c ef ea b1 e1 4a a4 b0
       -3.4900054e-08 -2.9674117e-08 -6.8375297e-09 -1.1953852e-09
000120 69 ec 19 b3 89 67 0d b3 ee 1f 66 b3 f3 2a 33 b2
       -3.5838102e-08 -3.2923285e-08 -5.3580088e-08 -1.0428937e-08
000130 49 7d 9f b1 32 57 86 b2 2d a1 b3 b0 52 75 18 b1
       -4.6417523e-09 -1.5639305e-08 -1.3069773e-09 -2.21856e-09
000140 c0 57 a8 b0 b4 4d 5c b0 12 9a cf b1 a4 74 a5 ae
       -1.2248549e-09 -8.0145957e-10 -6.0420087e-09 -7.524051e-11
000150 51 5b 74 af 00 00 00 00 00 00 00 00 b3 ca 9c ae
       -2.2224113e-10 0.0 0.0 -7.130065e-11
000160 74 39 88 ad 28 a9 df 2b a5 6d ca 2c 2f 76 12 b0
       -1.5486924e-11 1.5892053e-12 5.7533583e-12 -5.328244e-10
000170 33 22 c0 ae fd ea 07 b0 00 00 00 00 de a3 ac a8
       -8.737224e-11 -4.944665e-10 0.0 -1.9166902e-14
000180 da 74 56 2c 79 fd 40 2c 55 71 3e a8 6e 2a 9c 27
       3.0476095e-12 2.7425547e-12 -1.0571694e-14 4.33447e-15
000190 60 4c f8 2b 9e 04 23 a6 21 f7 1d a7 e8 16 2b aa
       1.7642658e-12 -5.6558243e-16 -2.1922096e-15 -1.5195798e-13
0001a0 27 62 4e 27 78 06 4a ae 79 71 1c ae 00 00 00 00
       2.8641451e-15 -4.5935228e-11 -3.5571077e-11 0.0
0001b0 6e 8a 0c ae 00 00 00 00 68 1f 34 af cc 06 e0 ad
       -3.1955265e-11 0.0 -1.6382062e-10 -2.546887e-11
0001c0 e3 f1 c2 ad 2d 11 97 ae 5e 7a 53 2d 05 19 3d ae
       -2.2162666e-11 -6.869736e-11 1.2021132e-11 -4.2995846e-11
0001d0 1e ca 22 2a 26 be 7a 2d 1f 99 84 ae c1 bc 80 2c
       1.4458614e-13 1.4253076e-11 -6.029865e-11 3.6589347e-12
0001e0 28 e9 16 2d 25 82 12 ae c6 48 c1 ae 50 02 67 af
       8.578284e-12 -3.3312148e-11 -8.789551e-11 -2.1010149e-10
0001f0 0e ae 2d 2d 09 58 59 2d 90 33 d6 2c c0 3f d3 ae
       9.872559e-12 1.235457e-11 6.0879704e-12 -9.6064934e-11
000200 2f aa 61 ae 93 3e c4 ae 83 ac 1b 2c ff 70 b4 ae
       -5.131023e-11 -8.9241635e-11 2.2122588e-12 -8.2055245e-11
000210 12 d4 bd ae c2 85 07 2c fd cf 46 ae ba ee 36 af
       -8.632396e-11 1.9258904e-12 -4.520472e-11 -1.6637616e-10
000220 bb a9 53 b1 fb 0b 0f b0 b4 ee 70 b0 06 97 10 b1
       -3.0801022e-09 -5.204012e-10 -8.765071e-10 -2.1040605e-09
000230 fc cc aa b1 79 6b 3a b0 99 c1 9c b0 52 9f f5 b0
       -4.970955e-09 -6.7819134e-10 -1.1405518e-09 -1.7871378e-09
000240 49 19 fc b0 4c 94 2d af 41 ea 91 ae 76 31 dc b0
       -1.83426e-09 -1.5786944e-10 -6.6354484e-11 -1.6021164e-09
000250 f6 20 94 b0 a5 98 2a b1 2b 07 3d b1 64 9c 20 b0
       -1.0777785e-09 -2.4825024e-09 -2.7507194e-09 -5.8429905e-10
000260 07 d5 f0 ae b2 a3 2a b1 ea 64 12 b1 b6 e9 86 b1
       -1.0951778e-10 -2.4831306e-09 -2.130316e-09 -3.926483e-09
000270 af 48 88 b0 3a a6 de af ec 4f a6 b0 ce a3 d5 ae
       -9.91596e-10 -4.0499676e-10 -1.2100805e-09 -9.715216e-11
000280 14 ce c4 af 5d 0b cc ae c0 e8 a4 b1 f8 31 4e b3
       -3.579862e-10 -9.2788645e-11 -4.799489e-09 -4.800856e-08
000290 6b 2f 06 b0 8a 67 a9 b0 00 00 00 00 00 00 00 00
       -4.88163e-10 -1.2325796e-09 0.0 0.0
0002a0 af 8f a9 af 28 7e f6 ae ea 2c a0 2e 26 ff 4f 2e
       -3.0843014e-10 -1.1209195e-10 7.283936e-11 4.7292968e-11
0002b0 6d b3 71 b1 64 ee 2f b0 b1 34 72 b1 00 00 00 00
       -3.5172107e-09 -6.40034e-10 -3.5245586e-09 0.0
0002c0 ae c0 60 a8 ca 92 4a 2e ab a8 9a 2d 9f 0f 1c a6
       -1.2476279e-14 4.6059857e-11 1.7582677e-11 -5.4144543e-16
0002d0 81 dc 68 a6 87 3e a6 2d c5 15 c1 a7 71 05 5b a7
       -8.079001e-16 1.8899783e-11 -5.3591864e-15 -3.0395305e-15
0002e0 cc cc f3 a9 0f 8f 36 a7 e5 ee b9 af 17 c6 8b af
       -1.08268944e-13 -2.5335126e-15 -3.382105e-10 -2.5424704e-10
0002f0 00 00 00 00 0f bb 49 af 00 00 00 00 d8 8f 93 b0
       0.0 -1.83473e-10 0.0 -1.073654e-09
000300 a2 52 3a ae 5f 38 39 af b9 78 c8 af a3 d0 cb 2e
       -4.2364896e-11 -1.6845679e-10 -3.6465567e-10 9.2684325e-11
000310 d8 4b 8f af 9c 8f 16 ac 76 5a 71 2f 12 39 d7 af
       -2.606544e-10 -2.1396001e-12 2.195096e-10 -3.9148823e-10
000320 a6 c6 d5 2d be 0f b5 2e 63 f9 2e af d3 bf 03 b0
       2.4303514e-11 8.2337234e-11 -1.5913808e-10 -4.793012e-10
000330 50 08 b0 b0 a7 ed 0e 2f 03 50 24 2f a1 f8 3b 2e
       -1.2808048e-09 1.2999256e-10 1.4944139e-10 4.2739704e-11
000340 38 3f 26 b0 ba f1 7f af 92 0d 1c b0 33 4e 58 2d
       -6.048029e-10 -2.3277993e-10 -5.6771754e-10 1.2295542e-11
000350 b8 07 2e b0 c4 95 4c b0 60 a3 ce 2d 80 e7 93 af
       -6.33118e-10 -7.44276e-10 2.3492042e-11 -2.6903635e-10
000360 6a 9a 81 b0 86 9f a4 b2 c0 41 61 b1 59 c9 b6 b1
       -9.429872e-10 -1.9164656e-08 -3.2779184e-09 -5.3197877e-09
000370 27 36 73 b2 ec e9 12 b3 e2 d7 b0 b1 e4 52 d3 b1
       -1.4156774e-08 -3.4206025e-08 -5.146817e-09 -6.150332e-09
000380 60 66 5c b2 1d bb 71 b2 bd 74 87 b0 61 d1 9b af
       -1.2828963e-08 -1.4070591e-08 -9.855722e-10 -2.8343108e-10
000390 90 28 34 b2 e9 2e fc b1 f3 5c a7 b2 4e 3f 45 b2
       -1.0486602e-08 -7.3394983e-09 -1.9483627e-08 -1.1481303e-08
0003a0 57 0b 4b b1 49 2b 65 b0 01 b6 9d b2 95 21 86 b2
       -2.9546834e-09 -8.3371227e-10 -1.8359971e-08 -1.5614924e-08
0003b0 53 46 db b2 73 f3 e9 b1 bd b7 37 b1 94 f4 1f b2
       -2.5526935e-08 -6.8088695e-09 -2.6734448e-09 -9.310629e-09
0003c0 48 4b 18 b0 78 3e b1 b0 b6 7b 19 b0 25 32 b8 b1
       -5.540426e-10 -1.28962e-09 -5.583688e-10 -5.3608056e-09
0003d0 cc 35 57 b3 a1 30 3c b0 20 67 c2 b0 00 00 00 00
       -5.0107516e-08 -6.846311e-10 -1.4144668e-09 0.0
0003e0 00 00 00 00 aa 4d d3 af 9b 05 df ae e2 1c 0a 2f
       0.0 -3.843586e-10 -1.0141862e-10 1.2561288e-10
0003f0 a9 aa 43 2e e5 54 81 b1 c1 e5 18 b0 dc 22 73 b1
       4.4489443e-11 -3.7640455e-09 -5.562378e-10 -3.538097e-09

exp_avg_sq f4 [96, 81]
000000 f7 29 4c 2c 35 68 c8 2e 15 8b d1 28 e0 60 30 2a
       2.9013439e-12 9.113458e-11 2.3263978e-14 1.566555e-13
000010 00 00 00 00 00 00 00 00 68 f4 24 29 18 33 d8 25
       0.0 0.0 3.6627304e-14 3.750465e-16
000020 e9 92 15 25 9b d0 bf 24 68 d0 4a 2b d3 ad 65 28
       1.2973465e-16 8.318644e-17 7.205404e-13 1.2749746e-14
000030 99 dc 21 2b 00 00 00 00 3f 1b e8 23 a1 10 3f 25
       5.750483e-13 0.0 2.516503e-17 1.6572243e-16
000040 dc 74 2a 25 e6 2f f2 23 b3 07 c7 1d d2 0d 8b 22
       1.4784743e-16 2.6257978e-17 5.2682822e-21 3.769066e-18
000050 f2 ba 07 23 d9 f4 8e 21 47 85 59 24 e3 71 22 20
       7.357952e-18 9.687105e-19 4.7167265e-17 1.3759616e-19
000060 eb 92 a2 25 3c a2 55 26 00 00 00 00 ce ce 83 27
       2.8202076e-16 7.411909e-16 0.0 3.6584022e-15
000070 00 00 00 00 57 33 96 28 1c 33 28 28 2e 22 11 27
       0.0 1.667561e-14 9.336956e-15 2.0141321e-15
000080 06 96 8b 27 45 09 88 27 21 07 84 26 3d ca e1 25
       3.8742906e-15 3.7757633e-15 9.161272e-16 3.916832e-16
000090 b6 0c ad 28 94 c2 b8 28 65 3e e8 24 2d dd aa 26
       1.921237e-14 2.0512488e-14 1.0071966e-16 1.1856069e-15
0000a0 ab b9 b7 25 90 eb 7c 28 90 68 28 28 64 50 20 27
       3.1871253e-16 1.403989e-14 9.348547e-15 2.224804e-15
0000b0 fb 0b 9d 28 45 7c 90 23 6b 2e 84 28 72 12 f9 27
       1.7435697e-14 1.5665141e-17 1.4675075e-14 6.913138e-15
0000c0 09 91 b2 28 40 4b 95 25 81 db b6 25 e6 91 ea 27
       1.9824869e-14 2.589837e-16 3.172071e-16 6.510623e-15
0000d0 f2 1c 95 25 9a bd a4 26 db 33 b1 24 71 b9 86 2d
       2.5866994e-16 1.1431178e-15 7.684936e-17 1.5316389e-11
0000e0 83 b2 de 2a 9a e0 e6 2b 73 f1 d9 2c 88 77 83 2e
       3.955899e-13 1.6404822e-12 6.194317e-12 5.978423e-11
0000f0 6e 23 ac 2b b1 c9 06 2c 88 22 46 2d aa 37 78 2d
       1.2231169e-12 1.9154507e-12 1.1262664e-11 1.4109528e-11
000100 61 30 c0 26 c3 56 8e 2a 9b 60 68 2c c3 27 2a 2c
       1.3335789e-15 2.528447e-13 3.302281e-12 2.4180525e-12
000110 b5 1d 94 2d 9b e1 94 2d 3c d1 66 2b 4e f4 88 27
       1.6838845e-11 1.6925841e-11 8.2002786e-13 3.801246e-15
000120 84 5b 5d 2d 7f 2f 99 2d 11 0f 02 2e 43 ed 09 2c
       1.2582716e-11 1.7415179e-11 2.957196e-11 1.9600578e-12
000130 99 72 a8 2a 51 78 c2 2b 3b da 55 28 ba 66 4f 2b
       2.9922313e-13 1.3817924e-12 1.1871196e-14 7.3683735e-13
000140 63 8d 08 28 ab e7 e4 28 a5 d3 b4 2b 08 62 71 25
       7.580175e-15 2.5413555e-14 1.2848512e-12 2.0936632e-16
000150 4b 1f 1d 27 00 00 00 00 00 00 00 00 c8 14 ed 25
       2.180509e-15 0.0 0.0 4.1127028e-16
000160 cc 0f 5e 23 35 47 bd 22 e8 8c 13 22 28 ba 88 28
       1.2037989e-17 5.1303946e-18 1.999681e-18 1.5179766e-14
000170 ea 46 70 25 15 6e 02 28 00 00 00 00 e9 95 10 22
       2.0840708e-16 7.24032e-15 0.0 1.9595e-18
000180 67 27 0e 23 54 14 37 22 3e 1a 74 21 11 22 7a 1d
       7.706179e-18 2.4811886e-18 8.2705147e-19 3.3104836e-21
000190 b3 81 bf 1f 43 20 2b 21 fb 07 90 1f 6b f7 72 22
       8.1106216e-20 5.797975e-19 6.0999575e-20 3.2928098e-18
0001a0 54 b8 98 1e 5e a1 07 23 d2 24 aa 23 00 00 00 00
       1.6169862e-20 7.3525355e-18 1.8447031e-17 0.0
0001b0 a3 2d ec 24 00 00 00 00 77 60 ec 25 ec 0e 47 25
       1.02426e-16 0.0 4.100484e-16 1.7265554e-16
0001c0 0e d7 47 24 6a e3 e7 24 79 01 ab 24 e1 f9 66 24
       4.3333405e-17 1.00565535e-16 7.4161923e-17 5.0084956e-17
0001d0 e0 87 36 24 75 f7 85 25 01 2d 13 26 4b 46 c6 22
       3.958005e-17 2.3239506e-16 5.106186e-16 5.3742433e-18
0001e0 88 c5 04 24 22 aa e3 22 fb 3f 5a 25 eb 50 20 25
       2.8790253e-17 6.170861e-18 1.8930163e-16 1.3905204e-16
0001f0 c1 a9 6e 24 b7 7f f1 25 9a 8d 87 21 1b 62 2f 25
       5.175181e-17 4.189338e-16 9.185437e-19 1.521207e-16
000200 4f fa 31 25 25 49 be 25 bf ac 83 22 77 3d f0 23
       1.543711e-16 3.300931e-16 3.5690523e-18 2.6046884e-17
000210 e3 10 a7 24 cc e1 a8 22 a1 d7 25 24 d8 23 b9 22
       7.245331e-17 4.5775563e-18 3.5961316e-17 5.01823e-18
000220 39 f1 bf 2a c2 97 e4 27 11 f5 bc 28 aa ee a0 29
       3.4095797e-13 6.344725e-15 2.0978473e-14 7.146829e-14
000230 d2 f4 50 2b de 94 c6 28 97 fb bd 28 5e e2 57 2a
       7.42362e-13 2.2046977e-14 2.1092325e-14 1.9174373e-13
000240 2e d7 30 2a 85 89 83 24 c7 30 88 27 62 f3 83 29
       1.5706596e-13 5.704516e-17 3.7800467e-15 5.859789e-14
000250 e5 e2 0b 29 b5 ef 46 2a 58 6e a4 2a b5 6a 32 28
       3.1061e-14 1.7669098e-13 2.9208819e-13 9.904123e-15
000260 c1 bc 9c 24 42 22 37 2a 18 99 28 2a 4f ce d2 2a
       6.797398e-17 1.626555e-13 1.4974513e-13 3.744665e-13
000270 df 55 21 29 98 ad e0 27 bd 18 ac 28 a1 41 82 25
       3.5823663e-14 6.23607e-15 1.9106565e-14 2.2595877e-16
000280 08 d5 98 28 8b db 2f 25 06 db 1a 29 2d 3e 6d 2c
       1.6967778e-14 1.5253214e-16 3.4384842e-14 3.371424e-12
000290 3a f9 7c 25 0f a1 83 27 00 00 00 00 00 00 00 00
       2.1941957e-16 3.6534424e-15 0.0 0.0
0002a0 b4 b7 ca 25 91 37 1a 23 7b 4f 97 22 50 99 c4 21
       3.5165896e-16 8.360123e-18 4.1012785e-18 1.3322058e-18
0002b0 bd d0 c6 28 31 18 3b 26 79 53 8f 28 00 00 00 00
       2.2072942e-14 6.4911443e-16 1.591239e-14 0.0
0002c0 10 72 13 21 17 c1 c6 21 29 30 85 21 66 cb a6 1c
       4.99565e-19 1.3468112e-18 9.025178e-19 1.1037536e-21
0002d0 75 8a d9 1e 28 42 02 1f 83 97 e2 1f 28 51 32 20
       2.3033033e-20 2.7583294e-20 9.596538e-20 1.5104039e-19
0002e0 73 e8 20 21 32 d4 34 1f e0 4b 5e 23 00 f6 9a 23
       5.4517753e-19 3.8292006e-20 1.2050711e-17 1.6800899e-17
0002f0 00 00 00 00 cc 55 5d 25 00 00 00 00 3b 18 1f 26
       0.0 1.9197764e-16 0.0 5.5197045e-16
000300 b3 6c 58 25 3b 88 ad 24 da 37 bd 23 60 6a 62 24
       1.8771842e-16 7.5257574e-17 2.0515075e-17 4.909604e-17
000310 47 65 25 24 dc af b9 23 2e b4 96 25 bd c8 84 26
       3.5864457e-17 2.013222e-17 2.6142947e-16 9.21375e-16
000320 3e 2b 8a 21 a3 10 52 23 21 9c 98 22 d9 1c c9 24
       9.36269e-19 1.1387646e-17 4.136499e-18 8.7218724e-17
000330 00 93 f5 24 d7 d8 f9 23 32 82 3b 26 04 d6 0b 1f
       1.0650084e-16 2.708847e-17 6.5055106e-16 2.9611424e-20
000340 71 44 af 24 57 64 84 24 a2 98 21 26 6d 3d 05 22
       7.6010096e-17 5.741586e-17 5.606495e-16 1.805738e-18
000350 3b 87 ad 23 c9 24 22 25 4d 24 98 21 e9 57 ac 23
       1.881397e-17 1.4063723e-16 1.0309529e-18 1.8685509e-17
000360 e2 78 3f 21 3d 8d 01 2b 4c 57 24 28 49 c6 02 29
       6.4873304e-19 4.6026014e-13 9.122758e-15 2.9037784e-14
000370 ad c2 04 2a e2 1a ca 2b c4 98 48 29 63 17 0e 29
       1.1791497e-13 1.4360425e-12 4.4541424e-14 3.155062e-14
000380 60 ae 02 2b 92 cb 10 2b 91 22 16 24 58 36 ca 27
       4.642727e-13 5.144159e-13 3.2555344e-17 5.6125182e-15
000390 ce f7 f1 29 8e 83 45 29 b7 e4 11 2b 20 e0 5f 2a
       1.0745537e-13 4.3856893e-14 5.1831754e-13 1.9884138e-13
0003a0 8d 4c 4c 28 b6 5d cd 24 1d 17 9a 2a 0b 59 a5 2a
       1.1340874e-14 8.906333e-17 2.7371933e-13 2.9371674e-13
0003b0 50 3e 32 2b 99 aa 83 29 28 f3 09 28 fb 91 61 29
       6.332478e-13 5.8471626e-14 7.657754e-15 5.0086654e-14
0003c0 27 ca 2f 25 1c 5e 81 28 99 78 41 24 f8 ff 5e 2a
       1.5247322e-16 1.436269e-14 4.1952354e-17 1.9806368e-13
0003d0 c1 ed 8b 2d f2 d0 ed 26 fc 27 fa 28 00 00 00 00
       1.5908054e-11 1.6501813e-15 2.7772916e-14 0.0
0003e0 00 00 00 00 c5 a5 9f 27 f0 03 06 24 3b 09 dc 23
       0.0 4.4311093e-15 2.9059953e-17 2.3856357e-17
0003f0 1e 55 c4 22 d1 55 15 2a 7f 35 e4 26 70 5d a2 29
       5.3216028e-18 1.3263632e-13 1.5835178e-15 7.210454e-14

exp_avg f4 [96, 32]
000000 15 ae 39 31 6a 55 a6 b0 3b e0 96 31 06 81 97 31
       2.7019997e-09 -1.2102366e-09 4.3910666e-09 4.4093467e-09
000010 83 45 75 b1 a1 96 96 b1 a2 dc 97 b1 c8 8f 97 b1
       -3.5691705e-09 -4.382699e-09 -4.4197614e-09 -4.4110244e-09
000020 10 a8 96 31 3e a4 09 31 10 bf 97 b1 76 dc 96 31
       4.384681e-09 2.0029485e-09 -4.4163997e-09 4.390638e-09
000030 86 f9 96 b1 29 be 95 b1 3a c0 92 31 c8 04 97 31
       -4.393942e-09 -4.3580894e-09 4.271013e-09 4.395222e-09
000040 14 94 96 b1 f7 6b 86 31 04 89 97 31 89 72 97 31
       -4.382409e-09 3.9121875e-09 4.4102553e-09 4.4076995e-09
000050 57 ba 97 31 41 bd 96 31 9d cf 96 31 d6 49 97 31
       4.415863e-09 4.3870902e-09 4.3891775e-09 4.4030726e-09
000060 c7 87 97 b1 24 17 98 31 7b de 95 b1 53 bb 97 b1
       -4.4101145e-09 4.426413e-09 -4.361764e-09 -4.4159747e-09
000070 b6 db 97 b1 b6 7b 97 31 da 73 8e b1 93 4a 96 31
       -4.4196566e-09 4.4087427e-09 -4.1459147e-09 4.3740527e-09
000080 4c 32 69 2f ac 0e 3e 2e 78 db fc 2d 36 5f 01 2e
       2.1209096e-10 4.321403e-11 2.8746547e-11 2.941577e-11
000090 44 5c 1b 2f 4d c8 e6 ad 8b 58 c1 ad da 28 9e ad
       1.4129947e-10 -2.6236924e-11 -2.198088e-11 -1.7980662e-11
0000a0 5d 9a 3f 2e 9b 51 81 2f af cf 1c ae 2b 36 5a 2e
       4.3565474e-11 2.3522947e-10 -3.5654753e-11 4.9615572e-11
0000b0 24 db 48 ae 8a f6 8c ae cd f8 9b 2e 80 fa 01 2e
       -4.566937e-11 -6.410257e-11 7.09278e-11 2.9553693e-11
0000c0 b9 d3 2c ae 66 af 0d af 70 0c 7c 2d 8d da 9f 2d
       -3.929632e-11 -1.288619e-10 1.4327303e-11 1.8173263e-11
0000d0 a7 9c ac 2d 15 f4 f6 2d 8f 68 85 2e b5 e6 f1 2d
       1.9623704e-11 2.8075356e-11 6.066713e-11 2.7500982e-11
0000e0 34 d4 a4 ad 27 98 ad 2d 1b 3b 71 ae 93 59 d9 ad
       -1.8738879e-11 1.9735392e-11 -5.4849552e-11 -2.4709823e-11
0000f0 a5 e0 62 ad d0 53 bf 2d 17 0b d1 ae ba 75 28 2e
       -1.2896494e-11 2.1751406e-11 -9.5061896e-11 3.830334e-11
000100 c4 c8 86 2d ff 86 bc ad bb ed 1d 2f c5 13 22 2f
       1.5323194e-11 -2.1433076e-11 1.4363526e-10 1.4740838e-10
000110 2a 7f 4f ae e5 54 1e af 7e 50 3b af fd 76 3b af
       -4.7179295e-11 -1.4400177e-10 -1.7036147e-10 -1.7049824e-10
000120 8e 91 eb 2e bc fb a1 2e ff b8 1f af 67 50 d9 2e
       1.07124185e-10 7.3661494e-11 -1.452669e-10 9.8823e-11
000130 1b 4e ff ae 8c 0f 8f ae 30 f4 79 2e 89 35 1f 2f
       -1.1609932e-10 -6.505649e-11 5.6832927e-11 1.4479985e-10
000140 a6 e3 00 af af 19 cf 2e b1 8c 47 2f 24 59 38 2f
       -1.1722409e-10 9.4178325e-11 1.8148928e-10 1.6766372e-10
000150 4b f6 3d 2f 46 94 1d 2f ee a4 bc 2e 57 e4 30 2f
       1.7276951e-10 1.4331744e-10 8.5785476e-11 1.608823e-10
000160 a1 c5 37 af 93 c2 49 2f 18 8b bf ae b9 a2 33 af
       -1.6713965e-10 1.834997e-10 -8.7103824e-11 -1.6337766e-10
000170 9e 32 4f af 10 65 31 2f ff 8f 1f ae 5f bb 06 2f
       -1.8844523e-10 1.6133961e-10 -3.628031e-11 1.2253797e-10
000180 dc 20 0a 2e 5f 9d 6c ae cf 32 bd 2f ff 91 c1 2f
       3.1406752e-11 -5.379996e-11 3.4415001e-10 3.5210232e-10
000190 5d f5 04 af 7c d7 bd af 4b 59 dd af 8e f4 dd af
       -1.20925e-10 -3.453201e-10 -4.0263112e-10 -4.0373432e-10
0001a0 bc 94 8e 2f 23 0a 3d 2f b8 49 be af 51 af 83 2f
       2.5935332e-10 1.7193051e-10 -3.461318e-10 2.395333e-10
0001b0 2e ea 99 af 5c 34 30 af 4f d5 16 2f 0f 16 be 2f
       -2.7996933e-10 -1.6025709e-10 1.3718203e-10 3.4576472e-10
0001c0 cd 43 9b af bf 65 7c 2f 5c 26 eb 2f ed 73 da 2f
       -2.824251e-10 2.2955414e-10 4.2773507e-10 3.973634e-10
0001d0 4b b2 e0 2f b2 27 bc 2f da ef 67 2f 79 c9 d1 2f
       4.0872047e-10 3.4225206e-10 2.109454e-10 3.8160033e-10
0001e0 f3 f8 d9 af 80 37 ed 2f e0 c6 66 af 72 f6 d4 af
       -3.964896e-10 4.3149484e-10 -2.0989033e-10 -3.8737685e-10
0001f0 2c 8d f3 af 6c a8 d2 2f 45 93 ba ae 96 c3 a1 2f
       -4.430175e-10 3.8318448e-10 -8.484461e-11 2.9424702e-10
000200 4a b3 97 b1 84 07 3c 30 6d c2 9d b1 08 26 9e b1
       -4.415061e-09 6.840468e-10 -4.591405e-09 -4.602729e-09
000210 8c ef fe 30 4d 55 9d 31 be 7d 9e 31 d4 24 9e 31
       1.8549016e-09 4.578999e-09 4.6127004e-09 4.602592e-09
000220 ed f9 9d b1 06 bc 90 b1 7e 9f 9e 31 fb 5b 9e b1
       -4.5977147e-09 -4.2123274e-09 4.6165374e-09 -4.608862e-09
000230 cb 6d 9e 31 f9 78 9e 31 4a 0e 9e b1 0c 05 9e b1
       4.6108872e-09 4.612158e-09 -4.6000297e-09 -4.598979e-09
000240 f7 f0 9d 31 67 e4 25 b1 86 35 9e b1 76 f3 9d b1
       4.596696e-09 -2.4140492e-09 -4.60449e-09 -4.5969797e-09
000250 37 55 9e b1 38 c4 9d b1 24 9d 9e b1 c2 48 9e b1
       -4.608093e-09 -4.591609e-09 -4.61627e-09 -4.606677e-09
000260 ee f9 9d 31 8c db 9e b1 09 5b 9e 31 15 76 9e 31
       4.597715e-09 -4.623365e-09 4.6087547e-09 4.6118296e-09
000270 8c 70 9e 31 f4 09 9e b1 9d 84 9e 31 d2 d5 9d b1
       4.6112003e-09 -4.5995368e-09 4.6134816e-09 -4.59361e-09
000280 c3 de a9 2d fb 64 09 ad 5d dd af 2e 66 47 b9 2e
       1.9312002e-11 -7.8099706e-12 7.997401e-11 8.425509e-11
000290 b0 54 93 ad 52 5b ae ae 09 0b e2 ae 7c 35 e1 ae
       -1.6749574e-11 -7.9288257e-11 -1.02792504e-10 -1.0241316e-10
0002a0 95 e6 81 2e 4d 9a 66 2e 90 46 bc ae 59 87 77 2e
       5.9072004e-11 5.2432992e-11 -8.5617846e-11 5.628151e-11
0002b0 71 59 8d ae e7 ac 19 ae 0a 47 12 2e 18 7f b8 2e
       -6.4278256e-11 -3.494174e-11 3.3259652e-11 8.3899276e-11
0002c0 e1 c9 92 ae 7a 7f 51 2e 5f d0 f4 2e 07 8d d8 2e
       -6.675172e-11 4.763432e-11 1.11328495e-10 9.847594e-11
0002d0 7f 9c e3 2e c1 fe b7 2e b6 bd 44 2e 40 56 d0 2e
       1.0350564e-10 8.36713e-11 4.4733738e-11 9.474066e-11
0002e0 cc 26 d8 ae b5 1a fa 2e 7e 46 60 ae d1 3f d7 ae
       -9.8294345e-11 1.1373428e-10 -5.0994313e-11 -9.788404e-11
0002f0 70 e4 fd ae 12 62 d1 2e 52 d4 ea ad d2 5d 9a 2e
       -1.15456866e-10 9.5216404e-11 -2.669701e-11 7.019775e-11
000300 ca a2 30 2d 27 75 09 ae aa 42 72 2f ba ee 78 2f
       1.0040588e-11 -3.1254246e-11 2.2033456e-10 2.2640281e-10
000310 a2 ef 93 ae 45 5d 74 af 14 d9 91 af 0d e0 92 af
       -6.7273534e-11 -2.2224807e-10 -2.652959e-10 -2.6716443e-10
000320 13 24 31 2f db c3 ea 2e be c8 74 af ab bb 21 2f
       1.6110872e-10 1.0675879e-10 -2.2262989e-10 1.4709538e-10
000330 0b 7c 3e af 22 3e c6 ae ee 48 a9 2e 41 f3 75 2f
       -1.7324468e-10 -9.0150346e-11 7.698185e-11 2.2369041e-10
000340 4a dd 44 af e8 e9 1d 2f 93 e3 9c 2f ea cb 8f 2f
       -1.7904714e-10 1.4362167e-10 2.8537936e-10 2.6156438e-10
000350 ee 0d 94 2f 12 b0 74 2f 21 d2 06 2f c1 92 88 2f
       2.693094e-10 2.2254223e-10 1.2261882e-10 2.484253e-10
000360 c4 40 8f af 93 85 9d 2f 0f 98 0c af 1b 9a 8b af
       -2.6057567e-10 2.8653044e-10 -1.2786948e-10 -2.539345e-10
000370 86 6f a2 af 30 4f 8a 2f f0 15 37 ae 4a dd 4d 2f
       -2.954687e-10 2.515832e-10 -4.1628867e-11 1.8723259e-10
000380 65 0b 82 2d e4 67 60 ae 3b 4b d7 2f b5 25 df 2f
       1.4784349e-11 -5.1023977e-11 3.9161727e-10 4.0590256e-10
000390 42 11 ed ae d2 7e d8 af 13 0e 06 b0 cd bd 06 b0
       -1.0780578e-10 -3.9380282e-10 -4.8768917e-10 -4.901864e-10
0003a0 f0 39 9b 2f 24 37 56 2f 20 8d dd af 21 b3 8d 2f
       2.8235503e-10 1.9482777e-10 -4.029994e-10 2.577503e-10
0003b0 dc 33 a6 af 34 28 21 af 62 b1 0e 2f a1 16 de 2f
       -3.0232072e-10 -1.4657148e-10 1.2977844e-10 4.0397644e-10
0003c0 fb 8d ae af 70 a2 8b 2f 02 71 11 30 8e 05 03 30
       -3.17513e-10 2.5399371e-10 5.2911286e-10 4.7665416e-10
0003d0 75 c5 07 30 b9 2e dd 2f 0b ec 60 2f 76 1b f8 2f
       4.9393317e-10 4.0232864e-10 2.045654e-10 4.513045e-10
0003e0 1d cf 02 b0 40 3f 12 30 da 5a 77 af 5d 3e ff af
       -4.758805e-10 5.3204374e-10 -2.2496796e-10 -4.6428542e-10
0003f0 62 81 16 b0 94 54 fc 2f 89 4e 9c ae 0f fc b7 2f
       -5.4753546e-10 4.589863e-10 -7.108009e-11 3.3466604e-10

exp_avg_sq f4 [96, 32]
000000 d5 c8 f7 30 b1 ec d7 2f 78 ec a8 31 6c cf a9 31
       1.8028695e-09 3.9276452e-10 4.916327e-09 4.9421285e-09
000010 f6 a9 72 31 51 a3 a8 31 62 1c aa 31 95 e5 a9 31
       3.5312246e-09 4.9080104e-09 4.950878e-09 4.944648e-09
000020 6c 88 a8 31 49 16 80 30 67 b3 a9 31 51 bb a8 31
       4.904953e-09 9.31956e-10 4.938943e-09 4.910739e-09
000030 23 ad a8 31 06 f1 a6 31 80 61 a1 31 66 e6 a8 31
       4.909127e-09 4.858637e-09 4.696801e-09 4.915637e-09
000040 dc 62 a8 31 58 c5 8b 31 45 a0 a9 31 63 e1 a9 31
       4.9006825e-09 4.067868e-09 4.936768e-09 4.944171e-09
000050 19 fb a9 31 65 81 a8 31 e7 56 a8 31 01 fa a8 31
       4.947094e-09 4.904154e-09 4.899323e-09 4.9178657e-09
000060 8a fe a9 31 f7 19 aa 31 37 fd a6 31 cb e2 a9 31
       4.947485e-09 4.950603e-09 4.860023e-09 4.9443307e-09
000070 b0 27 aa 31 52 d8 a9 31 97 16 99 31 0c 98 a7 31
       4.952163e-09 4.94314e-09 4.4554542e-09 4.8776254e-09
000080 f6 f9 1e 2d c6 a5 37 2c f9 96 2c 2e 69 0d 2f 2e
       9.036763e-12 2.6097887e-12 3.9242363e-11 3.9802304e-11
000090 94 6f cd 2d 98 46 2c 2e 23 c7 43 2e 29 5c 45 2e
       2.3355352e-11 3.9170972e-11 4.4514736e-11 4.487447e-11
0000a0 d1 91 17 2e bb 10 04 2d 68 9f 2b 2e 6d 37 14 2e
       3.4462936e-11 7.507046e-12 3.902248e-11 3.3700532e-11
0000b0 d9 9a 1a 2e 3f 29 09 2e 5e 67 02 2e e0 3c 2d 2e
       3.515308e-11 3.1186827e-11 2.9650386e-11 3.9389714e-11
0000c0 8c c6 1c 2e 9e 3e 00 2e 34 fe 50 2e 3b 4f 42 2e
       3.564664e-11 2.9159446e-11 4.7519502e-11 4.4180864e-11
0000d0 bd e2 45 2e 7a 76 2d 2e 3c be 0d 2e 73 f4 37 2e
       4.4993998e-11 3.9440874e-11 3.222865e-11 4.1826497e-11
0000e0 33 77 41 2e b6 e4 50 2e 9e 13 0f 2e ee b4 3c 2e
       4.398899e-11 4.749686e-11 3.253186e-11 4.290695e-11
0000f0 44 00 59 2e 68 ba 3b 2e 40 9b ed 2d 3c bd 1e 2e
       4.9340323e-11 4.268444e-11 2.7012725e-11 3.6093115e-11
000100 96 8b 68 29 f8 26 46 2b d2 ca 4b 2e 7b 9e 4b 2e
       5.163542e-14 7.039781e-13 4.6336997e-11 4.6297615e-11
000110 5f ff 6a 2c 3a 96 51 2e 38 d8 8b 2e 93 98 90 2e
       3.339516e-12 4.7654526e-11 6.359396e-11 6.5754645e-11
000120 b9 85 b9 2d 42 e6 08 2d ed a1 33 2e 95 b8 8e 2d
       2.109145e-11 7.7818325e-12 4.0843707e-11 1.6225502e-11
000130 13 ac e0 2d 1f a2 bf 2c 74 fe 89 2c d2 fc 42 2e
       2.5542268e-11 5.4465456e-12 3.922024e-12 4.4335043e-11
000140 21 dc eb 2d fc f2 93 2d dc db a6 2e e5 62 8f 2e
       2.6814164e-11 1.6819872e-11 7.587861e-11 6.520454e-11
000150 63 3c 94 2e 69 5c 41 2e cb 57 42 2d 3f 7a 75 2e
       6.7409876e-11 4.3965196e-11 1.1047117e-11 5.5815127e-11
000160 85 18 8c 2e bd 04 a3 2e 64 cc 4c 2d c9 a1 7c 2e
       6.3708185e-11 7.4132235e-11 1.1641441e-11 5.744186e-11
000170 f1 7f b7 2e 6d a7 7d 2e a7 90 0f 2b 9a 90 02 2e
       8.3446035e-11 5.7674244e-11 5.100455e-13 2.968701e-11
000180 e3 67 94 2a 6a 4b 8b 2c 85 f4 80 2f 54 36 80 2f
       2.6362167e-13 3.9589903e-12 2.3456806e-10 2.3321667e-10
000190 45 1b ab 2d 2d 84 84 2f f7 4f ac 2f b5 66 b2 2f
       1.945256e-11 2.4104577e-10 3.1343436e-10 3.245099e-10
0001a0 82 ca f0 2e b8 a5 2d 2e 9c 4b 62 2f b2 cc ba 2e
       1.0949909e-10 3.9482834e-11 2.0581442e-10 8.494662e-11
0001b0 34 92 11 2f e3 2f 07 2e 77 a6 bb 2d f5 e7 74 2f
       1.3239615e-10 3.0737978e-11 2.1333364e-11 2.2274078e-10
0001c0 67 d8 16 2f 1b a4 be 2e 8b 09 cc 2f 62 01 b1 2f
       1.3719302e-10 8.669351e-11 3.7114165e-10 3.2197095e-10
0001d0 f1 aa b6 2f 9d 86 72 2f 99 f0 86 2e f6 c5 98 2f
       3.3227068e-10 2.2057596e-10 6.136353e-11 2.77893e-10
0001e0 4a 63 ad 2f ac 0b c7 2f 57 3b 85 2e 51 93 9c 2f
       3.1539066e-10 3.6206182e-10 6.0586806e-11 2.848091e-10
0001f0 7c 40 df 2f 65 44 9d 2f c8 c1 58 2c 13 29 26 2f
       4.0609283e-10 2.860673e-10 3.0803016e-12 1.5112205e-10
000200 bd cc 75 2e 9b b7 12 2d a5 40 fb 2e 1e 2f fc 2e
       5.5888395e-11 8.339908e-12 1.1425642e-10 1.1468003e-10
000210 0a 02 a1 2e 82 d8 fa 2e c8 b1 fd 2e 38 9c fd 2e
       7.3217946e-11 1.1407143e-10 1.1536688e-10 1.1532858e-10
000220 7f 09 f8 2e 52 a7 c8 2d 8f 60 fb 2e 1b c5 f7 2e
       1.1279421e-10 2.2811673e-11 1.1431311e-10 1.12672725e-10
000230 33 d2 f8 2e e0 a8 f4 2e 3d ac ee 2e 96 c7 fa 2e
       1.1315073e-10 1.11258336e-10 1.08535826e-10 1.14041374e-10
000240 18 69 f8 2e 61 c6 c2 2e 77 ce fd 2e 8c 97 fd 2e
       1.1296403e-10 8.857338e-11 1.15417835e-10 1.1532028e-10
000250 51 c0 fd 2e e8 04 fa 2e 9b 33 f7 2e 98 8d fb 2e
       1.153927e-10 1.1369555e-10 1.12414265e-10 1.14393106e-10
000260 3a a7 fd 2e 8e 3b fe 2e 8b 12 f5 2e aa fc fc 2e
       1.15348134e-10 1.1561162e-10 1.1144604e-10 1.15045154e-10
000270 9d e4 fe 2e 93 0a fd 2e 1b f6 e6 2e cb b6 f7 2e
       1.15911926e-10 1.1506986e-10 1.0502906e-10 1.126473e-10
000280 f0 0b 59 29 ab fd 3d 2a 50 89 9f 2d 9c 32 a6 2d
       4.8194033e-14 1.6874581e-13 1.8137186e-11 1.889449e-11
000290 33 3d 76 2b d4 a5 a1 2d 2f f0 fa 2d 4c 3b 02 2e
       8.748169e-13 1.8377223e-11 2.8528372e-11 2.9611244e-11
0002a0 55 b8 0a 2d 52 4a 72 2c 1c 2c 98 2d 2c d6 dd 2c
       7.885322e-12 3.4431524e-12 1.7299988e-11 6.3049756e-12
0002b0 50 98 26 2d 14 02 e9 2b d3 f7 b2 2b ab 7d a2 2d
       9.469828e-12 1.6556223e-12 1.2716446e-12 1.8473075e-11
0002c0 80 b1 3d 2d 93 4d eb 2c b0 04 1b 2e fa ad f7 2d
       1.0782819e-11 6.687714e-12 3.5247083e-11 2.815791e-11
0002d0 f7 d1 03 2e 26 14 a5 2d 19 fb 60 2c 77 92 d0 2d
       2.9972438e-11 1.8767276e-11 3.1971702e-12 2.3711906e-11
0002e0 a4 1b f3 2d 24 bb 19 2e 57 9a a2 2c 1a 36 e0 2d
       2.7638176e-11 3.4954387e-11 4.621452e-12 2.5489878e-11
0002f0 a5 67 2b 2e 8a c6 dc 2d e7 c1 2a 2a a9 52 52 2d
       3.8972953e-11 2.5099273e-11 1.5166307e-13 1.1955472e-11
000300 58 5c 32 2a f2 09 f6 2b fb 95 01 2f 91 24 02 2f
       1.5841614e-13 1.7482112e-12 1.1785765e-10 1.1836422e-10
000310 f6 e1 13 2d 27 1e 05 2f 71 fb 34 2f ea 65 3b 2f
       8.406156e-12 1.2106992e-10 1.6460235e-10 1.7043758e-10
000320 e7 7a 6c 2e 95 52 b1 2d 0a c8 e7 2e 2c e7 37 2e
       5.3769347e-11 2.0159244e-11 1.0540198e-10 4.1814704e-11
000330 bd fd 8e 2e c3 79 75 2d 21 66 2d 2d f9 4a fa 2e
       6.5024854e-11 1.3953674e-11 9.856589e-12 1.13820016e-10
000340 9d da 97 2e 3f 30 3d 2e f6 b8 58 2f 4d 24 38 2f
       6.9055185e-11 4.3016476e-11 1.9710797e-10 1.6747599e-10
000350 2c 40 3f 2f 3e 95 f9 2e 4b ad f4 2d d6 8d 1d 2f
       1.7394147e-10 1.134972e-10 2.7816546e-11 1.4329457e-10
000360 ea 28 34 2f 10 6f 54 2f 7d f4 03 2e 06 95 23 2f
       1.638544e-10 1.9320745e-10 3.00031e-11 1.4877707e-10
000370 da 0a 6e 2f 86 7f 23 2f ae 32 b4 2b b4 09 a7 2e
       2.1649829e-10 1.4870069e-10 1.2803836e-12 7.5960044e-11
000380 4f 2e 68 2b fa 7b ae 2c 89 d9 e4 2f 1a 62 e8 2f
       8.2487223e-13 4.9591416e-12 4.1627526e-10 4.227026e-10
000390 24 6b d8 2d 53 46 e9 2f f2 9a 28 30 50 6b 2e 30
       2.4603937e-11 4.2432421e-10 6.1338234e-10 6.345333e-10
0003a0 1c 06 4b 2f 07 b4 a2 2e 13 3a d1 2f 6c 2f 1e 2f
       1.8464913e-10 7.3988864e-11 3.8058143e-10 1.4386864e-10
0003b0 c5 1b 74 2f ab be 39 2e 05 4d 0b 2e 03 d7 e1 2f
       2.2201536e-10 4.2233477e-11 3.1673348e-11 4.1080037e-10
0003c0 1e a5 85 2f 96 be 25 2f 82 12 4d 30 9c 36 29 30
       2.4309882e-10 1.5074372e-10 7.4604867e-10 6.1559446e-10
0003d0 fb 90 31 30 68 d0 e2 2f 28 35 bb 2e c5 3e 0f 30
       6.4598255e-10 4.1257242e-10 8.513218e-11 5.21123e-10
0003e0 9f 1e 26 30 c7 dc 49 30 76 3c e5 2e d2 15 17 30
       6.0433963e-10 7.343712e-10 1.04244544e-10 5.496449e-10
0003f0 3b f6 61 30 6d 6e 16 30 a4 91 85 2c 96 24 94 2f
       8.220444e-10 5.4726607e-10 3.7962567e-12 2.694704e-10

exp_avg f4 [96]
000000 b6 80 1d b5 15 ce 4a b3 6b 89 ab b4 32 5f b4 b4
       -5.8674357e-07 -4.721922e-08 -3.1951217e-07 -3.3596876e-07
000010 d1 11 85 b1 5f 38 75 b4 a2 29 d6 b4 1d b8 e6 b4
       -3.872835e-09 -2.2837911e-07 -3.9890898e-07 -4.2974798e-07
000020 d0 00 8f b4 c7 6c ab b4 fb 7d ca b4 23 2e a8 b4
       -2.6636417e-07 -3.1930378e-07 -3.7717095e-07 -3.1326007e-07
000030 ef 7e d7 b4 30 4a 11 b5 07 91 9a b4 56 c1 ab b4
       -4.0139227e-07 -5.4124666e-07 -2.8790257e-07 -3.1991902e-07
000040 81 d1 2a b4 28 27 3b b3 e7 af b4 b4 e0 28 13 b4
       -1.5908701e-07 -4.3574943e-08 -3.3655598e-07 -1.3705312e-07
000050 b6 85 8b b4 51 46 45 b3 96 14 0c b5 25 3c 6b b4
       -2.5988055e-07 -4.593159e-08 -5.218402e-07 -2.1907961e-07
000060 03 0f 9d b4 94 ed d3 b4 8c 62 d2 b4 c6 f1 a4 b4
       -2.925445e-07 -3.9474673e-07 -3.918725e-07 -3.0723294e-07
000070 42 74 ff b4 11 89 d7 b3 9c 4e 0d b5 af 03 a4 b4
       -4.758204e-07 -1.003665e-07 -5.2640985e-07 -3.055006e-07
000080 55 fe 81 35 91 c7 46 34 1f 08 3a 35 d4 99 96 35
       9.685269e-07 1.8512789e-07 6.930222e-07 1.1220641e-06
000090 a1 81 a0 34 8f ff d1 34 1c 4e 8c 35 19 ba 89 35
       2.989664e-07 3.9115227e-07 1.0453546e-06 1.0261457e-06
0000a0 60 08 8d 35 68 e5 3e 35 ce cb 7e 35 27 5e 99 35
       1.0507756e-06 7.1114346e-07 9.491895e-07 1.142679e-06
0000b0 21 55 88 35 2f ca 6f 35 b8 35 95 35 ff 9d 7f 35
       1.0157565e-06 8.9328654e-07 1.1116999e-06 9.522482e-07
0000c0 42 ae 82 35 1f de 09 35 5f e2 48 35 19 30 25 35
       9.73647e-07 5.1359706e-07 7.483522e-07 6.153728e-07
0000d0 cc 75 7f 35 ff 80 36 35 40 22 34 35 08 24 4f 35
       9.516632e-07 6.7988e-07 6.7105066e-07 7.716594e-07
0000e0 9f a2 6e 35 10 d8 a1 35 d0 81 a3 35 a5 b4 8a 35
       8.8898554e-07 1.2058317e-06 1.2182227e-06 1.0334376e-06
0000f0 9b 80 ab 35 86 94 26 35 a7 e3 93 35 c7 4e 67 35
       1.2777922e-06 6.205595e-07 1.1018609e-06 8.616884e-07
000100 07 e2 03 37 b2 1a 9a b6 0b 4d a5 36 5d 8a f2 36
       7.860835e-06 -4.5926654e-06 4.926352e-06 7.2282696e-06
000110 e6 71 b6 b6 76 bf 4e b6 df f0 a4 b6 df 8d cc b6
       -5.437282e-06 -3.0807837e-06 -4.915622e-06 -6.0961897e-06
000120 b0 4b e2 36 46 f8 a5 36 70 0d b0 b6 1f a0 ee 36
       6.744136e-06 4.946286e-06 -5.246773e-06 7.1115933e-06
000130 f9 e9 d3 b6 06 2a e3 b6 fc d8 c3 36 45 91 91 36
       -6.315528e-06 -6.7700194e-06 5.836713e-06 4.3382483e-06
000140 b7 63 cb b6 e4 b6 a1 36 0e 6d 75 36 16 9e 87 36
       -6.06148e-06 4.819465e-06 3.6571323e-06 4.041717e-06
000150 44 f2 bc 36 61 52 85 36 70 d9 ce 36 f0 93 82 36
       5.63104e-06 3.973299e-06 6.1645915e-06 3.891524e-06
000160 c2 14 b2 b6 c8 fa b0 36 6a e0 d7 b6 e5 9f e0 b6
       -5.30723e-06 5.2744035e-06 -6.4336245e-06 -6.6943344e-06
000170 7f a4 d4 b6 d7 30 71 36 b0 cd a2 b6 5f ec 8e 36
       -6.337242e-06 3.5940227e-06 -4.8519214e-06 4.259447e-06

exp_avg_sq f4 [96]
000000 95 88 ac 31 02 8f 96 2e ad 91 0e 2f f9 2a 27 30
       5.0213864e-09 6.8466136e-11 1.2966579e-10 6.0815314e-10
000010 e0 c3 02 2f 18 5b aa 2e e2 63 c3 2f c3 1b cb 30
       1.189302e-10 7.7468865e-11 3.5541264e-10 1.4778084e-09
000020 7b a8 61 30 c0 2d 02 2f 3f 55 1d 2f 8b c3 8b 2f
       8.209395e-10 1.1839685e-10 1.4309352e-10 2.5422894e-10
000030 60 3f c8 2f 68 e3 da 2f 07 6e 75 2e cd 23 b3 2f
       3.642482e-10 3.981555e-10 5.5804274e-11 3.2585348e-10
000040 fb 29 d7 2f 8e fe 02 2f 33 9e 95 2f 0c aa 62 2f
       3.91381e-10 1.1913867e-10 2.721535e-10 2.0614993e-10
000050 62 d1 a8 2f f5 38 a1 2f 01 6c ba 2e c7 77 49 2e
       3.0707797e-10 2.93262e-10 8.477486e-11 4.5808492e-11
000060 e6 56 43 30 e1 e8 38 2f fd 29 78 2f c4 2d e5 2f
       7.1064077e-10 1.6817438e-10 2.2570386e-10 4.1687376e-10
000070 39 b2 6d 2f 4d 2f 98 2f 5d ce 0f 2f d8 dd a6 2f
       2.1618342e-10 2.7682248e-10 1.3079089e-10 3.0352854e-10
000080 50 3b 50 2c 6f 7b 2a 2b a6 79 59 2c 09 8d 47 2d
       2.9591503e-12 6.056743e-13 3.0905083e-12 1.13431564e-11
000090 6a 80 01 2b 95 99 b4 2b 72 d6 3c 2d ab af 77 2d
       4.6008217e-13 1.2832397e-12 1.0734179e-11 1.4079331e-11
0000a0 33 ab 45 2d 20 9d 58 2c 0c 56 37 2d 5c 7c 1a 2d
       1.1236167e-11 3.0782668e-12 1.0421452e-11 8.7815e-12
0000b0 07 95 05 2d 76 31 7a 2c 20 02 d4 2c 25 32 41 2d
       7.593265e-12 3.5554593e-12 6.0256383e-12 1.0981914e-11
0000c0 a6 fe 02 2d aa cd 18 2c d7 1f cb 2c ba b5 8f 2c
       7.446188e-12 2.1714666e-12 5.773142e-12 4.08448e-12
0000d0 0a b8 4e 2d e7 f3 b2 2c 2a 66 40 2c 69 3e b6 2c
       1.1750609e-11 5.086143e-12 2.7341554e-12 5.17968e-12
0000e0 d3 27 19 2d 1e bb 98 2d ef 8e 60 2d 90 76 4f 2d
       8.705886e-12 1.7363496e-11 1.27646635e-11 1.1792914e-11
0000f0 6e cb aa 2d 4e 1a ad 2c b6 47 e5 2c 20 81 f9 2c
       1.9417103e-11 4.919876e-12 6.516533e-12 7.0913414e-12
000100 63 1c 93 33 b0 2b 08 33 67 a7 87 31 33 0a 94 32
       6.8503844e-08 3.17047e-08 3.9480486e-09 1.7234106e-08
000110 22 55 9b 31 c4 6e 8f 31 9d ca 21 32 e8 da b1 32
       4.520772e-09 4.1744403e-09 9.417502e-09 2.0705059e-08
000120 6e 69 46 33 0a f3 94 32 82 f4 8c 32 cb db 83 32
       4.6196355e-08 1.7339989e-08 1.6409334e-08 1.5350357e-08
000130 55 1e d7 31 37 14 a8 31 ab 24 32 32 17 17 d4 32
       6.260772e-09 4.8917417e-09 1.0369301e-08 2.4690548e-08
000140 c4 88 b7 32 19 e0 3c 32 7e 5c d0 31 e7 9b f3 31
       2.1366198e-08 1.0993994e-08 6.064112e-09 7.089955e-09
000150 dd 1f 4b 32 ac 0d 61 32 3f fa 84 31 ff a9 c0 31
       1.18234e-08 1.3099832e-08 3.8701553e-09 5.6072618e-09
000160 5c 26 ab 32 e3 a3 19 32 97 d1 ef 32 de e9 aa 32
       1.9924464e-08 8.943036e-09 2.7918572e-08 1.9896955e-08
000170 af c6 50 32 6d 21 4a 32 cb 35 3b 31 7f cb a1 32
       1.2152369e-08 1.1765548e-08 2.724266e-09 1.8835406e-08

exp_avg f4 [96]
000000 b6 80 1d b5 15 ce 4a b3 6b 89 ab b4 32 5f b4 b4
       -5.8674357e-07 -4.721922e-08 -3.1951217e-07 -3.3596876e-07
000010 d1 11 85 b1 5f 38 75 b4 a2 29 d6 b4 1d b8 e6 b4
       -3.872835e-09 -2.2837911e-07 -3.9890898e-07 -4.2974798e-07
000020 d0 00 8f b4 c7 6c ab b4 fb 7d ca b4 23 2e a8 b4
       -2.6636417e-07 -3.1930378e-07 -3.7717095e-07 -3.1326007e-07
000030 ef 7e d7 b4 30 4a 11 b5 07 91 9a b4 56 c1 ab b4
       -4.0139227e-07 -5.4124666e-07 -2.8790257e-07 -3.1991902e-07
000040 81 d1 2a b4 28 27 3b b3 e7 af b4 b4 e0 28 13 b4
       -1.5908701e-07 -4.3574943e-08 -3.3655598e-07 -1.3705312e-07
000050 b6 85 8b b4 51 46 45 b3 96 14 0c b5 25 3c 6b b4
       -2.5988055e-07 -4.593159e-08 -5.218402e-07 -2.1907961e-07
000060 03 0f 9d b4 94 ed d3 b4 8c 62 d2 b4 c6 f1 a4 b4
       -2.925445e-07 -3.9474673e-07 -3.918725e-07 -3.0723294e-07
000070 42 74 ff b4 11 89 d7 b3 9c 4e 0d b5 af 03 a4 b4
       -4.758204e-07 -1.003665e-07 -5.2640985e-07 -3.055006e-07
000080 55 fe 81 35 91 c7 46 34 1f 08 3a 35 d4 99 96 35
       9.685269e-07 1.8512789e-07 6.930222e-07 1.1220641e-06
000090 a1 81 a0 34 8f ff d1 34 1c 4e 8c 35 19 ba 89 35
       2.989664e-07 3.9115227e-07 1.0453546e-06 1.0261457e-06
0000a0 60 08 8d 35 68 e5 3e 35 ce cb 7e 35 27 5e 99 35
       1.0507756e-06 7.1114346e-07 9.491895e-07 1.142679e-06
0000b0 21 55 88 35 2f ca 6f 35 b8 35 95 35 ff 9d 7f 35
       1.0157565e-06 8.9328654e-07 1.1116999e-06 9.522482e-07
0000c0 42 ae 82 35 1f de 09 35 5f e2 48 35 19 30 25 35
       9.73647e-07 5.1359706e-07 7.483522e-07 6.153728e-07
0000d0 cc 75 7f 35 ff 80 36 35 40 22 34 35 08 24 4f 35
       9.516632e-07 6.7988e-07 6.7105066e-07 7.716594e-07
0000e0 9f a2 6e 35 10 d8 a1 35 d0 81 a3 35 a5 b4 8a 35
       8.8898554e-07 1.2058317e-06 1.2182227e-06 1.0334376e-06
0000f0 9b 80 ab 35 86 94 26 35 a7 e3 93 35 c7 4e 67 35
       1.2777922e-06 6.205595e-07 1.1018609e-06 8.616884e-07
000100 20 86 9f 36 d8 e7 b1 b5 2e 17 57 36 0e f2 96 36
       4.7541835e-06 -1.3255003e-06 3.205099e-06 4.4985272e-06
000110 ec 51 ec b5 6b 03 09 b6 5c 2b 54 b6 53 b8 64 b6
       -1.7607213e-06 -2.041658e-06 -3.16157e-06 -3.4081938e-06
000120 b0 e0 82 36 c6 bb 3f 36 5a f8 61 b6 da 6d 89 36
       3.900459e-06 2.8570516e-06 -3.3672172e-06 4.0957066e-06
000130 cf 90 86 b6 81 4d 84 b6 f8 ad 88 36 7e da 3d 36
       -4.010369e-06 -3.942929e-06 4.0733685e-06 2.8290374e-06
000140 d1 21 70 b6 3b 58 f4 35 47 e3 0c 36 5b 92 25 36
       -3.578247e-06 1.8205095e-06 2.0993918e-06 2.4672106e-06
000150 ca 12 70 36 5c ed 1c 36 1b 17 76 36 e9 81 2d 36
       3.5773724e-06 2.3383973e-06 3.6670306e-06 2.5854627e-06
000160 3d 77 48 b6 99 aa 6e 36 d7 98 88 b6 0c 3d 99 b6
       -2.9871728e-06 3.5564065e-06 -4.0709087e-06 -4.566862e-06
000170 89 42 92 b6 6e 3e 07 36 9a f3 4b b6 53 26 26 36
       -4.358885e-06 2.0152906e-06 -3.0391152e-06 2.4758235e-06

exp_avg_sq f4 [96]
000000 95 88 ac 31 02 8f 96 2e ad 91 0e 2f f9 2a 27 30
       5.0213864e-09 6.8466136e-11 1.2966579e-10 6.0815314e-10
000010 e0 c3 02 2f 18 5b aa 2e e2 63 c3 2f c3 1b cb 30
       1.189302e-10 7.7468865e-11 3.5541264e-10 1.4778084e-09
000020 7b a8 61 30 c0 2d 02 2f 3f 55 1d 2f 8b c3 8b 2f
       8.209395e-10 1.1839685e-10 1.4309352e-10 2.5422894e-10
000030 60 3f c8 2f 68 e3 da 2f 07 6e 75 2e cd 23 b3 2f
       3.642482e-10 3.981555e-10 5.5804274e-11 3.2585348e-10
000040 fb 29 d7 2f 8e fe 02 2f 33 9e 95 2f 0c aa 62 2f
       3.91381e-10 1.1913867e-10 2.721535e-10 2.0614993e-10
000050 62 d1 a8 2f f5 38 a1 2f 01 6c ba 2e c7 77 49 2e
       3.0707797e-10 2.93262e-10 8.477486e-11 4.5808492e-11
000060 e6 56 43 30 e1 e8 38 2f fd 29 78 2f c4 2d e5 2f
       7.1064077e-10 1.6817438e-10 2.2570386e-10 4.1687376e-10
000070 39 b2 6d 2f 4d 2f 98 2f 5d ce 0f 2f d8 dd a6 2f
       2.1618342e-10 2.7682248e-10 1.3079089e-10 3.0352854e-10
000080 50 3b 50 2c 6f 7b 2a 2b a6 79 59 2c 09 8d 47 2d
       2.9591503e-12 6.056743e-13 3.0905083e-12 1.13431564e-11
000090 6a 80 01 2b 95 99 b4 2b 72 d6 3c 2d ab af 77 2d
       4.6008217e-13 1.2832397e-12 1.0734179e-11 1.4079331e-11
0000a0 33 ab 45 2d 20 9d 58 2c 0c 56 37 2d 5c 7c 1a 2d
       1.1236167e-11 3.0782668e-12 1.0421452e-11 8.7815e-12
0000b0 07 95 05 2d 76 31 7a 2c 20 02 d4 2c 25 32 41 2d
       7.593265e-12 3.5554593e-12 6.0256383e-12 1.0981914e-11
0000c0 a6 fe 02 2d aa cd 18 2c d7 1f cb 2c ba b5 8f 2c
       7.446188e-12 2.1714666e-12 5.773142e-12 4.08448e-12
0000d0 0a b8 4e 2d e7 f3 b2 2c 2a 66 40 2c 69 3e b6 2c
       1.1750609e-11 5.086143e-12 2.7341554e-12 5.17968e-12
0000e0 d3 27 19 2d 1e bb 98 2d ef 8e 60 2d 90 76 4f 2d
       8.705886e-12 1.7363496e-11 1.27646635e-11 1.1792914e-11
0000f0 6e cb aa 2d 4e 1a ad 2c b6 47 e5 2c 20 81 f9 2c
       1.9417103e-11 4.919876e-12 6.516533e-12 7.0913414e-12
000100 a0 ac 71 31 6a 0e da 30 c3 2b f8 30 19 33 8a 31
       3.5168242e-09 1.5865684e-09 1.8056813e-09 4.0221377e-09
000110 57 5c 9a 30 ee 8b 0c 31 91 a0 6a 31 b2 b4 81 31
       1.1231219e-09 2.0452222e-09 3.4142753e-09 3.774937e-09
000120 3c 4f 28 32 b6 ef df 30 59 26 fb 31 d8 d9 13 31
       9.796903e-09 1.6293515e-09 7.309421e-09 2.1515145e-09
000130 c3 ef 03 31 ab 6f 7f 30 43 9c 06 31 ef a1 3c 32
       1.9199298e-09 9.292715e-10 1.958839e-09 1.097986e-08
000140 9e 2d 88 31 55 35 14 31 86 62 f7 30 b2 26 32 31
       3.963307e-09 2.156715e-09 1.7999617e-09 2.5924405e-09
000150 c1 4d 94 31 e6 94 6c 31 72 71 a0 30 32 16 2d 31
       4.3162065e-09 3.442716e-09 1.1673775e-09 2.518743e-09
000160 3b 06 b6 31 64 85 8f 31 5f e3 97 31 cb b8 05 32
       5.2976055e-09 4.1770125e-09 4.4205275e-09 7.783636e-09
000170 b6 d4 d9 31 b6 c0 62 31 69 7a d6 2f 30 35 c8 31
       6.3397136e-09 3.2996872e-09 3.901335e-10 5.826813e-09

exp_avg f4 [81, 32]
000000 dc 80 14 b4 8b df e5 32 b6 f6 07 b4 3f ff 15 b4
       -1.3830453e-07 2.6760764e-08 -1.2662608e-07 -1.3969564e-07
000010 b7 23 a8 33 80 6d ef 33 36 76 2a 34 35 23 16 34
       7.829606e-08 1.1149223e-07 1.5875489e-07 1.3982647e-07
000020 bb 13 07 b4 06 e4 1b b4 54 c0 2d 34 7e b6 17 b4
       -1.2580033e-07 -1.4518454e-07 1.6181849e-07 -1.4129361e-07
000030 cd 22 20 34 89 59 16 34 5f 57 0f b4 44 49 0f b4
       1.4913822e-07 1.4002411e-07 -1.3349698e-07 -1.3344567e-07
000040 2a 22 07 34 35 af da b3 24 06 1e b4 a4 73 0e b4
       1.2585284e-07 -1.0183286e-07 -1.471713e-07 -1.326685e-07
000050 e3 87 1f b4 91 0a 08 b4 da dc 26 b4 04 80 24 b4
       -1.4857464e-07 -1.2669831e-07 -1.55403e-07 -1.5320262e-07
000060 eb 48 12 34 b9 61 3c b4 b7 3d 18 34 aa fe 25 34
       1.3623837e-07 -1.7544416e-07 1.4178555e-07 1.5459469e-07
000070 45 4e 27 34 c0 df 11 b4 f7 f6 33 34 86 52 07 b4
       1.5581561e-07 -1.3585577e-07 1.676052e-07 -1.2602877e-07
000080 f7 1e 84 37 4d 85 37 b6 cd 3b 77 37 88 56 84 37
       1.5750045e-05 -2.7346716e-06 1.4736271e-05 1.577592e-05
000090 b3 08 02 b7 ee 8f 63 b7 1b 6d 91 b7 9b cf 84 b7
       -7.750629e-06 -1.3563766e-05 -1.7336153e-05 -1.58323e-05
0000a0 40 ed 77 37 99 fc 87 37 ec 90 93 b7 5e d2 85 37
       1.4777586e-05 1.6210879e-05 -1.759125e-05 1.5952795e-05
0000b0 ea 68 8b b7 10 53 85 b7 cc 88 80 37 f2 e8 80 37
       -1.6618946e-05 -1.5893515e-05 1.532249e-05 1.5367263e-05
0000c0 7f 14 78 b7 01 a8 2d 37 c7 4d 89 37 4b 46 80 37
       -1.4786724e-05 1.035072e-05 1.636789e-05 1.5291522e-05
0000d0 de 97 8a 37 82 3f 78 37 84 ae 8f 37 70 5d 8d 37
       1.65216e-05 1.47967385e-05 1.7128194e-05 1.685202e-05
0000e0 8a cc 81 b7 21 65 9c 37 b8 29 86 b7 8f 07 8f b7
       -1.5473244e-05 1.8643741e-05 -1.5993472e-05 -1.7050448e-05
0000f0 3e 73 8f b7 72 75 82 37 a2 b7 97 b7 7d 81 77 37
       -1.7100592e-05 1.5551897e-05 -1.8086113e-05 1.4752496e-05
000100 50 f0 91 b3 3f fa 62 32 2a 2b 84 b3 e6 44 92 b3
       -6.795801e-08 1.3211831e-08 -6.1545805e-08 -6.811187e-08
000110 f7 3b 24 33 6c 57 68 33 b2 28 a7 33 95 a5 92 33
       3.8238763e-08 5.409622e-08 7.783946e-08 6.828774e-08
000120 df c3 83 b3 97 0a 98 b3 1b 83 aa 33 40 6f 94 b3
       -6.1357916e-08 -7.079978e-08 7.94009e-08 -6.912023e-08
000130 dc 4a 9d 33 9f 40 93 33 ed f8 8b b3 b7 4c 8c b3
       7.324499e-08 6.8569754e-08 -6.517971e-08 -6.5332124e-08
000140 c5 84 83 33 a8 93 57 b3 2b 9c 9a b3 52 4f 8b b3
       6.1243135e-08 -5.019288e-08 -7.1995906e-08 -6.48712e-08
000150 84 2c 9c b3 6e ea 84 b3 b2 aa a3 b3 2d a7 a0 b3
       -7.2724134e-08 -6.1893715e-08 -7.621328e-08 -7.48099e-08
000160 2a 4e 8e 33 31 22 b9 b3 12 c7 94 33 cb e7 a2 33
       6.626608e-08 -8.620953e-08 6.927998e-08 7.585876e-08
000170 b0 0c a4 33 49 e2 8e b3 21 82 b0 33 1b fe 83 b3
       7.639153e-08 -6.653551e-08 8.219309e-08 -6.1463844e-08
000180 4d 98 45 b3 84 c3 19 32 b9 c8 32 b3 4a 01 46 b3
       -4.6006154e-08 8.950227e-09 -4.162641e-08 -4.610164e-08
000190 98 2c df 32 dd 72 1c 33 8d 18 62 33 d9 d2 45 33
       2.5980896e-08 3.6426048e-08 5.2642054e-08 4.60594e-08
0001a0 74 a9 31 b3 80 34 4d b3 b3 79 66 33 27 24 49 b3
       -4.136514e-08 -4.777803e-08 5.3661733e-08 -4.683184e-08
0001b0 80 ca 54 33 ae 9c 46 33 6a 0f 3d b3 89 41 3d b3
       4.954427e-08 4.6242967e-08 -4.401901e-08 -4.4064596e-08
0001c0 d8 4a 31 33 b9 44 11 b3 ac a1 50 b3 99 b0 3b b3
       4.1279094e-08 -3.3822946e-08 -4.8575814e-08 -4.3699945e-08
0001d0 b8 da 52 b3 b7 80 32 b3 b0 2f 5d b3 2b d9 58 b3
       -4.909336e-08 -4.156092e-08 -5.1498944e-08 -5.0488932e-08
0001e0 c7 e4 40 33 86 ec 7a b3 d4 47 49 33 94 83 5c 33
       4.4911555e-08 -5.8422778e-08 4.6864287e-08 5.134241e-08
0001f0 fc fc 5d 33 16 2c 41 b3 ff fb 6e 33 62 49 31 b3
       5.168566e-08 -4.497641e-08 5.5642882e-08 -4.1277765e-08
000200 b8 37 d1 b3 3b 9d a0 32 c7 f1 bd b3 8d 87 d1 b3
       -9.742456e-08 1.8697952e-08 -8.8449774e-08 -9.7569774e-08
000210 3e 58 69 33 a5 c1 a7 33 4d 06 ee 33 8a fc d1 33
       5.4329796e-08 7.811767e-08 1.1083885e-07 9.7782575e-08
000220 7e 8b bc b3 45 94 d9 b3 ea 20 f3 33 b9 cc d4 b3
       -8.779806e-08 -1.013182e-07 1.1321556e-07 -9.909258e-08
000230 6f 98 e0 33 8a f0 d2 33 9e dd c8 b3 59 50 c9 b3
       1.045854e-07 9.822641e-08 -9.353538e-08 -9.374407e-08
000240 65 ef bc 33 3c 7e 98 b3 4a b7 dc b3 b0 28 c7 b3
       8.797978e-08 -7.1010135e-08 -1.02778884e-07 -9.2740606e-08
000250 d0 57 df b3 91 4a be b3 f5 f1 e9 b3 e3 86 e5 b3
       -1.040022e-07 -8.861128e-08 -1.089392e-07 -1.0688179e-07
000260 f3 39 cc 33 84 de 03 b4 59 31 d5 33 1a cf e8 33
       9.510031e-08 -1.2281276e-07 9.927562e-08 1.08410134e-07
000270 a6 59 ea 33 f9 dd cc b3 f1 0a fc 33 fe 4e bd b3
       1.0912781e-07 -9.539867e-08 1.1736655e-07 -8.815367e-08
000280 9c 34 6d b3 4c e3 39 32 d5 96 56 b3 b4 0c 6e b3
       -5.522871e-08 1.0820099e-08 -4.996294e-08 -5.5425247e-08
000290 ea 79 06 33 30 60 3c 33 d6 b1 87 33 9b 6f 6e 33
       3.1310186e-08 4.3859643e-08 6.3187755e-08 5.5515198e-08
0002a0 68 3a 55 b3 26 53 77 b3 c0 97 8a 33 1e fa 71 b3
       -4.9646047e-08 -5.7584792e-08 6.453729e-08 -5.6339665e-08
0002b0 47 8a 7f 33 63 e7 6f 33 81 d6 63 b3 39 56 63 b3
       5.9497577e-08 5.585697e-08 -5.3047646e-08 -5.2930975e-08
0002c0 16 b4 55 33 6a 55 2f b3 6f 89 7b b3 6c bd 61 b3
       4.9756714e-08 -4.0823046e-08 -5.8565487e-08 -5.2559173e-08
0002d0 ec c7 7d b3 f4 76 57 b3 be 16 85 b3 f6 c0 82 b3
       -5.908798e-08 -5.0166776e-08 -6.197432e-08 -6.088696e-08
0002e0 b8 2f 67 33 41 ce 96 b3 a1 0d 72 33 2a 5d 84 33
       5.382728e-08 -7.022437e-08 5.635741e-08 6.1636754e-08
0002f0 c0 48 85 33 71 c1 67 b3 42 a2 8f 33 b5 fd 55 b3
       6.206528e-08 -5.3959813e-08 6.688471e-08 -4.9823672e-08
000300 81 87 9f b3 4a ea 76 32 cc 90 90 b3 35 52 9f b3
       -7.4286625e-08 1.4372356e-08 -6.731861e-08 -7.418968e-08
000310 4b 5c 32 33 51 83 7e 33 7c dc b5 33 01 b2 9f 33
       4.1527795e-08 5.9258415e-08 8.468575e-08 7.436393e-08
000320 e5 75 8f b3 d8 ad a5 b3 35 60 b9 33 fd 78 a2 b3
       -6.680401e-08 -7.715033e-08 8.632234e-08 -7.5657205e-08
000330 c6 35 ab 33 04 9d a0 33 ed 00 99 b3 28 1d 99 b3
       7.972589e-08 7.4791416e-08 -7.124786e-08 -7.129921e-08
000340 ab ca 8f 33 92 b6 69 b3 57 64 a8 b3 51 bd 97 b3
       6.6958215e-08 -5.4415587e-08 -7.841361e-08 -7.065922e-08
000350 93 14 aa b3 73 db 90 b3 7f 94 b2 b3 8d 96 ae b3
       -7.919984e-08 -6.74544e-08 -8.315782e-08 -8.1298914e-08
000360 3c 6a 9b 33 91 a4 c9 b3 ed 4d a2 33 e1 a0 b1 33
       7.237074e-08 -9.389726e-08 7.5578875e-08 8.2714685e-08
000370 30 d7 b2 33 de 0c 9c b3 3c 4f c0 33 12 e0 8f b3
       8.327913e-08 -7.2666566e-08 8.9551094e-08 -6.6997146e-08
000380 50 97 80 b3 49 34 4a 32 2c 43 68 b3 82 b5 80 b3
       -5.987988e-08 1.1769836e-08 -5.4077802e-08 -5.9934806e-08
000390 9d 15 11 33 d8 ee 4b 33 34 18 93 33 70 11 81 33
       3.37801e-08 4.7481848e-08 6.8496234e-08 6.0102025e-08
0003a0 6e 76 67 b3 71 19 86 b3 7f 0f 96 33 1f f7 82 b3
       -5.389159e-08 -6.244489e-08 6.987738e-08 -6.098548e-08
0003b0 85 8b 8a 33 fb ea 81 33 2e 81 76 b3 60 a0 76 b3
       6.451504e-08 6.049773e-08 -5.7393827e-08 -5.74222e-08
0003c0 ad 88 67 33 6f ae 3e b3 59 17 88 b3 51 a5 74 b3
       5.3908185e-08 -4.439647e-08 -6.3372404e-08 -5.696103e-08
0003d0 d8 6f 89 b3 1f 34 69 b3 3d 57 90 b3 df 48 8d b3
       -6.399904e-08 -5.4296944e-08 -6.721391e-08 -6.579079e-08
0003e0 a8 f6 79 33 6d 33 a3 b3 d5 df 82 33 c5 a2 8f 33
       5.8199163e-08 -7.599633e-08 6.0943115e-08 6.688564e-08
0003f0 1b 4a 90 33 d3 d3 7a b3 de 83 9b 33 1b a2 67 b3
       6.719002e-08 -5.8400314e-08 7.2417365e-08 -5.3931313e-08
