lightning_logs/version_100/checkpoints/epoch=2.ckpt (torch_old, 577539 bytes, 21 tensors)

exp_avg f4 [128, 81]
000000 00 d7 8f ab c8 0f 36 ac 51 a0 b4 ab 4b 95 1c aa
       -1.0220436e-12 -2.5872516e-12 -1.2834266e-12 -1.390738e-13
000010 7f ae 14 2b 3b 7e 17 2b fc 74 1d 2c a5 32 85 2c
       5.2822324e-13 5.3821157e-13 2.2375981e-12 3.78571e-12
000020 17 cc 58 aa 89 6e 82 a8 2f 4e 3f 2c 13 37 04 aa
       -1.9255462e-13 -1.4480836e-14 2.7186133e-12 -1.1743063e-13
000030 a6 cf a3 a7 9d fc b1 ab fd 04 93 a9 19 57 5e ac
       -4.546672e-15 -1.2646721e-12 -6.528977e-14 -3.1596446e-12
000040 8b 24 e5 2b 7a da e5 2b d2 4c aa 2b bc 47 c5 2a
       1.6281571e-12 1.6332068e-12 1.2100548e-12 3.5044005e-13
000050 b4 ee 14 aa 6a cc e1 ab f9 84 20 ac 16 f2 35 2b
       -1.3227857e-13 -1.6043948e-12 -2.2811182e-12 6.464008e-13
000060 cd ac 3d 2c 42 71 00 2a 78 4f 0c aa ae 92 21 2c
       2.695444e-12 1.1407978e-13 -1.2462069e-13 2.29609e-12
000070 9a 93 3b ac 36 ff c8 2c c0 5b 50 2c 60 45 f2 2a
       -2.6656234e-12 5.712676e-12 2.960951e-12 4.3035974e-13
000080 7f 2a 2d aa 8e 27 d9 a9 03 5f 95 ac 5b 47 25 2c
       -1.538023e-13 -9.6435975e-14 -4.245383e-12 2.348752e-12
000090 47 23 2b ab 19 03 27 ab 6e dd 14 2b b7 fc 93 2c
       -6.080036e-13 -5.933462e-13 5.288746e-13 4.2060483e-12
0000a0 7c d0 24 ac 36 91 12 2b db 77 1c 2a 2e 2b 11 ab
       -2.3421534e-12 5.207114e-13 1.3897167e-13 -5.157427e-13
0000b0 49 33 6c 2a cb eb 03 2c b7 48 13 aa 18 0a f9 a8
       2.0978804e-13 1.874711e-12 -1.3081451e-13 -2.764893e-14
0000c0 f3 b7 21 2c f1 29 85 aa 03 04 bd 2b fd 7e 15 2c
       2.2981588e-12 -2.365465e-13 1.3430371e-12 2.1244666e-12
0000d0 ef 35 7e ac 09 ef db aa a1 87 86 2c 92 d5 dc ab
       -3.612551e-12 -3.906808e-13 3.823567e-12 -1.5691218e-12
0000e0 ba 60 0a 2b 78 bb 09 2c e6 a9 2c ac 32 6f 9e 2a
       4.9161684e-13 1.9572937e-12 -2.4536983e-12 2.8143595e-13
0000f0 11 38 5e ab 8a 27 ad ab c3 3a 96 ac 9f b3 aa 2b
       -7.894805e-13 -1.2303364e-12 -4.2697803e-12 1.2129081e-12
000100 bb 40 55 ab 16 1f 3d ac 37 6d 88 2b 60 5f c4 29
       -7.5762633e-13 -2.6875772e-12 9.693694e-13 8.7206934e-14
000110 0b ce bf ab e6 97 94 ab cc c3 7c ac 32 5b 08 2b
       -1.3628555e-12 -1.0558193e-12 -3.5920043e-12 4.8443465e-13
000120 30 b3 21 2b ab 7b 30 2a 1b cc 4e aa 7c 28 5b 2b
       5.7447363e-13 1.5674846e-13 -1.8367289e-13 7.7860613e-13
000130 ef 65 b9 2c 1e 07 29 ab 93 fe 9a ab ac 1a c4 2b
       5.269333e-12 -6.005074e-13 -1.1013017e-12 1.3934041e-12
000140 1b 49 91 2c d1 4a 87 2d d3 41 65 ae ec 11 4e 2e
       4.129264e-12 1.5380948e-11 -5.2127035e-11 4.6854895e-11
000150 2f eb 91 ae be 81 75 2e 94 ad 18 ad b5 06 2b ad
       -6.6356136e-11 5.5821785e-11 -8.678742e-12 -9.721714e-12
000160 3b a1 55 2c fa 6d 10 2e 94 6e 87 2e e0 5f b0 2d
       3.0358621e-12 3.2839488e-11 6.158732e-11 2.005146e-11
000170 a5 61 69 2e ef ed 91 ad 6c 43 0d ae ab 5d 2d ae
       5.3064792e-11 -1.6590255e-11 -3.211957e-11 -3.941884e-11
000180 1b af 55 ae 22 d1 8f ad a2 c0 99 2d 3e 11 14 ae
       -4.8586118e-11 -1.6350091e-11 1.7479632e-11 -3.3666618e-11
000190 24 7f 1f ae 5e 6b 40 2e f4 85 83 ad 53 99 d2 ae
       -3.6265338e-11 4.3751107e-11 -1.4952463e-11 -9.57693e-11
0001a0 5a 6c 22 2d 18 26 29 ab 7e 08 b2 2e 1b d8 4c 2e
       9.232693e-12 -6.0093727e-13 8.0960114e-11 4.657617e-11
0001b0 b4 c7 fb ad ee 68 be 2c 0c 16 06 2e b8 5b d4 2c
       -2.8624082e-11 5.4117743e-12 3.0487654e-11 6.0355852e-12
0001c0 83 47 1a ae 68 4c 26 ae c6 a9 51 ae a9 68 8f ad
       -3.507906e-11 -3.7811893e-11 -4.7671887e-11 -1.6303696e-11
0001d0 4e 4e e1 ad d1 15 1a ae c4 67 12 2e 3b 79 4f 2d
       -2.5614313e-11 -3.5034923e-11 3.328872e-11 1.1793506e-11
0001e0 9b 63 91 2d 0e f8 1e ae 67 56 e7 2d ba 5b c3 ad
       1.6528825e-11 -3.6145358e-11 2.630003e-11 -2.2209668e-11
0001f0 d9 b1 e6 2d d6 4f 20 2d 13 13 71 2e 56 73 26 2e
       2.6226953e-11 9.112674e-12 5.4813997e-11 3.784647e-11
000200 dc 4e f9 2d 7f b9 c7 ac de db 92 ae 56 99 4e ae
       2.8343043e-11 -5.6765144e-12 -6.6783676e-11 -4.6975167e-11
000210 19 85 06 2e 63 41 1c ae f6 92 83 2d 2b 62 dc 2e
       3.0586287e-11 -3.552837e-11 1.495824e-11 1.002188e-10
000220 ea ec b5 2c 3d fb 9e 2e cd 15 b3 ad 55 32 01 ae
       5.170632e-12 7.229637e-11 -2.0359625e-11 -2.9375908e-11
000230 bd bd 64 ae 4d 44 9d ac b0 64 29 ae 18 5a 56 ae
       -5.200972e-11 -4.4697913e-12 -3.851558e-11 -4.8737986e-11
000240 11 3b 97 ae a0 d5 50 2e eb 38 a3 2c 48 f4 7c 2e
       -6.877177e-11 4.748346e-11 4.639058e-12 5.751513e-11
000250 39 13 dd ac ed 03 b5 2d 67 22 7c ae 00 24 a5 ad
       -6.283332e-12 2.0579061e-11 -5.732872e-11 -1.8774315e-11
000260 3a fb 2e ae 28 52 1c 2c ba d9 42 2e 12 2f a9 2e
       -3.9786154e-11 2.221454e-12 4.4303873e-11 7.6935916e-11
000270 b9 46 5a ae ee cb c9 2e a0 23 3a 2d 91 2f 83 2e
       -4.9630276e-11 9.176647e-11 1.0580786e-11 5.96564e-11
000280 b4 b6 af ad d3 9b 0f 2e c8 25 64 2d 91 63 cf ad
       -1.9976333e-11 3.2652835e-11 1.2968689e-11 -2.3577392e-11
000290 34 f7 ad 2d 76 83 0c ae 87 82 e2 2d ef ec a1 ab
       1.9777603e-11 -3.1949075e-11 2.5751191e-11 -1.15055e-12
0002a0 e3 d7 b9 ad 1d f7 35 ab a3 2f c5 2d 8e cd 01 2e
       -2.1127938e-11 -6.4647056e-13 2.2417462e-11 2.9513773e-11
0002b0 f5 8c 38 2c a3 38 ad 2d 6c 2e 85 ad a5 d1 31 ad
       2.622622e-12 1.9692975e-11 -1.5140965e-11 -1.0107836e-11
0002c0 8e 5f ee ad 8e 36 ba ad 47 db 44 ad e2 63 a7 2b
       -2.7099902e-11 -2.1169979e-11 -1.11899994e-11 1.1893787e-12
0002d0 8f 1d bd ad 79 14 c8 ad 8d f4 08 2e b8 e4 1d ac
       -2.1499939e-11 -2.274646e-11 3.1140025e-11 -2.2438006e-12
0002e0 ec a9 2b ae 60 3a 2a 2d 64 d9 09 ad 2a 65 16 2e
       -3.903182e-11 9.676343e-12 -7.835819e-12 3.4195903e-11
0002f0 9c 60 b6 2d b2 b9 05 ae 25 94 b2 2d f0 7a a3 ab
       2.0733908e-11 -3.040563e-11 2.0302047e-11 -1.1615969e-12
000300 88 cb aa 2c 35 86 c9 ad 75 35 c5 ad fa 3c 1c ad
       4.854287e-12 -2.2910654e-11 -2.2420047e-11 -8.881113e-12
000310 38 b0 38 2d f1 e7 7a ad b7 af b5 ad 84 a2 f3 2d
       1.04983175e-11 -1.4262356e-11 -2.065535e-11 2.7698073e-11
000320 3b 7f 29 ad bd cb 46 ad c1 7c 1d ae e3 76 48 2d
       -9.634789e-12 -1.1300236e-11 -3.580847e-11 1.1395082e-11
000330 b5 a1 b4 ac 44 9d d1 2d 82 16 bf ac de a1 1f 2e
       -5.133861e-12 2.3830389e-11 -5.4310454e-12 3.629618e-11
000340 04 5c b6 2d 83 1d a3 2d 30 8f ac ad fa 34 0f ae
       2.0731868e-11 1.854406e-11 -1.9617724e-11 -3.2561488e-11
000350 8c 86 d5 ad 52 80 eb ab bf 4d 95 ad b1 47 09 2d
       -2.4275047e-11 -1.673337e-12 -1.6973865e-11 7.803467e-12
000360 6f 1a 18 2e 26 ef 4d 2d b9 61 36 2e 54 4a c0 ad
       3.4584276e-11 1.17060025e-11 4.1468804e-11 -2.1860881e-11
000370 6f d7 6f ad 67 01 d2 ad a1 bf 67 2d 94 f9 b3 ad
       -1.3633413e-11 -2.3874859e-11 1.317338e-11 -2.0460779e-11
000380 51 c8 d9 2a 44 f1 ff ad 08 49 ba 2d 27 04 32 2c
       3.868594e-13 -2.9097287e-11 2.1178184e-11 2.5297626e-12
000390 ee 3d eb 2d c4 f7 24 ad 72 c8 b9 2d ae ea df ad
       2.674391e-11 -9.377336e-12 2.112108e-11 -2.5456384e-11
0003a0 77 d5 ec 2a d2 fe 89 ad b8 d2 64 2c e6 b3 06 2e
       4.2070142e-13 -1.568826e-11 3.2517721e-12 3.0627854e-11
0003b0 0a cd 16 2e 6a ff c9 ad e7 80 c0 2d 9f 09 28 ab
       3.4288163e-11 -2.2964481e-11 2.1885117e-11 -5.969894e-13
0003c0 ec b9 f7 2d 26 15 b2 ad 31 0b a7 ac 33 8b d7 ab
       2.8163215e-11 -2.0245649e-11 -4.747668e-12 -1.5315304e-12
0003d0 7b c1 05 2a d6 71 22 ab da 2f 13 2b b0 c6 c4 ab
       1.18799e-13 -5.771194e-13 5.22913e-13 -1.3981784e-12
0003e0 4b 42 8a aa 1e a8 cb 2b a3 af f7 2b 90 5c 59 ab
       -2.4559724e-13 1.4470679e-12 1.7599155e-12 -7.7222343e-13
0003f0 70 94 6b ab 9b ef df 2b 49 4b 92 ab 68 82 84 2b
       -8.369477e-13 1.5911607e-12 -1.039482e-12 9.415359e-13

exp_avg_sq f4 [128, 81]
000000 57 f8 60 2b a5 75 e0 2a 5a e7 f0 2a e6 a4 34 2a
       7.9925427e-13 3.9872025e-13 4.2793097e-13 1.6044422e-13
000010 6e b4 13 2c 99 77 65 29 0e 09 69 2a 2f be 73 2a
       2.0990115e-12 5.095195e-14 2.0697699e-13 2.1648719e-13
000020 17 15 4e 2a 44 71 8b 2b 86 7b 83 2b 8a 0a a1 2a
       1.8303792e-13 9.907982e-13 9.342394e-13 2.8606658e-13
000030 ed 6b 92 2b 52 63 9c 2a 21 01 63 2b a9 53 c6 29
       1.0403879e-12 2.7780084e-13 8.0648167e-13 8.807479e-14
000040 76 31 8e 2a c3 86 72 29 08 c3 b6 2b da fb 99 2a
       2.5258588e-13 5.385168e-14 1.298601e-12 2.7353017e-13
000050 7f f4 0e 2a 2e 3c e1 2a 49 23 33 2b a8 e6 c8 28
       1.269696e-13 4.0009787e-13 6.3642543e-13 2.2304492e-14
000060 62 8b dc 2a 62 31 c2 2b bf 17 ac 2a 37 90 81 2b
       3.9176567e-13 1.3798236e-12 3.0569815e-13 9.206029e-13
000070 9f f1 34 2b 0e 12 35 2b 72 fc d6 28 81 c9 8f 2b
       6.4284163e-13 6.4329173e-13 2.3868253e-14 1.021669e-12
000080 34 f1 65 2a a5 bf 01 2a ac 7e d7 2a 1b 61 7e 2a
       2.042297e-13 1.1523992e-13 3.8279568e-13 2.2593422e-13
000090 d5 9f 84 2a 19 09 00 2b 25 f2 2b 2a 6d 9f 68 2a
       2.3558816e-13 4.548736e-13 1.5271862e-13 2.0661051e-13
0000a0 aa b8 3f 2b d2 42 d0 2a a1 83 1d 2b 01 f6 21 2b
       6.8113104e-13 3.6994588e-13 5.5960277e-13 5.754009e-13
0000b0 a1 32 67 29 ee ff 99 2a cd 09 11 2b 72 b6 dd 2a
       5.1336217e-14 2.7355847e-13 5.152795e-13 3.9384083e-13
0000c0 c8 32 5c 2b 6b 61 77 2b 75 33 c9 2a 0f 6b de 2a
       7.8230174e-13 8.788722e-13 3.5740478e-13 3.950941e-13
0000d0 cc 75 3e 29 bd be a2 29 89 d5 1c 2a 46 7e 29 29
       4.2290647e-14 7.227333e-14 1.3929668e-13 3.7635063e-14
0000e0 6e 95 05 2a 08 ef 62 2b be fe b6 2b 61 c5 a2 2b
       1.1864617e-13 8.062305e-13 1.3002583e-12 1.1565576e-12
0000f0 9e 56 4c 29 2d 37 00 2a 49 03 ff 2a 1d 5e 04 2b
       4.5372228e-14 1.1387827e-13 4.529938e-13 4.702643e-13
000100 70 37 c0 2b 4a 80 9f 2a 81 07 0a 2a 1c 2d 04 2b
       1.3657808e-12 2.8333092e-13 1.2259466e-13 4.695842e-13
000110 9a 6b d9 2a 84 38 92 2a 4a d8 c6 2a 3c 3b 45 2b
       3.8621607e-13 2.5974025e-13 3.5321946e-13 7.0070664e-13
000120 c1 9e 3a 2b 6f 97 9e 2b 56 0c e3 2b b8 7e 3b 2b
       6.630079e-13 1.1268606e-12 1.6132744e-12 6.6611603e-13
000130 ee d0 86 2a 9e 1c c5 2b 41 96 44 2b 83 d6 13 2b
       2.3948156e-13 1.4005635e-12 6.9841707e-13 5.2522586e-13
000140 9b 32 42 2a 73 ee 0b 2d 2c f8 53 2c 82 10 cd 2c
       1.7248219e-13 7.954182e-12 3.0122667e-12 5.828283e-12
000150 01 1c 9e 2c 95 e3 5e 2e a9 09 22 2c eb 64 ff 2a
       4.493739e-12 5.067909e-11 2.3026947e-12 4.5367125e-13
000160 7d 1c 18 2c 97 af 61 2c ce 2b 1c 2d be c8 18 2d
       2.1616313e-12 3.2071895e-12 8.8773e-12 8.684773e-12
000170 ad 8d 17 2c d8 43 1a 2c b2 78 1b 2d da d8 e8 2c
       2.1537036e-12 2.1922377e-12 8.83753e-12 6.617912e-12
000180 1c 07 04 2c 67 b4 09 2c 6c 72 4c 2c 19 35 65 2d
       1.8762275e-12 1.9569014e-12 2.905366e-12 1.3028933e-11
000190 41 6f eb 2c 3d 29 8c 2c 7b c9 55 2c 86 60 31 2c
       6.6914534e-12 3.9836177e-12 3.0380965e-12 2.5206794e-12
0001a0 66 8f 60 2c e5 57 2a 2c 6d e3 cd 2c e6 4b 10 2b
       3.1911917e-12 2.4207244e-12 5.8516998e-12 5.1264407e-13
0001b0 b8 45 a7 2c 6e 8e 56 2d e7 74 3b 2d fa 55 ae 2c
       4.754166e-12 1.2196117e-11 1.0655677e-11 4.9549228e-12
0001c0 24 97 1e 2d 13 9f 2c 2c af 60 a4 2d 80 c1 9f 2c
       9.01482e-12 2.4530974e-12 1.8687578e-11 4.5405346e-12
0001d0 a2 c3 9c 2b 1e 66 35 2c 2a 34 dc 2d d1 65 03 2d
       1.1138766e-12 2.5778333e-12 2.503427e-11 7.469096e-12
0001e0 91 1d 81 2d 48 48 92 2c 36 71 30 2c ae fe 19 2c
       1.4678732e-11 4.1575944e-12 2.507395e-12 2.1883983e-12
0001f0 28 65 89 2b 31 9b d3 2c d2 5e 09 2d 62 ad c2 2b
       9.762512e-13 6.0142104e-12 7.808603e-12 1.3832652e-12
000200 98 b3 3e 2c 16 5b 24 2c 2f 35 6e 2c ff fd 8c 2c
       2.7100319e-12 2.3356365e-12 3.3851357e-12 4.0072386e-12
000210 61 d4 45 2d 21 eb c9 2c 0c f2 4b 2b e3 88 2c 2d
       1.1245311e-11 5.738868e-12 7.2455995e-13 9.807463e-12
000220 b7 48 a5 2c c1 d1 87 2b bd 2b 41 2c f5 6f d2 2c
       4.697655e-12 9.650545e-13 2.745123e-12 5.9809887e-12
000230 30 df 39 2d dc 05 88 2c 5d a3 d3 2b 1f cc 17 2d
       1.056559e-11 3.866003e-12 1.5037794e-12 8.62868e-12
000240 97 4f 40 2d 6e d1 84 2c cd 8d 92 2b f9 d5 8b 2d
       1.0931609e-11 3.774917e-12 1.0413282e-12 1.5897493e-11
000250 05 c1 ba 2c 79 14 8b 2d 07 45 ab 2c ac f2 55 2d
       5.3078674e-12 1.5811562e-11 4.867776e-12 1.2161532e-11
000260 38 ae 53 2c b3 3c 12 2c d9 f3 84 2d e9 72 2f 2e
       3.0081614e-12 2.0781543e-12 1.5114953e-11 3.9892454e-11
000270 5a 1f e7 2c e8 1a 33 2d ea 57 f7 2c 37 8f c2 2c
       6.5688956e-12 1.0180946e-11 7.0299227e-12 5.5297117e-12
000280 6d 82 72 2c 56 22 ef 2c 04 c8 a5 26 9a 75 ec 26
       3.446267e-12 6.7966006e-12 1.1503389e-15 1.6407666e-15
000290 4d d8 45 27 dc ef cc 26 91 ef a3 28 ed de ed 26
       2.7456499e-15 1.4220358e-15 1.820053e-14 1.6505603e-15
0002a0 36 b5 61 27 6f d5 4a 27 a7 7c f3 26 df 69 5f 27
       3.1323257e-15 2.8148834e-15 1.6895299e-15 3.100486e-15
0002b0 7c fb 24 27 c2 34 79 27 b7 45 44 26 70 b5 94 26
       2.2895902e-15 3.4584292e-15 6.809564e-16 1.0318742e-15
0002c0 c1 23 0d 27 63 5d 7b 26 d1 18 86 25 ae c5 3f 26
       1.9587063e-15 8.720968e-16 2.326211e-16 6.6534343e-16
0002d0 79 e3 62 27 47 4e 50 27 66 9d 49 27 52 d5 ec 27
       3.1487114e-15 2.8908233e-15 2.797968e-15 6.573444e-15
0002e0 1e 9e 0d 27 f6 0b 95 25 ae 2b 16 26 9a 8a d5 26
       1.9653396e-15 2.5855485e-16 5.21009e-16 1.4817412e-15
0002f0 41 bd 8e 27 3c 82 d6 27 56 75 af 27 61 03 02 28
       3.9618107e-15 5.9538132e-15 4.8699473e-15 7.217182e-15
000300 99 44 ef 25 38 e3 9a 27 92 c4 aa 27 ca 0d 38 28
       4.1506375e-16 4.2989938e-15 4.73976e-15 1.0217042e-14
000310 0f 47 3c 27 f8 ed 0a 26 21 63 bf 27 20 10 20 28
       2.6128762e-15 4.8200876e-16 5.3120625e-15 8.885281e-15
000320 5d 2c 9c 27 0e 6d 2a 28 a5 6b 83 27 c7 13 0d 27
       4.3346797e-15 9.460543e-15 3.6476512e-15 1.9578402e-15
000330 3d 38 7f 26 70 50 02 27 57 ab c3 26 f8 c0 56 27
       8.8547114e-16 1.808473e-15 1.3577285e-15 2.9803074e-15
000340 e8 5e 69 27 32 cf 81 28 fb 46 3a 27 1c 27 c8 26
       3.2386694e-15 1.4411734e-14 2.5851164e-15 1.3888388e-15
000350 75 87 54 27 c0 f8 d7 27 b0 ef 51 26 b4 5d 76 26
       2.9494342e-15 5.9944183e-15 7.283628e-16 8.5475386e-16
000360 bc 69 e2 27 76 40 0a 27 d4 f6 d1 26 27 5b 6a 27
       6.284224e-15 1.9186292e-15 1.4569191e-15 3.2523437e-15
000370 c5 0e be 27 bf 7d ee 26 6a ef 40 26 82 d5 3a 26
       5.2751607e-15 1.6548651e-15 6.693785e-16 6.482107e-16
000380 f3 f7 7b 27 bf cf 9b 27 29 59 a2 27 b7 c6 33 27
       3.496766e-15 4.324638e-15 4.50607e-15 2.4948964e-15
000390 0b 2e b2 27 42 87 0f 27 29 05 cf 27 cb c7 cc 27
       4.9454844e-15 1.991856e-15 5.7459636e-15 5.683799e-15
0003a0 03 6b 85 27 aa e9 66 27 b1 c8 41 27 f4 99 0a 28
       3.703094e-15 3.2045582e-15 2.6892925e-15 7.693922e-15
0003b0 2c 6a a9 28 76 83 10 28 72 fa ff 27 c3 40 80 27
       1.8808814e-14 8.022112e-15 7.104825e-15 3.559735e-15
0003c0 2c 29 2c 26 0b 1a aa 26 f4 f4 2d 28 d5 06 85 2c
       5.9730286e-16 1.1803179e-15 9.656545e-15 3.780846e-12
0003d0 87 d6 ee 2b 27 f1 0a 2c 63 68 f7 2c 41 f7 f4 2c
       1.697046e-12 1.9744846e-12 7.0317515e-12 6.962348e-12
0003e0 3a f8 cf 2a ee c2 21 2a 0f 55 2e 2b b0 3d 92 2c
       3.6942828e-13 1.4367302e-13 6.193526e-13 4.1564183e-12
0003f0 c8 90 e3 2c c6 2d 8d 2a dd c8 06 2c 34 99 d6 2c
       6.467802e-12 2.5078393e-13 1.9154047e-12 6.0992548e-12

exp_avg f4 [128, 81]
000000 da e5 16 af b5 24 bf 2d 80 d0 81 2f 21 4a 84 30
       -1.372408e-10 2.1730487e-11 2.3613111e-10 9.625333e-10
000010 f6 86 49 af 64 b2 3c b0 5c 2d 27 af 40 02 15 30
       -1.8328791e-10 -6.864751e-10 -1.5204676e-10 5.420908e-10
000020 17 12 0b b0 b3 3e 1e af af 65 93 b0 13 ec 93 af
       -5.059361e-10 -1.4392292e-10 -1.0724558e-09 -2.6906885e-10
000030 4c 4f 21 30 1a ba 5a af d0 21 57 af 96 52 f2 ae
       5.8684146e-10 -1.9893101e-10 -1.9566149e-10 -1.1019556e-10
000040 79 6c 93 af 5f 35 1e 2f 38 e2 21 b0 49 0d 2c af
       -2.681622e-10 1.4388978e-10 -5.8892935e-10 -1.5648029e-10
000050 ed 62 f3 2c b3 90 d1 af b6 5a a3 af f9 20 2b 2e
       6.9174584e-12 -3.8119694e-10 -2.971398e-10 3.8910184e-11
000060 e6 88 66 2f 12 c4 25 30 05 17 22 af 95 93 ca ae
       2.0967014e-10 6.0305283e-10 -1.4741992e-10 -9.212112e-11
000070 17 a4 0f 2f cd 34 68 30 e7 b3 ed 2e 84 3c 11 2e
       1.306407e-10 8.447614e-10 1.0809469e-10 3.302293e-11
000080 00 a6 2a b0 14 53 8c af fd 85 06 b0 40 d1 aa af
       -6.208154e-10 -2.5524882e-10 -4.8939325e-10 -3.10715e-10
000090 da 42 dd ac ca 97 90 2f 0e 65 af af e2 ec e8 af
       -6.28862e-12 2.63013e-10 -3.1904118e-10 -4.236887e-10
0000a0 83 bb 70 2f 79 a0 8e af 17 2e c0 af 51 d8 58 ae
       2.189449e-10 -2.5943672e-10 -3.4957345e-10 -4.930484e-11
0000b0 db 6c d9 2f 17 cb a9 af 0b 1a e8 2e cf 37 14 b0
       3.9549417e-10 -3.0885225e-10 1.0554765e-10 -5.3921395e-10
0000c0 8c 51 96 af 47 cf 8a 30 c0 9a 5b 30 be 9b 55 30
       -2.7342784e-10 1.0099733e-09 7.989165e-10 7.771027e-10
0000d0 28 48 ad 30 e9 39 9c ae e1 be aa ae 7e e1 3f 2e
       1.2607915e-09 -7.1043456e-11 -7.764612e-11 4.362865e-11
0000e0 c5 29 05 2e 5f 20 57 30 fb 77 9e 2f 6d d0 5e ae
       3.0277798e-11 7.8262546e-10 2.8825284e-10 -5.0662075e-11
0000f0 4f 3e 93 2f c5 3f ac af 48 b6 ff 2e 53 d9 06 2e
       2.6783417e-10 -3.133193e-10 1.1628437e-10 3.0661095e-11
000100 05 6b 47 30 a5 6b 75 2e 32 9c 58 af 80 6d 2e 30
       7.254786e-10 5.5802158e-11 -1.9700577e-10 6.345644e-10
000110 58 bd 5d b0 d5 84 82 2f 45 c2 c9 2f 36 ac 35 2f
       -8.0668405e-10 2.3741245e-10 3.6699724e-10 1.6523036e-10
000120 67 b4 22 b0 4d 0b 20 b0 8b ce 5e af b2 4b 66 b0
       -5.9191624e-10 -5.822372e-10 -2.0264161e-10 -8.378108e-10
000130 dd f7 c8 ae e1 c0 63 2d da f9 4a af 45 3e c1 af
       -9.1389764e-11 1.2946284e-11 -1.8460558e-10 -3.515074e-10
000140 01 59 97 ae fc 9f 84 2f 27 06 9b b0 43 af 04 b0
       -6.882495e-11 2.4124336e-10 -1.1279483e-09 -4.827038e-10
000150 77 d2 a9 af c5 dc 88 30 56 51 0f 30 93 15 d6 30
       -3.0890465e-10 9.958049e-10 5.213868e-10 1.5576681e-09
000160 77 e0 0a b1 2e b5 53 2e 7f db 87 af 5f 00 bb 30
       -2.0209237e-09 4.8136765e-11 -2.4712318e-10 1.3606146e-09
000170 cc 69 0b 31 9a eb 7d 30 5a 13 3b 30 7c 02 93 af
       2.02873e-09 9.2375674e-10 6.8057704e-10 -2.674091e-10
000180 9d bf 64 30 6b 0a 66 30 7f e7 97 30 fd fd 70 2f
       8.3218216e-10 8.368832e-10 1.1052491e-09 2.1918108e-10
000190 0d 6f a7 30 ff f0 4d 30 28 ed be b0 2d 71 db 2c
       1.2182412e-09 7.492104e-10 -1.3891723e-09 6.2369194e-12
0001a0 16 0f 13 30 be ee 48 30 29 b1 41 ae 42 99 82 b0
       5.3499727e-10 7.309885e-10 -4.404047e-11 -9.502303e-10
0001b0 a3 ab 9b 2f de c0 e3 30 f5 da 2f 30 59 f0 e6 b0
       2.831629e-10 1.657124e-09 6.3975786e-10 -1.6803013e-09
0001c0 62 67 ca af 11 fd 83 b0 73 5d 69 b0 61 4d 0c 2f
       -3.6817044e-10 -9.60343e-10 -8.4897706e-10 1.2760416e-10
0001d0 04 e5 ed 2f b9 e8 52 2f 02 35 ab af 0e f4 e7 30
       4.3272774e-10 1.9182068e-10 -3.1142383e-10 1.6876827e-09
0001e0 26 34 bd 30 77 fc 1d b0 7b eb c2 30 a8 a1 47 30
       1.3766381e-09 -5.747504e-10 1.4182285e-09 7.2625506e-10
0001f0 78 10 b5 30 66 df ae b0 c8 f4 38 31 98 72 26 b1
       1.3174164e-09 -1.272366e-09 2.6914666e-09 -2.4221318e-09
000200 02 97 02 b1 3a 56 3d 30 d3 b2 e4 2f d5 45 06 b0
       -1.9003328e-09 6.8880335e-10 4.160002e-10 -4.8848153e-10
000210 a5 21 85 b0 81 12 1b b1 aa d0 04 31 31 e9 35 b0
       -9.686586e-10 -2.2565987e-09 1.932714e-09 -6.61788e-10
000220 f4 90 77 30 06 fd 34 b0 c0 9a e2 b0 02 35 a5 30
       9.006407e-10 -6.5843186e-10 -1.6487647e-09 1.2020396e-09
000230 97 ce 82 2f fc d6 dc 2f 17 cd 7e 2e 60 21 52 af
       2.3793653e-10 4.0170522e-10 5.793507e-11 -1.9111246e-10
000240 1e 4e af b0 f9 d7 db af ae ac b2 2f 3d 94 25 b1
       -1.2755128e-09 -3.9989326e-10 3.2500708e-10 -2.4094924e-09
000250 1e 76 23 2f 42 2a bb af d7 e6 1d 2d f4 66 dd b0
       1.4866727e-10 -3.4045128e-10 8.9756735e-12 -1.6109127e-09
000260 c9 3b e5 30 12 91 c7 30 75 15 95 30 dc bb 7e 2d
       1.6678935e-09 1.4520387e-09 1.0847275e-09 1.44799416e-11
000270 6e 65 75 2c 2a 4a 7f af b6 ee 89 ae 2a 54 a8 b0
       3.4872899e-12 -2.3218463e-10 -6.272442e-11 -1.224753e-09
000280 35 f5 49 b0 e8 6b 0a 31 09 c6 15 30 b7 1e 02 31
       -7.3471834e-10 2.014298e-09 5.448731e-10 1.893495e-09
000290 eb 14 21 31 c5 3d fb 31 17 f8 62 b0 9b de 92 b1
       2.3440474e-09 7.312084e-09 -8.257088e-10 -4.2744666e-09
0002a0 f5 50 24 b1 b7 a1 d0 30 3b 08 81 b1 13 5e 74 b1
       -2.391116e-09 1.5179954e-09 -3.75533e-09 -3.5560148e-09
0002b0 0d 3c e4 b1 de 9f 50 b1 4b f7 c4 31 10 0b 96 b1
       -6.6425003e-09 -3.0358858e-09 5.7324647e-09 -4.3668322e-09
0002c0 a5 59 d1 b0 f2 a0 19 af 9b c1 3d b1 8d a3 74 30
       -1.523223e-09 -1.3972448e-10 -2.7613172e-09 8.89991e-10
0002d0 9f 80 ba b1 ca 5b 24 30 42 9a ab 30 13 a0 0f b1
       -5.427935e-09 5.979329e-10 1.248573e-09 -2.090023e-09
0002e0 64 41 27 b0 c9 f1 81 30 8b 5d db 30 7d 8e 73 31
       -6.084717e-10 9.454705e-10 1.5960934e-09 3.544215e-09
0002f0 dd 0a b3 30 d7 f2 94 b0 aa de 16 31 7d 76 cb 31
       1.3027052e-09 -1.0837437e-09 2.1954443e-09 5.921548e-09
000300 5f 04 74 b0 cb 05 55 af b7 3d af b1 da d6 9a b0
       -8.8772895e-10 -1.9374295e-10 -5.1001865e-09 -1.1266039e-09
000310 0f 46 97 b1 f4 43 68 b1 fe 9a ba b0 31 0f d5 b0
       -4.402643e-09 -3.379907e-09 -1.3577333e-09 -1.5502107e-09
000320 be 7d bf b0 92 7a 06 b1 f4 df 22 31 be ec a8 b0
       -1.3932817e-09 -1.956924e-09 2.3701405e-09 -1.2290895e-09
000330 a5 fc c1 b1 a5 c5 15 b1 d2 1d 2a 31 06 36 35 b0
       -5.6457616e-09 -2.1794702e-09 2.4755207e-09 -6.592419e-10
000340 8f fd 44 30 a4 55 a5 b1 1b fa 23 b1 7b 4e cf 31
       7.1664713e-10 -4.8118682e-09 -2.386179e-09 6.033415e-09
000350 27 34 e9 31 24 b9 d3 31 ba 91 08 32 dc e5 52 b1
       6.7871215e-09 6.1619563e-09 7.949376e-09 -3.0689682e-09
000360 44 89 2f 2e 10 4a fb 2f 10 65 8b 2f d6 c8 98 31
       3.991231e-11 4.5709259e-10 2.5355762e-10 4.4466146e-09
000370 f6 7d 15 30 00 67 bf b0 bf 83 44 31 33 66 36 b1
       5.4384885e-10 -1.3926353e-09 2.8596643e-09 -2.654258e-09
000380 b4 e2 5d 30 57 42 c8 af 5e 55 94 31 f4 ae f5 30
       8.0721496e-10 -3.6426925e-10 4.317072e-09 1.7875821e-09
000390 51 7e ad b0 7e c2 34 31 a2 f8 85 b1 6a 06 bc 30
       -1.2623308e-09 2.6304003e-09 -3.8990757e-09 1.3680623e-09
0003a0 c1 97 68 31 62 2b 07 30 5b 9c 8c b1 36 4f 3b b1
       3.3846705e-09 4.9174365e-10 -4.092312e-09 -2.7257108e-09
0003b0 61 da ec b0 ff 44 bc b1 e0 28 85 b0 e4 97 6e af
       -1.7233327e-09 -5.479364e-09 -9.688641e-10 -2.1699936e-10
0003c0 62 17 c6 af 07 23 5e b1 f3 67 91 b0 64 44 b3 2f
       -3.6032605e-10 -3.2325163e-09 -1.0579683e-09 3.2608505e-10
0003d0 f5 88 4d af e6 6a 7a af 0a 73 82 b0 b5 a0 a0 2f
       -1.8693298e-10 -2.2775345e-10 -9.491441e-10 2.921802e-10
0003e0 22 a1 0b 30 a5 33 8c 2f 38 f4 9f b0 3d 4a ea 2f
       5.079689e-10 2.5502547e-10 -1.1638184e-09 4.2617102e-10
0003f0 08 e1 b1 ad 3d 7d a4 30 22 0f 2a 30 2b 03 1d af
       -2.0222504e-11 1.1968165e-09 6.1867145e-10 -1.4280192e-10

exp_avg_sq f4 [128, 81]
000000 bd 0c c9 2d e7 1a 39 2b 84 48 1c 2d 8c 85 f8 2d
       2.2856711e-11 6.576254e-13 8.883675e-12 2.8253642e-11
000010 7d 50 de 2d 57 7f 52 2b d6 0d ca 2c 50 47 09 2d
       2.5274222e-11 7.4783707e-13 5.7427214e-12 7.803383e-12
000020 da 36 bc 2e 77 7a 45 2e f6 f6 0b 2c 1e 91 ee 2b
       8.558994e-11 4.4901385e-11 1.9890179e-12 1.6951195e-12
000030 13 ba aa 2c 4c 6c bd 2d b6 b0 a5 2c ba 2a 19 2e
       4.852349e-12 2.1534906e-11 4.709201e-12 3.482612e-11
000040 05 c4 cb 2b b4 91 1e 2d b6 47 13 2e 5d 11 46 2c
       1.4478424e-12 9.013613e-12 3.3487622e-11 2.814713e-12
000050 a0 15 38 2d e2 a1 ac 2b 0f a3 9c 2c a4 b1 b8 2c
       1.0463991e-11 1.2266267e-12 4.45189e-12 5.2493166e-12
000060 49 31 b7 2d c6 ba 0b 2d e7 0b 74 2b 44 04 11 2d
       2.0826578e-11 7.942707e-12 8.670273e-13 8.243243e-12
000070 01 11 3e 2e 51 8f 99 2c 01 e9 09 2c b4 06 61 2d
       4.32161e-11 4.364433e-12 1.9598214e-12 1.2791258e-11
000080 b6 bc 88 2e 3d 24 da 2a a6 55 e7 2b c9 e1 fa 2c
       6.218086e-11 3.8749724e-13 1.6437309e-12 7.1304945e-12
000090 cb 96 7c 2e 95 f5 d0 2d 45 66 aa 2d b7 05 8c 2c
       5.7432097e-11 2.3755923e-11 1.937218e-11 3.979674e-12
0000a0 6c 44 2f 2e e6 3e 70 2b 42 69 3a 2c 6e 42 c6 2c
       3.9851164e-11 8.535242e-13 2.649062e-12 5.6348736e-12
0000b0 ce c3 a4 2c b6 ac af 2c ff 3a bd 2c 88 d3 7d 2d
       4.682899e-12 4.992974e-12 5.378253e-12 1.4428354e-11
0000c0 af 19 57 2c 49 ac f6 2b ff 9b a5 2e ad b0 f7 2b
       3.0567595e-12 1.752717e-12 7.531042e-11 1.7599443e-12
0000d0 fe 0e 0d 2d cf 4c 9c 2c e1 a2 0c 2d ba 27 39 2b
       8.018251e-12 4.442314e-12 7.994245e-12 6.5780335e-13
0000e0 85 3c e1 2c 3c a4 eb 2d d7 76 78 2d 92 dc d5 2d
       6.4016036e-12 2.6789342e-11 1.4123556e-11 2.431325e-11
0000f0 bb 40 8e 2d e3 76 bf 2d 64 02 d2 2d d4 37 82 2e
       1.6172277e-11 2.1766982e-11 2.3875298e-11 5.9216326e-11
000100 d6 ad 17 2d 7c fd eb 2c 7c 9e b9 2d 1b 8f b4 2c
       8.621956e-12 6.707244e-12 2.1102446e-11 5.1317956e-12
000110 71 24 77 2d 73 8b 68 2d 67 4b 98 2b 3f c6 89 2c
       1.4048416e-11 1.3218637e-11 1.0821178e-12 3.915784e-12
000120 a3 29 b4 2d ed 96 a2 2e d5 4b a3 2d 58 7a ca 2c
       2.0482121e-11 7.393717e-11 1.856463e-11 5.754768e-12
000130 85 f8 bc 2b 38 f7 4f 2d 52 05 f2 2d 7a d9 d3 2d
       1.3427181e-12 1.1821481e-11 2.7514577e-11 2.4084502e-11
000140 06 b7 22 2d 24 4b e6 2e 35 2c e0 2c 2c 3d 91 2e
       9.249273e-12 1.0472537e-10 6.371371e-12 6.604703e-11
000150 2e 27 c7 2e 00 04 ea 2e 45 7c 88 2b ae 2c ec 2b
       9.056432e-11 1.06417986e-10 9.697873e-13 1.678121e-12
000160 8c cb 22 2e 14 8a b2 2f 88 2c 1f 2f 94 9e 7e 2d
       3.701532e-11 3.2476122e-10 1.4476786e-10 1.447344e-11
000170 e5 a0 a5 2d fd 6d 0d 2e 34 b7 cb 2c cf a2 10 2f
       1.882978e-11 3.2157377e-11 5.7899466e-12 1.3154565e-10
000180 52 a4 b1 2c 2e 44 14 2d b9 93 91 2c 02 13 17 2f
       5.048886e-12 8.427965e-12 4.1375484e-12 1.3740123e-10
000190 b7 a8 4d 2d 8d 78 39 2d d5 c1 45 2e 09 59 f4 2d
       1.1690363e-11 1.05428e-11 4.496477e-11 2.7779128e-11
0001a0 db f0 ac 2c ed 03 e6 2e 38 9c 91 2e 08 cc 8e 2c
       4.9152744e-12 1.04598864e-10 6.6215866e-11 4.0585348e-12
0001b0 e0 7f ab 2e 7d 54 aa 2e 89 7b c7 2d d1 68 5f 2d
       7.798895e-11 7.745713e-11 2.2678541e-11 1.2699356e-11
0001c0 93 fd 22 2f 31 70 c9 2e d4 e7 97 2d b3 be 0e 2e
       1.4823902e-10 9.160351e-11 1.7269665e-11 3.2456437e-11
0001d0 6b 44 04 2f 7c 35 f3 2e 16 4b e2 2e 82 dd 25 2e
       1.2029637e-10 1.10598614e-10 1.0290628e-10 3.7713395e-11
0001e0 65 cf c2 2c c1 48 68 2d 9e 5c 04 2d bb 4d 2b 2d
       5.536837e-12 1.3203828e-11 7.5238964e-12 9.737484e-12
0001f0 86 e7 96 2d 7a a1 c8 2c c2 22 d6 2c c9 17 bc 2e
       1.7155843e-11 5.7022694e-12 6.0861047e-12 8.553475e-11
000200 bc 71 19 2d 4d 3e be 2e ab 5d b0 2d 7e 35 02 2f
       8.722297e-12 8.6512665e-11 2.005048e-11 1.1842435e-10
000210 74 e3 c1 2c 96 45 f7 2c 98 fb 27 2e cb 7e 03 2e
       5.5106423e-12 7.027888e-12 3.8194864e-11 2.9898566e-11
000220 1c 52 ef 2c 9e 75 07 2e 3b bc 25 2f 84 87 15 2e
       6.8019045e-12 3.079991e-11 1.5073535e-10 3.399904e-11
000230 b4 83 5c 2f 4a f6 f1 2c 32 30 86 2e 06 2f 0f 2e
       2.0055674e-10 6.8769756e-12 6.102176e-11 3.25562e-11
000240 d8 63 bb 2e af ca ae 2c 43 e6 8e 2e 97 b5 5c 2d
       8.521511e-11 4.96788e-12 6.498315e-11 1.2545873e-11
000250 e5 aa f9 2d 42 ca 81 2e a7 18 cc 2e f2 00 b6 2d
       2.8383915e-11 5.902169e-11 9.281225e-11 2.0691424e-11
000260 52 08 a6 2d f5 55 16 2d a7 c7 e2 2e 55 32 81 2e
       1.887571e-11 8.545599e-12 1.03127555e-10 5.8751816e-11
000270 d6 ec 0b 2f 68 01 88 2c fa 4b 02 2d 48 c7 e9 2e
       1.2726117e-10 3.8655086e-12 7.406515e-12 1.0631013e-10
000280 f8 cb e1 2e 35 5e 4f 2e a9 03 55 2f d1 53 c5 2c
       1.02680475e-10 4.7150023e-11 1.9373537e-10 5.6083822e-12
000290 d6 2b 50 2e ae 65 15 2f 3a 89 ba 2e e8 4c 15 2c
       4.733266e-11 1.3587595e-10 8.482677e-11 2.1216865e-12
0002a0 02 b8 30 2d eb da 42 2d c1 72 f4 2e 94 0b a2 2f
       1.00453e-11 1.1076233e-11 1.111622e-10 2.9475855e-10
0002b0 75 52 2f 2d 0d 80 58 2d e4 f1 e7 2d 66 54 07 2f
       9.9659074e-12 1.23066115e-11 2.636908e-11 1.2308163e-10
0002c0 84 9f 90 2d 3e ef 32 2d c0 93 97 2d 45 a1 db 2c
       1.6441744e-11 1.0171251e-11 1.7232327e-11 6.242259e-12
0002d0 e7 4a 7e 2f 3c 32 e2 2d f1 12 97 2e bf b0 63 2c
       2.3127776e-10 2.5715534e-11 6.87005e-11 3.2356754e-12
0002e0 55 48 bc 2d db 01 38 2c 52 d4 8b 2e e3 0c 56 2f
       2.1405247e-11 2.6149003e-12 6.358704e-11 1.9467765e-10
0002f0 88 4f 7e 2d d3 cb 85 2e d2 97 47 2f c1 a8 6c 2e
       1.4455888e-11 6.084346e-11 1.8152882e-10 5.381007e-11
000300 52 6a 8a 2d 21 9c b1 2e 55 63 6b 2f 2b 57 e6 2b
       1.5736e-11 8.076762e-11 2.1408415e-10 1.6366677e-12
000310 02 1e d0 2c 55 86 ee 2e 3f 58 a8 2f b5 f9 86 2e
       5.915047e-12 1.0846849e-10 3.0621725e-10 6.1379714e-11
000320 38 5b 1c 2e 81 98 cd 2d 9a 24 7a 2d f1 e7 5a 2c
       3.5551312e-11 2.3373527e-11 1.4218982e-11 3.1108417e-12
000330 39 1a 8e 2d 9c 91 af 2d 9e 5b 8c 2b 89 f5 53 2e
       1.6155176e-11 1.995986e-11 9.973027e-13 4.8193925e-11
000340 5a 64 91 2e df 61 1d 2d 62 b3 b9 2d 40 05 1e 2e
       6.6116626e-11 8.9461485e-12 2.1111727e-11 3.5929704e-11
000350 6a 8f 25 2f 2c 92 4a 2c 71 77 9d 2e dc 9f e8 2d
       1.5057613e-10 2.8787068e-12 7.1607505e-11 2.6446338e-11
000360 49 94 5a 2d bc 89 6b 2d 18 2e ef 2e 4f c5 79 2f
       1.2424791e-11 1.3388787e-11 1.08766496e-10 2.2716516e-10
000370 b6 61 07 2d b0 61 8b 2f f9 30 38 2d 8a 2e af 2e
       7.695558e-12 2.5353364e-10 1.0470063e-11 7.9663456e-11
000380 03 ae 03 2d e6 c5 0a 2e 2b fb a7 2e e0 44 bb 2e
       7.485126e-12 3.1553336e-11 7.638897e-11 8.51601e-11
000390 12 6b eb 2c d9 5f 7a 2e ad 5a 9f 2e 88 e0 86 2e
       6.690989e-12 5.692855e-11 7.24659e-11 6.133499e-11
0003a0 dd 13 0b 2d 02 7a 89 2c a0 a0 54 2c f5 3c f3 2e
       7.905646e-12 3.9073198e-12 3.0216177e-12 1.1061189e-10
0003b0 81 e6 75 2e 3d 55 92 2e 2c 4f c2 2c 10 09 4d 2d
       5.591128e-11 6.654453e-11 5.5226015e-12 1.1654913e-11
0003c0 43 43 92 2e df 82 db 2e c2 b2 2c 2e b7 ed 34 2d
       6.6512594e-11 9.9822144e-11 3.926704e-11 1.0284599e-11
0003d0 90 37 04 2b 5a f2 0b 2d 91 98 89 2d 9c 39 74 2d
       4.697293e-13 7.955048e-12 1.564285e-11 1.3882586e-11
0003e0 19 18 cc 2b 91 6b 88 2b 47 dd 0d 2c a1 8c ba 2d
       1.450176e-12 9.693237e-13 2.0160139e-12 2.1208204e-11
0003f0 15 f6 bc 2d 77 7e 51 2c dc bc 55 2b 25 62 5e 2c
       2.1482408e-11 2.9770888e-12 7.5934896e-13 3.1602579e-12

exp_avg f4 [128, 128]
000000 28 38 16 aa ed 2b 2e 2a b9 25 1b aa 24 f0 19 2a
       -1.334216e-13 1.5469544e-13 -1.3779853e-13 1.3672445e-13
000010 ef 27 31 2a 04 b3 39 aa 0c bf 12 2a 00 38 14 2a
       1.5734613e-13 -1.6493409e-13 1.3033688e-13 1.316447e-13
000020 d0 5a 19 aa 88 77 1c aa a9 8c 2f aa 1d d7 17 aa
       -1.3620637e-13 -1.3897054e-13 -1.5591924e-13 -1.3486127e-13
000030 3c 29 38 aa 97 a1 1f aa c0 0c 16 2a fb ef 15 aa
       -1.6356789e-13 -1.41781e-13 1.33271e-13 -1.3317118e-13
000040 60 5c 28 2a ab 01 1e 2a 09 ef 1f 2a 5a 27 18 2a
       1.4953446e-13 1.4033798e-13 1.4204969e-13 1.3513965e-13
000050 ad 75 13 aa a3 5d 1a 2a 3d 98 21 2a 93 7f 28 2a
       -1.309705e-13 1.3710434e-13 1.4352491e-13 1.4965659e-13
000060 06 a5 23 aa bc 26 13 2a 21 b2 31 aa da b2 11 2a
       -1.4534562e-13 1.3069661e-13 -1.5782559e-13 1.2940639e-13
000070 3b f2 0a aa 05 37 18 2a 64 91 13 aa cf 26 13 aa
       -1.2340903e-13 1.3519401e-13 -1.3106665e-13 -1.3069687e-13
000080 b3 2f 21 aa 99 4e 12 aa b3 ce 10 aa 57 42 12 2a
       -1.4316222e-13 -1.2994674e-13 -1.2861482e-13 1.2990421e-13
000090 cc 69 20 aa e7 1a 33 2a 34 61 14 aa d7 9f 35 2a
       -1.424756e-13 1.5907727e-13 -1.3178765e-13 1.6131485e-13
0000a0 a2 fb 24 aa db 1d 17 aa ff 74 30 2a 6f 26 1b 2a
       -1.4653429e-13 -1.3421852e-13 1.5672531e-13 1.37801e-13
0000b0 f4 65 1e 2a 68 ac 21 2a 2e 95 13 aa a3 f4 34 2a
       1.4068591e-13 1.4359488e-13 -1.310798e-13 1.6072087e-13
0000c0 89 4b 1f 2a 20 ff 1d 2a f5 4f 37 2a 9b eb 1a aa
       1.4148243e-13 1.4032915e-13 1.6281406e-13 -1.375969e-13
0000d0 dc 46 1d aa 99 ef 22 2a 5f ec 18 aa b9 93 1c aa
       -1.3968985e-13 1.4471618e-13 -1.358232e-13 -1.3906835e-13
0000e0 76 46 2d aa ad 26 30 aa 27 1d 1a aa 01 e9 19 aa
       -1.5389933e-13 -1.5645359e-13 -1.3688062e-13 -1.3669969e-13
0000f0 78 aa 18 aa f7 4b 13 aa 87 ab 1a 2a 8f 1f 1e aa
       -1.3559455e-13 -1.3082578e-13 1.3737458e-13 -1.4044168e-13
000100 a1 6a 19 aa e9 b6 12 2a f2 f2 15 2a b8 f0 3b 2a
       -1.3626124e-13 1.3030865e-13 1.3318147e-13 1.6692453e-13
000110 f3 d1 18 aa 03 17 2b 2a ab 09 14 2a f7 e9 1a 2a
       -1.3573153e-13 1.5195835e-13 1.3148395e-13 1.375912e-13
000120 e6 ca 19 2a 4b 5e 17 2a e5 87 27 2a 6d 30 31 aa
       1.3659524e-13 1.3444209e-13 1.4879727e-13 -1.5737559e-13
000130 59 cd 29 2a e5 65 1f aa 70 91 25 2a 6f c0 1d 2a
       1.508146e-13 -1.4157389e-13 1.4705403e-13 1.4011165e-13
000140 20 95 15 2a 71 73 18 aa ba 94 13 aa eb d8 3a aa
       1.3285597e-13 -1.3540364e-13 -1.3107823e-13 -1.6595377e-13
000150 7e 2d 38 aa 02 98 1a 2a 52 2d 19 aa 72 59 22 2a
       -1.6358266e-13 1.3730686e-13 -1.3604853e-13 1.4419523e-13
000160 1d 47 12 aa 09 81 2d 2a 1a b0 16 2a 29 71 14 2a
       -1.2992077e-13 1.5410255e-13 1.3383774e-13 1.3184301e-13
000170 cb 1b 22 2a 33 17 1d aa 4b 7a 1d aa 1f 07 15 aa
       1.4398133e-13 -1.395245e-13 -1.398683e-13 -1.3236329e-13
000180 3b a0 13 2a e4 ff 19 aa 15 88 12 aa a0 06 23 2a
       1.3111814e-13 -1.367791e-13 -1.3014618e-13 1.4479607e-13
000190 87 e0 15 2a 4a 94 17 aa 7c ab 13 aa 23 85 17 2a
       1.3311757e-13 -1.3462942e-13 -1.3115718e-13 1.3457685e-13
0001a0 c8 88 14 2a ab 69 1a 2a e6 cd 14 aa e9 4f 16 aa
       1.3192496e-13 1.3714609e-13 -1.3216476e-13 -1.3350401e-13
0001b0 a8 64 f3 29 a9 92 1a 2a 33 5e 1e aa f5 eb 15 2a
       1.0808829e-13 1.372883e-13 -1.4065901e-13 1.3315722e-13
0001c0 f1 b8 2f 2a 0d 28 18 aa fa 8b 1b aa 8f f0 13 2a
       1.5607287e-13 -1.3514207e-13 -1.381533e-13 1.3139683e-13
0001d0 9b e3 27 2a 62 89 16 2a 01 91 12 aa d1 91 26 aa
       1.4911546e-13 1.337034e-13 -1.3017713e-13 -1.4794352e-13
0001e0 5d 53 1b aa 5c e3 1c 2a e0 7e c9 a9 df 6e 21 2a
       -1.3795688e-13 1.3934464e-13 -8.9482024e-14 1.4338139e-13
0001f0 27 85 24 aa dd 20 13 aa 49 11 1d 2a 3b a7 14 2a
       -1.4612323e-13 -1.3067625e-13 1.3950398e-13 1.320306e-13
000200 c2 46 e8 aa 04 69 50 2a 53 28 cd aa dd b1 cb 2a
       -4.1260577e-13 1.8510546e-13 -3.6443296e-13 3.618346e-13
000210 66 09 2d 2a 18 7e a5 a9 62 66 f3 2a b0 b2 f4 2a
       1.5368747e-13 -7.349346e-14 4.3236514e-13 4.3467096e-13
000220 56 6d d9 aa c9 6a c4 aa 86 5d 3e aa 86 76 e1 aa
       -3.862281e-13 -3.489069e-13 -1.6907837e-13 -4.005027e-13
000230 b5 b7 bc a9 04 2d b1 aa 24 3f ea 2a 23 82 eb aa
       -8.380745e-14 -3.1472752e-13 4.1610563e-13 -4.1834686e-13
000240 bc 1f 85 2a 91 07 bd 2a f5 f0 b3 2a f0 a8 dd 2a
       2.3647566e-13 3.3578395e-13 3.1963985e-13 3.937471e-13
000250 d8 71 f6 aa a0 67 d3 2a 22 92 a9 2a 0b ba 84 2a
       -4.3777373e-13 3.7553034e-13 3.012183e-13 2.3577004e-13
000260 d8 1f 9d aa fb f1 f8 2a 2f 8a 26 aa 1b 6c 01 2b
       -2.7910898e-13 4.4221557e-13 -1.4791704e-13 4.5980033e-13
000270 87 6e ba aa cc e2 dc 2a 1e 51 f7 aa 1e 05 fb aa
       -3.311693e-13 3.9237222e-13 -4.39323e-13 -4.4590107e-13
000280 b5 d7 ac aa fc 3c ff aa 05 d4 ba aa 94 d3 ff 2a
       -3.0703014e-13 -4.5339416e-13 -3.3187355e-13 4.544391e-13
000290 4a 79 a3 aa 46 c1 1a 2a f4 7e f3 aa 4b 64 f7 29
       -2.9038778e-13 1.3745003e-13 -4.3253563e-13 1.09864015e-13
0002a0 55 02 98 aa 18 ba e2 aa 53 84 33 2a c4 f9 32 2a
       -2.7002242e-13 -4.0274793e-13 1.5944303e-13 1.5896231e-13
0002b0 1a 05 bc 2a 01 e8 a9 2a 38 5d f6 aa 30 86 06 2a
       3.3399049e-13 3.0181416e-13 -4.3763062e-13 1.1948146e-13
0002c0 e4 b6 b6 2a 22 13 be 2a 3b 1b d4 29 bc 0c cf aa
       3.24566e-13 3.3764056e-13 9.419415e-14 -3.6779423e-13
0002d0 4b e3 bd aa 1d 45 88 2a a5 e2 da aa 46 6c c5 aa
       -3.373086e-13 2.420641e-13 -3.8881845e-13 -3.506936e-13
0002e0 e5 04 55 aa be c6 3a aa ce 1e d2 aa 62 3c d4 aa
       -1.8919898e-13 -1.6589071e-13 -3.732487e-13 -3.7700664e-13
0002f0 d8 91 db aa af 7f f9 aa aa a0 cf 2a 61 9e bd aa
       -3.9003414e-13 -4.4319884e-13 3.688207e-13 -3.3683042e-13
000300 ac ba d6 aa a0 ae fb 2a bd 79 ea 2a 7f 35 b7 a9
       -3.8143566e-13 4.4707727e-13 4.1651223e-13 -8.1361126e-14
000310 19 a3 da aa 39 30 72 2a f6 eb f4 2a 43 29 cf 2a
       -3.883775e-13 2.1510648e-13 4.3506838e-13 3.6799218e-13
000320 6b 45 d3 2a c7 a3 e1 2a 85 95 87 2a a2 1d 2d aa
       3.7529298e-13 4.0081672e-13 2.4084567e-13 -1.5375768e-13
000330 01 ae 7a 2a 1d 4b b6 aa 70 77 94 2a a7 02 c0 2a
       2.226483e-13 -3.2381815e-13 2.6372958e-13 3.4107892e-13
000340 b1 1b ec 2a 54 a6 db aa 6f cb f7 aa de 46 63 a9
       4.1941236e-13 -3.9017628e-13 -4.4017174e-13 -5.0465593e-14
000350 e0 48 c2 a9 1b d3 cf 2a b2 04 d8 aa 9c 77 a5 2a
       -8.6279725e-14 3.691707e-13 -3.8372566e-13 2.9392884e-13
000360 70 80 ff aa eb 39 52 2a 6c 1e e5 2a c5 55 f4 2a
       -4.538622e-13 1.8671841e-13 4.069968e-13 4.3402621e-13
000370 41 da a9 2a 9b b5 c4 aa 8c 02 bc aa b8 d0 ee aa
       3.0171875e-13 -3.4942608e-13 -3.3397276e-13 -4.242212e-13
000380 4a 73 f4 2a 7e b4 d3 aa fb d2 fe aa 80 4f a2 2a
       4.3423105e-13 -3.760637e-13 -4.526586e-13 2.8832145e-13
000390 ca c8 ea 2a b8 a9 dc aa f9 0b f7 aa 0a 6d e1 2a
       4.1706075e-13 -3.9197617e-13 -4.3884322e-13 4.004369e-13
0003a0 0e 73 f1 2a c8 ec d1 2a 30 a1 f0 aa 94 94 e8 aa
       4.2890035e-13 3.7290158e-13 -4.274441e-13 -4.1314575e-13
0003b0 df 1a ec 2a db eb ce 2a 9e 6c ba aa 8f 66 eb 2a
       4.1940667e-13 3.6756608e-13 -3.3115606e-13 4.181555e-13
0003c0 07 96 3f 2a 98 a0 dd aa 64 b5 ca aa ab 32 f6 2a
       1.7016259e-13 -3.936892e-13 -3.6008273e-13 4.3733536e-13
0003d0 c5 4a 88 2a de 0c e5 2a 62 9b fc aa 78 86 8e aa
       2.4210335e-13 4.06875e-13 -4.487201e-13 -2.5317574e-13
0003e0 9a 71 cc aa ff 2e c3 2a 29 30 17 a8 34 a6 ab 2a
       -3.6316506e-13 3.4671568e-13 -8.392627e-15 3.0491029e-13
0003f0 99 b1 9a aa 70 46 fa aa 94 14 c3 2a fe 5e f1 2a
       -2.7479128e-13 -4.4457797e-13 3.4653237e-13 4.2876114e-13

exp_avg_sq f4 [128, 128]
000000 34 58 d7 2e b5 fc fa 2d ac 40 58 2e cc da 58 2e
       9.792736e-11 2.8533934e-11 4.9170154e-11 4.9307045e-11
000010 8c 0c 25 2d a0 b2 86 2d 97 4a 4a 2c 46 7c 38 2e
       9.38195e-12 1.5313362e-11 2.8747332e-12 4.1947133e-11
000020 79 74 08 2d 0c cb f4 2e 0b c6 82 2d 79 30 14 2d
       7.756567e-12 1.1131904e-10 1.4867238e-11 8.423589e-12
000030 c0 8c a8 2d cf 0d 80 2d e4 ee f1 2c 21 67 70 2c
       1.9161894e-11 1.4558047e-11 6.876154e-12 3.41633e-12
000040 ce b1 10 2e d7 99 6f 2e 8e b7 e8 2c 68 f1 95 2e
       3.289973e-11 5.4478946e-11 6.6142153e-12 6.818618e-11
000050 06 60 b0 2e 42 6e b5 2d 49 9a 83 2e a3 34 bc 2e
       8.0206106e-11 2.0626282e-11 5.984597e-11 8.5586004e-11
000060 a3 3c 8c 2e 68 bf 31 2e 60 9e 2e 2d 60 63 17 2e
       6.377234e-11 4.0415143e-11 9.925921e-12 3.4421688e-11
000070 6f 4f 90 2e 65 11 03 2f ad 09 6f 2e 8a b5 b4 2c
       6.562472e-11 1.192056e-10 5.4350902e-11 5.1360626e-12
000080 9b 97 fb 2d a4 f9 41 2e 4e 9b 70 2e 79 d4 d9 2e
       2.8602723e-11 4.4104845e-11 5.470762e-11 9.90576e-11
000090 ce fd 24 2e c5 b4 dc 2d a2 dd 56 2e 48 d6 93 2e
       3.7514707e-11 2.5091382e-11 4.8854816e-11 6.72285e-11
0000a0 15 03 57 2e a5 9e aa 2e c9 d2 00 2c 30 27 ba 2d
       4.8888078e-11 7.758886e-11 1.8306903e-12 2.1163155e-11
0000b0 1a 63 2b 2e 5d 48 16 2e a5 e6 3c 2e 0c 79 c3 2b
       3.896892e-11 3.4170323e-11 4.2951104e-11 1.3889181e-12
0000c0 dd 46 47 2e 2b 87 e9 2d db 6f 26 2d d9 f3 d7 2d
       4.53103e-11 2.654906e-11 9.4608444e-12 2.455096e-11
0000d0 25 50 68 2e d4 c7 98 2e 40 2d 86 2d c3 98 ae 2d
       5.2821875e-11 6.947656e-11 1.5254131e-11 1.984935e-11
0000e0 88 7a d6 2e bd 2f 14 2e 8c c9 d1 2e 34 b6 a7 2d
       9.753359e-11 3.3693704e-11 9.5400216e-11 1.9066616e-11
0000f0 63 a8 a6 2c 25 d3 84 2e b0 a7 75 2e e5 3b 9a 2c
       4.7366984e-12 6.040172e-11 5.5855487e-11 4.383593e-12
000100 a8 05 2b 2e 29 97 4e 2e 70 f5 ce 2e 0c 03 c3 2c
       3.8885922e-11 4.6973234e-11 9.411394e-11 5.5425716e-12
000110 fd 93 d8 2d c4 ea 88 2d 3f ca 73 2e f2 ce 78 2e
       2.4622077e-11 1.5565667e-11 5.5431434e-11 5.6572476e-11
000120 dc 82 b0 2e 54 82 27 2e 13 7e db 2d c7 2d b2 2c
       8.026799e-11 3.808716e-11 2.4953406e-11 5.0641466e-12
000130 07 86 8b 2c 6a 1e 6d 2e 17 e9 a5 2c 9e cf 21 2e
       3.9654976e-12 5.3914574e-11 4.7154602e-12 3.6791563e-11
000140 d4 c2 ad 2e 1b ac 98 2e ea 9c 93 2e 5e 9b 90 2e
       7.9017376e-11 6.942732e-11 6.7126596e-11 6.5759606e-11
000150 80 15 d4 2c fe 59 1b 2e 79 67 6a 2e 24 74 e6 2d
       6.0277894e-12 3.532285e-11 5.3297342e-11 2.619955e-11
000160 4a 04 47 2e a8 71 dd 2c 50 43 1a 2e 56 93 cd 2d
       4.525117e-11 6.293816e-12 3.507533e-11 2.3371232e-11
000170 4e c8 32 2c 6c 23 97 2d 06 59 c6 2d 27 b0 4d 2e
       2.5406513e-12 1.7182443e-11 2.2549528e-11 4.6768058e-11
000180 6b 38 5c 2e 40 04 dc 2d 5a d0 c4 2c 52 1b 53 2e
       5.0072318e-11 2.5012992e-11 5.5937867e-12 4.800011e-11
000190 71 8d dd 2d a9 ae 63 2e 29 fb c2 2e a4 88 e3 2c
       2.5187604e-11 5.1768954e-11 8.8667136e-11 6.466898e-12
0001a0 a8 70 8e 2e 68 51 d4 2e 63 ed 9e 2e 09 62 2e 2e
       6.477424e-11 9.6551045e-11 7.2271765e-11 3.9650092e-11
0001b0 1e 57 55 2e 96 c8 8c 2b d5 35 57 2e cc fe d0 2c
       4.850797e-11 1.0003272e-12 4.8933153e-11 5.9400037e-12
0001c0 1c f1 2b 2e 30 b1 91 2e 12 f3 d6 2d 9d cb 24 2e
       3.9095047e-11 6.6253114e-11 2.4436928e-11 3.7470128e-11
0001d0 e8 e2 77 2d df 18 2b 2e 0f fb 81 2e b1 5f 22 2e
       1.4090708e-11 3.890299e-11 5.910838e-11 3.6919526e-11
0001e0 b6 66 83 2d b0 79 3d 2e 8c 46 84 2d d4 fc 9b 2c
       1.4938589e-11 4.3081705e-11 1.5037992e-11 4.4334345e-12
0001f0 3f 20 3b 2e 4e 71 50 2e d4 dc 02 2e 70 83 30 2e
       4.2547518e-11 4.739436e-11 2.9754713e-11 4.0134507e-11
000200 c3 8d 1a 30 fb 4d ae 2e d6 f1 0b 30 9d 0e 13 30
       5.622633e-10 7.926456e-11 5.0911575e-10 5.3499055e-10
000210 31 58 04 30 9f a5 87 2e 1a 6c 0c 2f fc 81 07 30
       4.814665e-10 6.1685095e-11 1.2771331e-10 4.9297433e-10
000220 4a da 77 2f d5 0b 1d 30 38 2a ae 2e b3 99 02 2f
       2.2542071e-10 5.713308e-10 7.9201035e-11 1.1878036e-10
000230 be be f9 2f ec cf d1 2f 60 43 8e 2f a8 9d a3 2e
       4.5428367e-10 3.8164616e-10 2.5877522e-10 7.440387e-11
000240 c6 11 12 30 05 31 17 30 ff 60 d5 2f 1c 3b 19 30
       5.313975e-10 5.500314e-10 3.8813394e-10 5.5745075e-10
000250 88 cc 19 30 59 d3 46 2f d2 f1 18 30 a8 c9 19 30
       5.595173e-10 1.8083081e-10 5.5640925e-10 5.5947647e-10
000260 da 55 10 30 86 72 17 30 76 9c 9e 2d f5 46 db 2f
       5.25089e-10 5.509623e-10 1.8032003e-11 3.9886286e-10
000270 df 6d 12 30 d9 e3 1c 30 c3 0e 16 30 8c 27 c6 2f
       5.3270627e-10 5.707626e-10 5.459066e-10 3.604409e-10
000280 83 c1 fd 2f 04 a5 10 30 40 50 12 30 48 2b 1c 30
       4.615793e-10 5.2621396e-10 5.322853e-10 5.6813976e-10
000290 fa 05 07 30 3e 76 94 2f 27 53 18 30 42 a7 10 30
       4.9121207e-10 2.700506e-10 5.5415444e-10 5.262458e-10
0002a0 af 05 15 30 22 db 19 30 08 30 64 2f c6 fa 02 30
       5.421396e-10 5.597248e-10 2.0753543e-10 4.7650095e-10
0002b0 f9 6d e5 2f 3a 0b 06 30 5a c1 13 30 0a 48 a4 2e
       4.1732998e-10 4.876487e-10 5.375306e-10 7.470653e-11
0002c0 a9 a3 14 30 96 77 02 30 21 69 e2 2d 6b d6 0a 30
       5.407466e-10 4.7463666e-10 2.5739912e-11 5.0508814e-10
0002d0 e8 b8 18 30 a5 22 15 30 2e 34 ae 2f 00 c3 02 30
       5.5560045e-10 5.4255117e-10 3.1687492e-10 4.7570836e-10
0002e0 48 2f 1d 30 a2 65 c2 2f a5 71 1c 30 d0 26 d8 2f
       5.718346e-10 3.536061e-10 5.691397e-10 3.931775e-10
0002f0 9e 78 8f 2f 4a ae 13 30 aa e7 18 30 df 4d 89 2f
       2.6097252e-10 5.372597e-10 5.562649e-10 2.4975486e-10
000300 4e 30 15 30 60 d9 10 30 f3 b5 1d 30 bb 77 ad 2f
       5.427453e-10 5.2695803e-10 5.737483e-10 3.155359e-10
000310 81 79 dc 2f 22 8d ba 2f 35 19 14 30 da e6 16 30
       4.01041e-10 3.3933484e-10 5.387791e-10 5.489774e-10
000320 fb 36 1a 30 20 3a fd 2f d5 8b 97 2e 8b 41 99 2f
       5.6103006e-10 4.6061732e-10 6.891524e-11 2.787711e-10
000330 6d 15 ea 2e 3b 8d 13 30 85 07 cf 2f d3 11 09 30
       1.0644894e-10 5.367899e-10 3.7658424e-10 4.986564e-10
000340 8c ec 1a 30 1a f8 19 30 14 25 18 30 68 79 16 30
       5.6361027e-10 5.601365e-10 5.534997e-10 5.474221e-10
000350 2e 79 9d 2f 80 53 0a 30 ce 4d 10 30 5a e0 0d 30
       2.8644237e-10 5.032277e-10 5.249746e-10 5.1614324e-10
000360 74 57 0a 30 8a ed ad 2f 3c e4 0d 30 c7 a0 00 30
       5.0328386e-10 3.1637298e-10 5.161984e-10 4.6794607e-10
000370 9c f1 b5 2e 41 6c aa 2d e0 e5 09 30 28 c8 12 30
       8.2738455e-11 1.9374837e-11 5.016698e-10 5.339893e-10
000380 0c 44 16 30 85 12 0b 30 7c fe 22 2f 60 7a 14 30
       5.466638e-10 5.0594223e-10 1.4824225e-10 5.401599e-10
000390 9f a4 f4 2f 96 42 0c 30 a7 45 1c 30 75 4f 8a 2d
       4.4500312e-10 5.102633e-10 5.685145e-10 1.572407e-11
0003a0 e8 f1 19 30 28 d9 1d 30 b1 08 10 30 f1 97 00 30
       5.6004845e-10 5.7424865e-10 5.2399246e-10 4.678205e-10
0003b0 80 a0 14 30 1b 7e a1 2f de e6 11 30 95 9b 05 2f
       5.407017e-10 2.9375333e-10 5.3078775e-10 1.2151553e-10
0003c0 37 a1 06 30 44 d2 17 30 53 3d f0 2f 1e 0d 09 30
       4.8978016e-10 5.5232285e-10 4.369932e-10 4.985895e-10
0003d0 7b 43 c2 2d 79 17 11 30 6d 47 1a 30 d2 98 0f 30
       2.2085214e-11 5.278405e-10 5.6126376e-10 5.224027e-10
0003e0 56 dc 82 2f 75 65 04 30 ee 00 d0 2f 6f 11 41 2f
       2.380342e-10 4.81655e-10 3.783564e-10 1.7559441e-10
0003f0 07 d9 0a 30 71 4c 14 30 c1 9a e0 2f 11 41 11 30
       5.051252e-10 5.3950716e-10 4.0855322e-10 5.284316e-10

exp_avg f4 [128]
000000 81 df 5a 30 78 f9 0f b1 9f 18 96 31 1a 19 b5 b0
       7.9625556e-10 -2.0951045e-09 4.3683737e-09 -1.3176618e-09
000010 85 a9 af b1 eb c6 45 31 d2 f8 8f b1 61 14 38 b1
       -5.1124425e-09 2.8780345e-09 -4.1901353e-09 -2.6787108e-09
000020 c8 d2 5a 31 8b 8a c6 30 f7 50 6e 31 d2 e7 84 31
       3.184299e-09 1.4445772e-09 3.4679581e-09 3.8680605e-09
000030 f4 b3 03 b0 0c 41 b5 30 2d 39 8f b1 dd 03 ed 31
       -4.791325e-10 1.3187971e-09 -4.168348e-09 6.898047e-09
000040 3e 14 53 b1 ab 57 c3 b0 b3 58 d9 b1 9d 29 a9 b0
       -3.0716047e-09 -1.4213034e-09 -6.325615e-09 -1.2308196e-09
000050 64 1f 64 30 99 5b 39 b1 fe c6 ae b1 39 63 08 b1
       8.2990526e-10 -2.697311e-09 -5.0866893e-09 -1.9847006e-09
000060 f7 8d 54 31 af c5 2c b1 b8 c1 67 31 8e 5e 52 b1
       3.0930758e-09 -2.5141664e-09 3.372504e-09 -3.061277e-09
000070 cb 50 b5 30 1d 48 29 b1 77 d0 41 31 a2 2d 9a 31
       1.3192446e-09 -2.4633728e-09 2.8203695e-09 4.4871777e-09
000080 df 8c 80 31 dc 93 09 31 52 58 cf 30 a7 e7 38 b1
       3.7413055e-09 2.0020172e-09 1.5086334e-09 -2.6907203e-09
000090 ad 66 dd 30 2c 89 56 b0 2a ea 3a 31 4f 89 8f b1
       1.6109049e-09 -7.804768e-10 2.719967e-09 -4.177458e-09
0000a0 9f 76 ce 31 00 f0 f6 30 8d e1 ed b1 8c 52 33 b1
       6.0088747e-09 1.7967068e-09 -6.92325e-09 -2.609485e-09
0000b0 a8 63 3a b1 6d 3a cf b1 7c b7 45 31 47 89 c4 b1
       -2.712321e-09 -6.031135e-09 2.8771572e-09 -5.7199574e-09
0000c0 84 ec 5d b1 60 e4 85 b1 14 fd 89 b1 7a de 7a 31
       -3.2294176e-09 -3.8967727e-09 -4.0159964e-09 3.6506251e-09
0000d0 d3 0e 94 30 b1 af ac 2f 74 34 c0 31 2e 00 79 31
       1.0772631e-09 3.1411454e-10 5.5938987e-09 3.623437e-09
0000e0 f4 bd 1a 31 5a 2a c7 2f 67 4e 6f 30 1e 18 70 31
       2.2517925e-09 3.6227982e-10 8.705911e-10 3.4938306e-09
0000f0 cb fd ea 31 2c d8 82 31 23 32 30 b1 1d 3a 9f 31
       6.8391492e-09 3.808074e-09 -2.563987e-09 4.6341158e-09
000100 a4 e1 77 31 1b 56 52 b1 97 5a a0 b1 66 35 b0 30
       3.6071492e-09 -3.0607967e-09 -4.6669117e-09 1.2820862e-09
000110 28 e2 81 31 19 83 d9 30 20 e8 e4 b0 09 77 33 b1
       3.780105e-09 1.5826088e-09 -1.6655157e-09 -2.6115592e-09
000120 09 eb 40 b0 68 24 1c b1 c0 88 aa af 9d 02 e5 31
       -7.01832e-10 -2.2721682e-09 -3.1019987e-10 6.6650743e-09
000130 12 bb ae b1 9b 86 7f 31 64 da 1a b1 26 67 88 b1
       -5.085334e-09 3.7183898e-09 -2.253409e-09 -3.9698476e-09
000140 62 91 52 b1 50 27 8f 31 7f 24 85 31 23 c7 77 30
       -3.0641663e-09 4.166317e-09 3.8749586e-09 9.0141067e-10
000150 99 b4 91 31 06 11 3e b1 1b 74 15 31 fa 2b 9a b1
       4.240587e-09 -2.7658316e-09 2.1748352e-09 -4.4869894e-09
000160 2e 41 61 31 c6 18 d3 b1 8e ef 70 b1 c2 66 ac b1
       3.277886e-09 -6.1437246e-09 -3.5060768e-09 -5.017541e-09
000170 ac 67 51 b1 9b a0 9a 31 bb ae 41 31 ce 12 89 31
       -3.0472433e-09 4.5002486e-09 2.818452e-09 3.9893626e-09
000180 cb 7e b6 b0 7a b1 ba 31 85 98 b7 31 9f bb 38 b1
       -1.327828e-09 5.433489e-09 5.3433404e-09 -2.6882174e-09
000190 68 0f 4f b1 23 b0 b4 30 cf 86 07 31 e6 d4 74 b1
       -3.0131222e-09 1.3146785e-09 1.9721715e-09 -3.5627692e-09
0001a0 81 58 d8 b0 bf 39 54 b1 51 f5 46 31 c6 28 88 31
       -1.5741223e-09 -3.0882885e-09 2.8952238e-09 3.9627563e-09
0001b0 9d 96 b4 af 57 4b 35 b1 7c 03 32 31 19 08 52 b1
       -3.2848826e-10 -2.6381792e-09 2.590439e-09 -3.0563625e-09
0001c0 18 f7 8f af 1f 70 3b 31 13 aa 17 31 59 4a 2e b1
       -2.618712e-10 2.7275815e-09 2.2070068e-09 -2.5362594e-09
0001d0 32 3c 12 b1 33 dc 37 b1 ad 6c 17 31 52 99 6b 31
       -2.1280013e-09 -2.6755174e-09 2.2035167e-09 3.4284153e-09
0001e0 7b a6 92 31 04 52 82 b1 3a c9 0b b1 fc 9d 1a b2
       4.268086e-09 -3.792822e-09 -2.0341546e-09 -8.999901e-09
0001f0 af 05 81 31 4a 49 7c 31 0f 78 6f b1 a5 4d 4a b1
       3.7550403e-09 3.6712486e-09 -3.4847323e-09 -2.9439005e-09
