lightning_logs/version_77/checkpoints/epoch=7.ckpt (torch_old, 211901 bytes, 18 tensors)

exp_avg f4 [128, 81]
-5.5957383e-07 -3.760606e-06 -6.3348416e-08 -1.969359e-07 0.0 0.0 -1.0133392e-07 -5.4582063e-09
-5.4661755e-09 -2.6031175e-09 -3.9389818e-07 -5.0595897e-08 -2.4936662e-07 0.0 -4.4416084e-09 -2.0711048e-09
5.341875e-11 -1.7027214e-15 -9.626265e-16 -1.7225814e-10 2.444534e-13 -1.4437709e-11 -1.271822e-09 -4.6461228e-14
-1.3012675e-08 -7.973209e-09 0.0 -1.8373346e-08 0.0 -8.3137365e-08 -4.2179536e-08 -7.631175e-09
-1.9550493e-08 -6.34155e-09 -1.4791816e-08 -1.1363784e-08 -5.5717294e-08 -6.210949e-08 -5.857889e-11 -8.639475e-09
-8.969715e-09 -4.8611483e-08 -3.7543426e-08 -9.678099e-09 -6.504534e-08 -3.6696486e-09 -2.7736622e-08 -2.4634705e-08
-4.162268e-08 -3.0188032e-09 -2.1082922e-08 -2.8725443e-08 -5.1019293e-11 -1.17271615e-08 -3.6492345e-09 -1.9572042e-06
-3.0683623e-07 -5.312517e-07 -1.186999e-06 -3.2391613e-06 -4.773483e-07 -4.4587043e-07 -1.5346061e-06 -1.220624e-06
-1.8259682e-08 -1.6118958e-07 -9.976059e-07 -5.7550807e-07 -1.834794e-06 -1.3513843e-06 -3.7555074e-07 -9.917651e-09
-1.2953485e-06 -1.6656638e-06 -1.8986123e-06 -5.493696e-07 -2.8730727e-07 -7.0860375e-07 -3.1412114e-08 -2.9914352e-07
-2.0479085e-08 -4.713326e-07 -4.5971187e-06 -4.5566747e-08 -1.6981366e-07 0.0 0.0 -7.336063e-08
-7.998482e-09 -6.90516e-09 -1.202386e-09 -3.5722147e-07 -2.914893e-08 -2.4433012e-07 0.0 -6.026673e-09
8.009223e-11 -6.693334e-12 -1.4332123e-15 -1.3811764e-15 1.3289721e-10 1.372725e-12 -5.036147e-11 -1.1805525e-09
-1.3040792e-13 -1.4665238e-08 -8.751357e-09 0.0 -2.4408548e-08 0.0 -9.097167e-08 -4.6625843e-08
-6.20644e-09 -1.7945176e-08 -8.632989e-09 -1.437284e-08 -1.15563195e-08 -4.892827e-08 -4.2603197e-08 2.1716562e-10
-8.028619e-09 -7.3608364e-09 -4.497528e-08 -3.6719175e-08 -8.680132e-09 -5.6462394e-08 -4.9197815e-09 -2.2226464e-08
-1.5957152e-08 -3.8407983e-08 -2.7347282e-09 -1.24743496e-08 -3.5269508e-08 4.5695555e-11 -1.7065107e-08 -4.1963633e-09
-1.4298765e-06 -2.6007413e-07 -5.839577e-07 -1.1569481e-06 -3.182068e-06 -3.6132946e-07 -4.446782e-07 -1.3636661e-06
-1.3763317e-06 -2.0590658e-08 -1.9816439e-07 -7.7102453e-07 -5.689235e-07 -2.0035425e-06 -1.821385e-06 -3.0215628e-07
-1.0718532e-08 -1.1882232e-06 -1.5106968e-06 -2.5340262e-06 -6.3570735e-07 -2.7824746e-07 -5.01878e-07 -2.3245681e-08
-3.630159e-07 -2.375691e-08 -3.2777217e-07 -3.3122976e-06 -3.957752e-08 -7.97457e-08 0.0 0.0
-4.063052e-08 -5.8533396e-09 -3.0242755e-09 -2.7860056e-09 -1.286321e-07 -3.2834276e-08 -1.4269558e-07 0.0
-2.353096e-09 -1.2468141e-09 1.0526742e-10 -3.1638713e-16 -1.4991553e-16 -1.3333813e-10 5.2889283e-14 -1.3293877e-12
-7.904262e-10 -1.5186231e-15 -1.23492185e-08 -7.67591e-09 0.0 -1.3591551e-08 0.0 -3.3923257e-08
-2.819872e-08 -3.033579e-09 -1.286409e-08 -3.8400283e-09 -7.1294517e-09 -6.7536967e-09 -2.9374068e-08 -2.9993604e-08
1.2705903e-11 -6.5491625e-09 -3.6528556e-09 -1.9663894e-08 -1.6357586e-08 -4.582387e-09 -3.2447584e-08 -2.4923636e-09
-2.032183e-08 -1.4929375e-08 -3.7826393e-08 -1.6933891e-09 -1.2444318e-08 -1.2552613e-08 -2.0145524e-11 -6.460356e-09
-2.1543045e-09 -9.556325e-07 -1.9203594e-07 -3.9172613e-07 -4.4490662e-07 -1.5294012e-06 -2.713138e-07 -3.292011e-07
-9.515156e-07 -8.668577e-07 -8.946191e-09 -8.898601e-08 -6.4361285e-07 -2.8756824e-07 -7.5657545e-07 -9.302769e-07
-2.1279936e-07 -5.171021e-09 -5.4117845e-07 -9.581471e-07 -1.6303491e-06 -3.550159e-07 -1.5141426e-07 -3.2327432e-07
-1.7149949e-08 -1.789937e-07 -1.1217343e-08 -5.492054e-07 -4.1383864e-06 -5.0988515e-08 -1.5511975e-07 0.0
0.0 -9.453349e-08 -5.4282103e-09 -5.744591e-09 -3.641692e-09 -3.065306e-07 -4.60765e-08 -1.4656574e-07
00000000: 9f35 16b5 b85e 7cb6 290a 88b3 5475 53b4
00000010: 0000 0000 0000 0000 e99c d9b3 e48a bbb1
00000020: fdd0 bbb1 87e2 32b1 f478 d3b4 c74e 59b3
00000030: b0e0 85b4 0000 0000 cd9c 98b1 4353 0eb1
00000040: 2af0 6a2e 5563 f5a6 a6ba 8aa6 5b66 3daf
00000050: 739d 892a a9fd 7dad 42cc aeb0 263e 51a9
00000060: 5a8e 5fb2 8bfa 08b2 0000 0000 6ad3 9db2
00000070: 0000 0000 4089 b2b3 e428 35b3 431a 03b2
00000080: fdef a7b2 dde4 d9b1 181f 7eb2 733a 43b2
00000090: d04d 6fb3 0e61 85b3 fcd0 80ae d06c 14b2
000000a0: 3919 1ab2 e4c8 50b3 6f3f 21b3 bb44 26b2
000000b0: 0eaf 8bb3 242d 7cb1 7a41 eeb2 4a9c d3b2
000000c0: 9fc4 32b3 5973 4fb1 d619 b5b2 ebbf f6b2
000000d0: 9e62 60ae 9a78 49b2 03c6 7ab1 8358 03b6
000000e0: 40bb a4b4 579b 0eb5 fa50 9fb5 5e60 59b6
000000f0: 2023 00b5 f75f efb4 aaf8 cdb5 52d4 a3b5
00000100: 77d9 9cb2 7413 2db4 7ae5 85b5 9d7c 1ab5
00000110: 0b43 f6b5 3661 b5b5 4d9f c9b4 4a62 2ab2
00000120: d6db adb5 c68f dfb5 d2d3 feb5 6478 13b5
00000130: 363f 9ab4 e136 3eb5 fce9 06b3 f999 a0b4
00000140: fce9 afb2 760b fdb4 f340 9ab6 2bb5 43b3
00000150: 0656 36b4 0000 0000 0000 0000 6f8a 9db3
00000160: b269 09b2 6e42 edb1 3241 a5b0 25c8 bfb4
00000170: 2d63 fab2 7a2c 83b4 0000 0000 2d13 cfb1
00000180: eb1f b02e 3180 ebac 338c cea6 6a0c c7a6
00000190: 3d1f 122f a131 c12b f97d 5dae 0041 a2b0
000001a0: 86d3 12aa 66f2 7bb2 e058 16b2 0000 0000
000001b0: f7aa d1b2 0000 0000 345c c3b3 a841 48b3
000001c0: 6c40 d5b1 dc25 9ab2 4a50 14b2 6bec 76b2
000001d0: 3b89 46b2 3425 52b3 b6fa 36b3 b0c6 6e2f
000001e0: 3dee 09b2 9aea fcb1 d82a 41b3 29b5 1db3
000001f0: a01f 15b2 0f81 72b3 db0a a9b1 83ec beb2
00000200: 2612 89b2 06f6 24b3 d9ed 3bb1 c54e 56b2
00000210: 3c7b 17b3 9ff8 482e 9196 92b2 9a2f 90b1
00000220: 2fea bfb5 51a0 8bb4 45c1 1cb5 6f48 9bb5
00000230: 838b 55b6 befc c1b4 1bbc eeb4 3607 b7b5
00000240: 66ba b8b5 56df b0b2 03c7 54b4 67f8 4eb5
00000250: 20b8 18b5 9974 06b6 5076 f4b5 0b38 a2b4
00000260: 9a24 38b2 0a7b 9fb5 26c3 cab5 3d0e 2ab6
00000270: 7aa5 2ab5 0a62 95b4 cbb8 06b5 cbad c7b2
00000280: 86e4 c2b4 ff11 ccb2 aaf8 afb4 d748 5eb6
00000290: f2fb 29b3 aa40 abb3 0000 0000 0000 0000
000002a0: bb81 2eb3 851e c9b1 9ed3 4fb1 ee73 3fb1
000002b0: 1f1e 0ab4 ab05 0db3 dd37 19b4 0000 0000
000002c0: 1ab4 21b1 5f5c abb0 4a7c e72e 8062 b6a5
000002d0: 41d7 2ca5 599b 12af 3131 6e29 3d18 bbab
000002e0: 4d45 59b0 4edb daa6 7028 54b2 02df 03b2
000002f0: 0000 0000 4680 69b2 0000 0000 04b3 11b3
00000300: a439 f2b2 4977 50b1 de00 5db2 3ff1 83b1
00000310: 52f7 f4b1 250e e8b1 4252 fcb2 51d2 00b3
00000320: 4d86 5f2d 0b07 e1b1 b705 7bb1 5ce9 a8b2
00000330: b682 8cb2 1a73 9db1 7f5c 0bb3 2046 2bb1
00000340: 2d90 aeb2 0b3e 80b2 8f76 22b3 d5bc e8b0
00000350: b0ca 55b2 faa6 57b2 b033 b1ad e4f9 ddb1
00000360: ed0a 14b1 4843 80b5 7032 4eb4 6e4e d2b4
00000370: 80db eeb4 d345 cdb5 16a9 91b4 0ebd b0b4
00000380: a76b 7fb5 02b2 68b5 c4b1 19b2 9418 bfb3
00000390: bdc4 2cb5 1463 9ab4 7817 4bb5 24b8 79b5
000003a0: d87d 64b4 c8ac b1b1 8045 11b5 af99 80b5
000003b0: 5ed2 dab5 0499 beb4 6f94 22b4 7c8e adb4
000003c0: 2351 93b2 6a31 40b4 65b6 40b2 1c6d 13b5
000003d0: 78dc 8ab6 77fe 5ab3 fe8e 26b4 0000 0000
000003e0: 0000 0000 5602 cbb3 0b83 bab1 f561 c5b1
000003f0: 5341 7ab1 3f91 a4b4 a6e5 45b3 af5f 1db4

exp_avg_sq f4 [128, 81]
7.988166e-13 3.3276326e-11 5.7813975e-15 9.342048e-14 0.0 0.0 1.4420275e-14 7.0940386e-17
6.8810416e-17 3.260776e-17 4.3979566e-13 5.274191e-15 2.2247192e-13 0.0 1.5118716e-17 4.6895976e-17
4.083248e-18 2.5045682e-19 1.7789031e-19 9.242889e-19 1.6278999e-18 3.5888673e-19 1.0512346e-17 1.40528e-19
1.5910593e-16 2.6900573e-16 0.0 1.4458712e-15 0.0 1.0564767e-14 3.4062945e-15 3.8199902e-16
7.7783846e-16 4.1561178e-16 7.12137e-16 2.833116e-16 4.5151362e-15 1.4171194e-14 2.5721871e-17 1.7381467e-16
1.9144092e-16 3.7077423e-15 2.3377377e-15 4.5874463e-16 8.041504e-15 7.210584e-18 1.5853586e-15 2.1293769e-15
5.5460062e-15 3.965125e-17 3.2147357e-16 1.6071438e-15 4.5479624e-17 3.4137874e-16 1.116457e-17 9.026609e-12
2.0845684e-13 5.7316624e-13 3.46199e-12 2.5834055e-11 6.6754165e-13 3.6352285e-13 5.4124947e-12 4.234275e-12
9.19382e-16 6.80015e-14 2.187059e-12 7.7392053e-13 7.006561e-12 4.563214e-12 3.693179e-13 7.8355646e-16
4.0823868e-12 6.4319205e-12 7.442304e-12 6.369343e-13 1.5866083e-13 8.5240934e-13 3.770726e-15 3.2654736e-13
7.5596976e-16 3.0252312e-13 2.553541e-11 2.035699e-15 4.2195156e-14 0.0 0.0 5.661196e-15
1.0037255e-16 5.546599e-17 2.0888048e-17 1.942048e-13 1.5414446e-15 1.212797e-13 0.0 1.4331579e-17
2.686281e-17 6.2702987e-18 1.1842967e-19 5.8152115e-20 2.2228934e-18 1.088133e-18 1.8772365e-19 1.344457e-17
2.7407084e-19 1.2251274e-16 1.6805823e-16 0.0 1.2845151e-15 0.0 6.421886e-15 1.7680652e-15
2.4784862e-16 4.7644894e-16 6.2229896e-16 3.8082757e-16 1.447732e-16 2.2029743e-15 4.027336e-15 3.152394e-17
8.075727e-17 8.4439537e-17 1.379933e-15 1.4761905e-15 1.6365944e-16 3.3827936e-15 1.2633642e-17 7.0842776e-16
5.6543827e-16 3.4536826e-15 2.4320467e-17 1.132532e-16 1.3950171e-15 1.7106289e-17 3.8413391e-16 1.0101829e-17
2.6360914e-12 7.706311e-14 3.6322697e-13 1.6474843e-12 1.1880575e-11 2.1570046e-13 2.0532764e-13 2.2192428e-12
2.5849672e-12 5.959904e-16 4.5968515e-14 7.375567e-13 3.9252193e-13 4.431722e-12 3.853006e-12 1.2756757e-13
4.387246e-16 1.7368673e-12 2.5657133e-12 6.516487e-12 4.4404275e-13 7.434435e-14 2.4481797e-13 1.2047277e-15
2.305167e-13 5.872252e-16 1.3346203e-13 1.1323302e-11 1.274749e-15 8.0920115e-15 0.0 0.0
1.2046395e-15 3.87439e-17 1.1450173e-17 1.32379884e-17 2.374586e-14 1.0817635e-15 3.567966e-14 0.0
3.4027326e-18 1.1609418e-17 6.7127123e-19 3.9076587e-20 1.5647173e-20 1.5719669e-19 8.7223204e-20 3.2839322e-20
3.479257e-18 1.9348021e-20 6.28043e-17 1.3487985e-16 0.0 5.572763e-16 0.0 8.44062e-16
6.1321644e-16 4.8088506e-17 2.260524e-16 8.56345e-17 1.1473738e-16 8.389141e-17 7.164262e-16 1.5577697e-15
9.185232e-18 6.473561e-17 2.7773906e-17 3.631119e-16 2.1440009e-16 8.4624845e-17 1.4142328e-15 4.143335e-18
3.6255088e-16 4.442302e-16 2.3395302e-15 1.5026467e-17 6.341589e-17 1.8509167e-16 7.118425e-18 4.9143538e-17
2.6967221e-18 1.0581737e-12 4.2854578e-14 1.53061e-13 2.1931952e-13 2.657569e-12 1.1652086e-13 9.841657e-14
1.0265751e-12 9.304791e-13 1.4950334e-16 1.1764451e-14 4.323115e-13 9.144875e-14 5.939668e-13 9.172785e-13
6.826994e-14 1.2672718e-16 3.513229e-13 1.0090481e-12 2.6190345e-12 1.2251886e-13 2.2778014e-14 8.0681745e-14
5.7166614e-16 5.468267e-14 1.7900413e-16 2.0734057e-13 8.424432e-12 1.283252e-15 1.6872988e-14 0.0
0.0 3.9153056e-15 3.0516744e-17 2.6867826e-17 1.716761e-17 7.968391e-14 9.424962e-16 1.5872249e-14
00000000: cdd8 602b d059 122e fb4b d027 3d5d d229
00000010: 0000 0000 0000 0000 e4e2 8128 d093 a324
00000020: 80aa 9e24 7360 1624 3c95 f72a d305 be27
00000030: 2a7b 7a2a 0000 0000 0f72 8b23 ff44 5824
00000040: 30a5 9622 f7d7 9320 0c04 5220 a666 8821
00000050: 523c f021 6ed9 d320 27eb 4123 fbe7 2520
00000060: c86f 3725 3d12 9b25 0000 0000 3b5f d026
00000070: 0000 0000 6351 3e28 0b73 7527 1b35 dc25
00000080: 5932 6026 7995 ef25 7042 4d26 6a51 a325
00000090: c8ac a227 1949 7f28 0d3e ed23 0965 4825
000000a0: 63b7 5c25 e395 8527 a673 2827 6139 0426
000000b0: e4dc 1028 0503 0523 6979 e426 1270 1927
000000c0: e1d0 c727 efdb 3624 2051 b925 249d e726
000000d0: ddbc 5124 9cca c425 31f3 4d23 3ccc 1e2d
000000e0: 98b3 6a2a fb54 212b ab9d 732c 1f3d e32d
000000f0: 72e5 3b2b 2aa5 cc2a 6b6f be2c f5fa 942c
00000100: 357f 8426 3220 9929 8de6 192c dad6 592b
00000110: 7e85 f62c c78d a02c 52e8 cf2a 43d8 6126
00000120: dfa2 8f2c 974d e22c 28ed 022d f447 332b
00000130: dfa2 322a 91ee 6f2b cfda 8727 6fd4 b72a
00000140: b9e4 5926 2d4e aa2a a29c e02d 05b0 1227
00000150: b407 3e29 0000 0000 0000 0000 51f7 cb27
00000160: 7f71 e724 afca 7f24 82a8 c023 b9a7 5a2a
00000170: 4525 de26 7e8c 082a 0000 0000 7c2f 8423
00000180: 04c4 f723 4c55 e722 2cd1 0b20 cc4e 891f
00000190: 4505 2422 8194 a021 fe9f 5d20 3002 7823
000001a0: 6ac8 a120 613f 0d25 09c2 4125 0000 0000
000001b0: 3e1e b926 0000 0000 725f e727 18ce fe26
000001c0: 00e0 8e25 ba53 0926 8f5d 3326 3b88 db25
000001d0: 82e9 2625 b4bd 1e27 9e19 9127 e660 1124
000001e0: ae36 ba24 4eb4 c224 8bde c626 d1bd d426
000001f0: beaf 3c25 87c1 7327 b00c 6923 be30 4c26
00000200: fbf9 2226 33dd 7827 1451 e023 7292 0225
00000210: 0c0b c926 15c7 9d23 2970 dd25 8a58 3a23
00000220: 9a7f 392c dc87 ad29 867a cc2a e1dc e72b
00000230: 5a01 512d 6ddb 722a aa2d 672a 532a 1c2c
00000240: a1e6 352c 54c8 2b26 1706 4f29 909a 4f2b
00000250: 5ff8 dc2a 67ed 9b2c cb90 872c d9a0 0f2a
00000260: 53e8 fc25 3d71 f42b c88b 342c 4c47 e52c
00000270: 4ef9 f92a 9a68 a729 fdd1 892a 9b9e ad26
00000280: f5c4 812a 9241 2926 d043 162a 9e33 472d
00000290: f0b5 b726 d1c5 1128 0000 0000 0000 0000
000002a0: 5a9b ad26 b9ac 3224 ea37 5323 a232 7423
000002b0: 3ae2 d528 07e6 9b26 d9af 2029 0000 0000
000002c0: cd13 7b22 ed27 5623 d21f 4621 b288 381f
000002d0: 8bc8 931e c995 3920 31f3 cd1f 4e14 1b1f
000002e0: a75c 8022 a5bc b61e 1dd1 9024 8181 1b25
000002f0: 0000 0000 bc9f 2026 0000 0000 c848 7326
00000300: 63bf 3026 e3c4 5d24 724f 8225 b075 c524
00000310: 7f48 0425 bf70 c124 ec7e 4e26 8f7f e026
00000320: 0870 2923 2945 9524 a415 0024 dc51 d125
00000330: bd2f 7725 b121 c324 fbcf cb26 b1dc 9822
00000340: 11ff d025 670a 0026 b794 2827 3e98 8a23
00000350: 223a 9224 6b65 5525 d04f 0323 73a2 6224
00000360: a4fb 4622 baec 942b f7ff 4029 d454 2c2a
00000370: 8cee 762a 8202 3b2c da30 032a 4a9d dd29
00000380: 447a 902b 0bf4 822b 995d 2c25 f4ed 5328
00000390: a75e f32a 9dec cd29 d22f 272b 7118 812b
000003a0: f1ba 9929 431b 1225 f7c6 c52a ca02 8e2b
000003b0: 554c 382c a8f1 092a 862a cd28 dcad b529
000003c0: 84c5 2426 d444 7629 b260 4e25 da71 692a
000003d0: 4534 142d a4ef b826 76fa 9728 0000 0000
000003e0: 0000 0000 5210 8d27 d0bb 0c24 dccf f723
000003f0: df57 9e23 a66e b329 f9d3 8726 eaf6 8e28

exp_avg f4 [128, 32]
-2.1452126e-06 2.2090624e-06 2.4408182e-06 -2.828286e-06 -2.4368123e-06 -2.421491e-06 -2.6833695e-06 2.2243323e-06
-4.1291137e-06 2.362192e-06 2.414292e-06 2.2995166e-06 -2.8197264e-06 2.8822353e-06 -2.827254e-06 2.2616446e-06
1.3733484e-06 2.5796528e-06 3.521646e-06 2.4989154e-06 -2.5310696e-06 -2.6958471e-06 -3.1684979e-06 2.5664076e-06
-2.755334e-06 -1.7593351e-06 2.401166e-06 -2.4226129e-06 2.524754e-06 2.9661323e-06 3.0266694e-06 -2.2308554e-06
-2.6149457e-06 2.678981e-06 2.9432924e-06 -3.3750573e-06 -2.9213188e-06 -2.9536034e-06 -3.1929771e-06 2.6782677e-06
-4.8391053e-06 2.8726402e-06 2.9126106e-06 2.7775004e-06 -3.3724775e-06 3.4447019e-06 -3.3222057e-06 2.719789e-06
1.7047012e-06 3.0978433e-06 4.1510384e-06 2.979161e-06 -3.036992e-06 -3.2345645e-06 -3.7936502e-06 3.1139336e-06
-3.3291458e-06 -2.1242195e-06 2.926796e-06 -2.9197115e-06 3.0216886e-06 3.5443757e-06 3.6015101e-06 -2.6951932e-06
-9.3770404e-07 9.5247236e-07 1.0482556e-06 -1.2594211e-06 -1.0722455e-06 -1.036128e-06 -1.1918271e-06 9.679666e-07
-1.8698943e-06 1.0147979e-06 1.0537059e-06 1.0043383e-06 -1.2490212e-06 1.2799171e-06 -1.2720483e-06 9.963142e-07
5.846239e-07 1.1420277e-06 1.5822038e-06 1.1045705e-06 -1.1117619e-06 -1.1849289e-06 -1.3905081e-06 1.1132848e-06
-1.2048267e-06 -7.661821e-07 1.0385795e-06 -1.0518669e-06 1.1008417e-06 1.3219145e-06 1.3419735e-06 -9.774308e-07
-1.6966874e-06 1.7374533e-06 1.9211036e-06 -2.2368151e-06 -1.9328113e-06 -1.9001295e-06 -2.1295023e-06 1.756396e-06
-3.294054e-06 1.8537337e-06 1.9011885e-06 1.8126293e-06 -2.23406e-06 2.2843656e-06 -2.250469e-06 1.7873797e-06
1.0725428e-06 2.0444534e-06 2.803987e-06 1.974765e-06 -2.0095454e-06 -2.1292049e-06 -2.4994586e-06 2.0233492e-06
-2.1703263e-06 -1.3863362e-06 1.8878844e-06 -1.9083411e-06 1.9894355e-06 2.3463024e-06 2.3981424e-06 -1.76561e-06
-1.7603684e-06 1.8042983e-06 1.962577e-06 -2.267346e-06 -1.9436013e-06 -1.9718693e-06 -2.1288201e-06 1.8024117e-06
-3.2259736e-06 1.9194495e-06 1.952211e-06 1.8566324e-06 -2.2594895e-06 2.3063176e-06 -2.22761e-06 1.8252913e-06
1.1496747e-06 2.0768105e-06 2.7716503e-06 2.0001028e-06 -2.0303614e-06 -2.166778e-06 -2.5377828e-06 2.0815494e-06
-2.22893e-06 -1.4251766e-06 1.9681104e-06 -1.9541374e-06 2.024336e-06 2.3700327e-06 2.4122755e-06 -1.8091116e-06
-2.0523064e-06 2.099103e-06 2.318742e-06 -2.7151507e-06 -2.332943e-06 -2.2753647e-06 -2.577252e-06 2.1291628e-06
-3.980569e-06 2.2394293e-06 2.2909326e-06 2.1825676e-06 -2.7038375e-06 2.7637284e-06 -2.7125586e-06 2.1503606e-06
1.2946771e-06 2.471902e-06 3.390242e-06 2.388302e-06 -2.4271096e-06 -2.566462e-06 -3.0162025e-06 2.441107e-06
-2.6179073e-06 -1.6765946e-06 2.2855302e-06 -2.3006432e-06 2.4040762e-06 2.8363877e-06 2.9002388e-06 -2.1339106e-06
-1.0278575e-06 1.0492149e-06 1.1469764e-06 -1.3554601e-06 -1.1611074e-06 -1.1472407e-06 -1.273315e-06 1.0542863e-06
-1.9826134e-06 1.1173487e-06 1.1502261e-06 1.0923176e-06 -1.3491367e-06 1.3800158e-06 -1.356625e-06 1.0832256e-06
6.5077865e-07 1.2354689e-06 1.6871704e-06 1.1900881e-06 -1.2067715e-06 -1.2838829e-06 -1.5108249e-06 1.2210884e-06
-1.3164681e-06 -8.301231e-07 1.1423541e-06 -1.1494596e-06 1.1968442e-06 1.4227398e-06 1.4458257e-06 -1.0639982e-06
-2.4907617e-06 2.5651084e-06 2.7954939e-06 -3.2173175e-06 -2.7894273e-06 -2.821138e-06 -3.0397605e-06 2.5386232e-06
-4.6048012e-06 2.741889e-06 2.7817969e-06 2.6449575e-06 -3.212582e-06 3.2809667e-06 -3.1724674e-06 2.5973745e-06
1.6248517e-06 2.9611845e-06 3.9515735e-06 2.834604e-06 -2.8964118e-06 -3.0875121e-06 -3.6247463e-06 2.9670082e-06
-3.1735742e-06 -2.0170087e-06 2.7974677e-06 -2.784506e-06 2.885738e-06 3.3675433e-06 3.4400316e-06 -2.569247e-06
00000000: 79f6 0fb6 673f 1436 f0cc 2336 95cd 3db6
00000010: 1e88 23b6 e680 22b6 f013 34b6 bd45 1536
00000020: d18c 8ab6 2686 1e36 3905 2236 6551 1a36
00000030: 883a 3db6 6d6c 4136 dbbb 3db6 c2c6 1736
00000040: e453 b835 191e 2d36 6b55 6c36 0ab3 2736
00000050: 72db 29b6 4dea 34b6 61a2 54b6 8c3a 2c36
00000060: 47e8 38b6 4b22 ecb5 b823 2136 2c94 22b6
00000070: f26e 2936 c40d 4736 c91d 4b36 ceb5 15b6
00000080: 6d7c 2fb6 8bc8 3336 6185 4536 0b7f 62b6
00000090: e00b 44b6 8536 46b6 ee46 56b6 4abc 3336
000000a0: 995f a2b6 95c7 4036 4576 4336 1865 3a36
000000b0: b952 62b6 872b 6736 0ff3 5eb6 9f85 3636
000000c0: 16cd e435 8be4 4f36 2649 8b36 99ed 4736
000000d0: 20cf 4bb6 6511 59b6 6a96 7eb6 f9f8 5036
000000e0: 4a6a 5fb6 d08d 0eb6 f969 4436 43f0 43b6
000000f0: 37c8 4a36 e9db 6d36 79b1 7136 11df 34b6
00000100: 88b6 7bb5 67ad 7f35 cab1 8c35 6109 a9b5
00000110: 13ea 8fb5 1611 8bb5 def6 9fb5 14eb 8135
00000120: 14f9 fab5 3134 8835 0f6d 8d35 cdcc 8635
00000130: 0ba4 a7b5 9ec9 ab35 3fbb aab5 18b9 8535
00000140: 0cef 1c35 c647 9935 1c5c d435 c140 9435
00000150: d937 95b5 d909 9fb5 7fa1 bab5 2d6c 9535
00000160: 88b5 a1b5 a2ab 4db5 5265 8b35 df2d 8db5
00000170: a2c0 9335 a36c b135 dc1d b435 4430 83b5
00000180: bcb9 e3b5 7132 e935 4fec 0036 311c 16b6
00000190: 72b5 01b6 f407 ffb5 92e8 0eb6 4fbd eb35
000001a0: 6b0f 5db6 cecd f835 572c ff35 7849 f335
000001b0: dcec 15b6 1a4d 1936 c306 17b6 e6e5 ef35
000001c0: 4af4 8f35 7133 0936 212c 3c36 3486 0436
000001d0: badb 06b6 76e3 0eb6 5fbc 27b6 e0c8 0736
000001e0: eca5 11b6 2612 bab5 3763 fd35 0d11 00b6
000001f0: 3e82 0536 2b75 1d36 c6ef 2036 e6f9 ecb5
00000200: cc45 ecb5 382b f235 d1b4 0336 b528 18b6
00000210: d16e 02b6 7554 04b6 dadc 0eb6 65ea f135
00000220: ce7d 58b6 e4cf 0036 bb02 0336 6731 f935
00000230: bca1 17b6 3cc6 1a36 0c7e 15b6 88fc f435
00000240: 864e 9a35 555f 0b36 9700 3a36 8139 0636
00000250: 5841 08b6 f668 11b6 c74e 2ab6 bfb0 0b36
00000260: ba94 15b6 b248 bfb5 e113 0436 d323 03b6
00000270: d4d9 0736 da0c 1f36 94e2 2136 9ad0 f2b5
00000280: 5bba 09b6 51de 0c36 af9b 1b36 ef35 36b6
00000290: a88f 1cb6 78b2 18b6 daf4 2cb6 bde2 0e36
000002a0: d490 85b6 1a49 1636 ecbd 1936 3a78 1236
000002b0: 9373 35b6 7e78 3936 6709 36b6 ea4e 1036
000002c0: c4c4 ad35 f4e2 2536 ea83 6336 b746 2036
000002d0: 6de1 22b6 7b3b 2cb6 f769 4ab6 e6d1 2336
000002e0: 4eaf 2fb6 5a07 e1b5 1c61 1936 c064 1ab6
000002f0: b755 2136 c558 3e36 b9a1 4236 4e34 0fb6
00000300: eaf4 89b5 c0d2 8c35 cff1 9935 41ed b5b5
00000310: 59d7 9bb5 e4fa 99b5 c5e6 aab5 0081 8d35
00000320: 0a0d 05b6 cff7 9535 7861 9a35 bf9b 9235
00000330: fc13 b5b5 fb38 b935 4815 b6b5 5963 9135
00000340: 2bb1 2e35 63d2 a535 bc72 e235 1ebb 9f35
00000350: 5af8 a1b5 e151 acb5 8cc7 cab5 47e4 a335
00000360: 80b1 b0b5 a0d5 5eb5 fd52 9935 2247 9ab5
00000370: 41a3 a035 f8f4 be35 310e c235 b3ce 8eb5
00000380: f626 27b6 3a24 2c36 389a 3b36 18e9 57b6
00000390: ff31 3bb6 c852 3db6 b0fe 4bb6 375d 2a36
000003a0: f182 9ab6 4b01 3836 e8ae 3a36 0680 3136
000003b0: bd97 57b6 942e 5c36 93e6 54b6 8e4e 2e36
000003c0: 7b15 da35 c3b8 4636 c297 8436 203a 3e36
000003d0: fa5f 42b6 0e33 4fb6 ab40 73b6 d01c 4736
000003e0: 97f9 54b6 f25b 07b6 21bc 3b36 73dd 3ab6
000003f0: 9aa8 4136 f4fd 6136 4bdb 6636 546b 2cb6

exp_avg_sq f4 [128, 32]
3.149735e-10 1.454274e-10 5.435729e-10 1.07133996e-10 2.1277449e-10 4.4749546e-10 3.1738074e-11 1.6080916e-10
4.1190143e-10 6.0140065e-10 7.358518e-11 1.1138783e-11 3.9917442e-10 1.7231096e-10 1.5563887e-11 7.904664e-11
3.4245225e-11 1.5715407e-10 4.4073117e-10 1.8226705e-10 3.5275505e-11 3.5702102e-10 5.0772525e-10 5.6538335e-10
4.0503662e-10 2.0890345e-10 4.005064e-10 2.2399677e-10 7.568477e-11 4.1802766e-11 5.0413046e-10 4.6575684e-11
2.496293e-10 1.3344537e-10 3.5999762e-10 1.0376371e-10 1.5603216e-10 3.0956518e-10 4.1546475e-11 1.3803335e-10
2.6551744e-10 4.0462048e-10 7.89029e-11 1.2885252e-11 2.9936825e-10 1.3051113e-10 2.0273488e-11 8.228696e-11
4.04239e-11 1.2953952e-10 2.8196967e-10 1.4782961e-10 3.267979e-11 2.9167957e-10 3.6025705e-10 3.7352585e-10
3.1232641e-10 1.850807e-10 3.165208e-10 1.9588087e-10 6.715856e-11 4.96266e-11 3.5031567e-10 5.048263e-11
2.1520999e-11 6.913814e-12 4.7380263e-11 5.4635077e-12 1.796142e-11 3.8783584e-11 8.6049543e-13 9.2766385e-12
4.45355e-11 5.3073327e-11 3.1130283e-12 5.5316564e-13 3.1605395e-11 1.3704688e-11 8.9132553e-13 3.533422e-12
1.0679695e-12 1.0739136e-11 4.5468934e-11 1.2194601e-11 2.0408148e-12 2.124289e-11 4.0408798e-11 5.1283637e-11
2.611169e-11 1.0422148e-11 2.4621116e-11 1.1119162e-11 4.5375565e-12 1.9718441e-12 4.337072e-11 2.6478036e-12
6.924409e-11 3.6459016e-11 1.02833776e-10 2.855687e-11 4.4140587e-11 8.771838e-11 1.1362288e-11 3.8073857e-11
7.776551e-11 1.1499187e-10 2.1350614e-11 3.6701657e-12 8.419192e-11 3.695059e-11 6.0562076e-12 2.2331244e-11
1.0770267e-11 3.6172336e-11 8.195949e-11 4.1219306e-11 9.201128e-12 8.0555985e-11 1.0187056e-10 1.0674448e-10
8.691492e-11 5.055842e-11 8.7421945e-11 5.3571182e-11 1.8701075e-11 1.3706102e-11 9.954646e-11 1.39797245e-11
1.7413392e-10 7.837047e-11 3.08295e-10 5.731736e-11 1.1846021e-10 2.517612e-10 1.5891745e-11 8.8039104e-11
2.3201906e-10 3.4056327e-10 3.846009e-11 5.9426552e-12 2.2165693e-10 9.610186e-11 7.947818e-12 4.1670806e-11
1.7775625e-11 8.609778e-11 2.4947272e-10 9.994772e-11 1.917576e-11 1.9489796e-10 2.8502697e-10 3.2161845e-10
2.2411294e-10 1.1245098e-10 2.2130126e-10 1.2077166e-10 4.112033e-11 2.178278e-11 2.8332672e-10 2.4783944e-11
1.332989e-10 5.484733e-11 2.5267968e-10 4.0731387e-11 9.679762e-11 2.0547916e-10 9.943772e-12 6.4550476e-11
2.073116e-10 2.798857e-10 2.5921995e-11 4.303647e-12 1.772166e-10 7.672066e-11 5.8449066e-12 2.8313669e-11
1.11679875e-11 6.5883965e-11 2.1781767e-10 7.650929e-11 1.4212274e-11 1.4459475e-10 2.2683458e-10 2.661335e-10
1.6854777e-10 8.000363e-11 1.6448137e-10 8.586897e-11 3.0355617e-11 1.4923356e-11 2.3245697e-10 1.7770741e-11
9.965631e-12 5.7064453e-12 1.3080202e-11 4.847695e-12 6.3131375e-12 1.1687584e-11 2.2012607e-12 5.6874683e-12
1.0963917e-11 1.4918278e-11 3.708106e-12 8.0259475e-13 1.2104597e-11 5.50975e-12 1.3897383e-12 3.8492464e-12
1.8869704e-12 5.5721157e-12 1.0958874e-11 6.1751407e-12 1.5785373e-12 1.17954336e-11 1.3847084e-11 1.3712872e-11
1.2084976e-11 7.599033e-12 1.22709655e-11 8.0661805e-12 3.0002125e-12 2.7069946e-12 1.3497579e-11 2.5606101e-12
2.7924094e-10 1.5708994e-10 3.7899922e-10 1.2460799e-10 1.7249001e-10 3.3180106e-10 5.6492547e-11 1.5936866e-10
2.8021005e-10 4.2926196e-10 1.00577706e-10 1.5739425e-11 3.302012e-10 1.4405563e-10 2.7286935e-11 1.0297e-10
5.4214418e-11 1.4818612e-10 2.9583017e-10 1.6616872e-10 3.916234e-11 3.2425768e-10 3.8554554e-10 3.9306217e-10
3.421365e-10 2.1346702e-10 3.4976638e-10 2.2328252e-10 7.974826e-11 6.509474e-11 3.755979e-10 6.644496e-11
00000000: 9428 ad2f 2de6 1f2f 8b6a 1530 1497 eb2e
00000010: b2f2 692f 6303 f62f e595 0b2e c1cf 302f
00000020: f971 e22f cf4f 2530 c6d0 a12e 9ef4 432d
00000030: ce72 db2f 3975 3d2f c2e6 882d 4dd3 ad2e
00000040: b29c 162e f0ca 2c2f 664b f22f 9d67 482f
00000050: b024 1b2e 3e46 c42f fd8f 0b30 5169 1b30
00000060: d6ab de2f 18b1 652f 442e dc2f 7c49 762f
00000070: bd6e a62e bbd9 372e 0793 0a30 8fd7 4c2e
00000080: 333c 892f 88b9 122f 29e9 c52f c72d e42e
00000090: 268f 2b2f 6d2f aa2f 2cb9 362e efc4 172f
000000a0: 42f8 912f 4571 de2f 6282 ad2e 04ae 622d
000000b0: 5694 a42f 9e7f 0f2f d653 b22d 71f3 b42e
000000c0: 44c9 312e 226e 0e2f b403 9b2f 568a 222f
000000d0: 2cba 0f2e 405a a02f ac0d c62f 1759 cd2f
000000e0: 09b4 ab2f 967f 4b2f 5802 ae2f 905f 572f
000000f0: e9ae 932e 9642 5a2e 8c96 c02f 6306 5e2e
00000100: fb4c bd2d 1a42 f32c 6f61 502e e73a c02c
00000110: 86fd 9d2d 6f92 2a2e 3b35 722b 4432 232d
00000120: 84de 432e 416b 692e 550f 5b2c c9b3 1b2b
00000130: 8300 0b2e 6e18 712d c6e2 7a2b 79a4 782c
00000140: a84d 962b c5ec 3c2d 78f9 472e 9a87 562d
00000150: 0d9c 0f2c bcda ba2d 43b8 312e 3e8c 612e
00000160: 4cae e52d 2f59 372d d391 d82d 419c 432d
00000170: ada6 9f2c 96c1 0a2c 17bf 3e2e 9752 3a2c
00000180: f544 982e 3459 202e 4522 e22e 5b30 fb2d
00000190: e221 422e 0fe5 c02e 32e3 472d 5a73 272e
000001a0: 1702 ab2e abde fc2e 4fcd bb2d ea21 812c
000001b0: d623 b92e aa82 222e 7815 d52c 7e6d c42d
000001c0: f878 3d2d 6e16 1f2e 173b b42e d048 352e
000001d0: 32de 212d fd24 b12e 0704 e02e cdbb ea2e
000001e0: c020 bf2e b85b 5e2e 2e3e c02e ca9b 6b2e
000001f0: 147f a42d cc1e 712d ade7 da2e 15ef 752d
00000200: 5776 3f2f a756 ac2e aa7c a92f 9c15 7c2e
00000210: 963f 022f 3d68 8a2f 07c9 8b2d 9c99 c12e
00000220: 8f1b 7f2f 053a bb2f 3626 292e ae16 d12c
00000230: e1b6 732f 8a54 d32e cad1 0b2d 2845 372e
00000240: 265b 9c2d be54 bd2e 2a26 892f 90c9 db2e
00000250: f9ab a82d e64a 562f fbb1 9c2f c6cf b02f
00000260: 2f6a 762f 4648 f72e c452 732f 33ca 042f
00000270: 60d9 342e 769a bf2d b1c2 9b2f 7b00 da2d
00000280: 4e90 122f 9b38 712e 81e9 8a2f 7723 332e
00000290: 37dc d42e 3eed 612f c5ee 2e2d b0f2 8d2e
000002a0: 07f1 632f 69de 992f 2503 e42d ce6b 972c
000002b0: 0ada 422f e4b5 a82e 3da6 cd2c b70c f92d
000002c0: 2578 442d 60e1 902e 397e 6f2f e73e a82e
000002d0: 6406 7a2d cefb 1e2f 4268 792f f64e 922f
000002e0: fb51 392f 0aee af2e 64d9 342f efd3 bc2e
000002f0: 6381 052e 6944 832d d296 7f2f 2750 9c2d
00000300: 3651 2f2d 17c7 c82c fe1b 662d 2890 aa2c
00000310: b01f de2c 339c 4d2d 63e6 1a2c 291c c82c
00000320: 18e1 402d fa38 832d a677 822c 0ce9 612b
00000330: 42f2 542d 6bdb c12c 9996 c32b ee6e 872c
00000340: a3c8 042c 280d c42c 62ca 402d b944 d92c
00000350: cd28 de2b e981 4f2d b999 732d 493d 712d
00000360: e599 542d 01af 052d 84df 572d d9e6 0d2d
00000370: 061f 532c e17c 3e2c b173 6d2d da2f 342c
00000380: ab83 992f e3b8 2c2f 665b d02f 0802 092f
00000390: 9fa7 3d2f d968 b62f f474 782e 4a3a 2f2f
000003a0: 0f0c 9a2f 40fd eb2f 372c dd2e 0972 8a2d
000003b0: b087 b52f 0e64 1e2f b704 f02d f56e e22e
000003c0: 0270 6e2e afee 222f 65a2 a22f 56b4 362f
000003d0: e03c 2c2e 3643 b22f b6f4 d32f 9516 d82f
000003e0: 6f17 bc2f a0b5 6a2f 3e49 c02f 7180 752f
000003f0: 475e af2e 1525 8f2e b47c ce2f 301d 922e

exp_avg f4 [128]
-2.90638e-05 -2.9576167e-05 -1.7536398e-05 -2.622253e-05 -2.415763e-05 -2.5702462e-05 -2.0555091e-05 -2.713247e-05
-3.740764e-05 -1.5743693e-05 -2.5833975e-05 -2.9339382e-05 -3.268472e-05 -3.255721e-05 -2.111686e-05 -2.6553947e-05
-1.7949304e-05 -2.539905e-05 -2.0039573e-05 -2.5185338e-05 -2.1859838e-05 -2.9337285e-05 -2.4225226e-05 -1.9418812e-05
-2.3650435e-05 -1.8729463e-05 -2.814714e-05 -2.3818062e-05 -3.0391786e-05 -1.8573348e-05 -2.1690908e-05 -2.780279e-05
-4.8991033e-06 -5.1625498e-06 -2.334754e-06 -8.083121e-06 -4.134273e-06 -6.0211164e-06 -3.8509197e-06 -5.7982743e-06
-8.2140405e-06 -2.6238758e-06 -5.0318176e-06 -5.334224e-06 -5.426145e-06 -5.7368447e-06 -4.342616e-06 -6.3036573e-06
-2.766288e-06 -5.0143067e-06 -3.4891277e-06 -4.3553036e-06 -4.2322904e-06 -6.9994785e-06 -5.5726846e-06 -3.244623e-06
-5.3036665e-06 -2.6250905e-06 -5.997136e-06 -5.2559167e-06 -7.115168e-06 -4.2874412e-06 -3.8885346e-06 -5.4984775e-06
-8.922658e-05 0.00010837584 8.3050436e-05 -0.00013199374 -8.0381324e-05 -0.00013096521 -0.00010407702 0.00010604839
-7.902426e-05 8.100851e-05 8.808605e-05 0.00010314072 -8.642216e-05 8.579244e-05 -0.00010456623 0.00013599436
9.915726e-05 9.913445e-05 5.414082e-05 9.206982e-05 -8.969088e-05 -0.00015967617 -0.000108647866 0.00010642697
-0.00010223759 -9.287646e-05 0.00011756935 -0.000109692744 0.00014309214 0.00011244153 7.709361e-05 -0.00012632956
-2.8879196e-05 -2.7574679e-05 -2.4683697e-05 -4.1248237e-05 -3.136685e-05 -3.378103e-05 -3.6212718e-05 -2.9823765e-05
-4.6159188e-05 -2.1742233e-05 -2.4794628e-05 -3.6857706e-05 -2.8105114e-05 -3.6797563e-05 -3.2221313e-05 -3.5970916e-05
-1.927107e-05 -2.7826369e-05 -3.369756e-05 -2.883797e-05 -3.14658e-05 -3.3696055e-05 -2.652363e-05 -2.6081214e-05
-2.9018653e-05 -2.8977425e-05 -2.7836975e-05 -2.8561304e-05 -3.3552253e-05 -2.0863436e-05 -2.6136486e-05 -2.6201e-05
00000000: 09ce f3b7 561a f8b7 211b 93b7 74f8 dbb7
00000010: 1ea6 cab7 9e9b d7b7 b96d acb7 899a e3b7
00000020: 26e6 1cb8 5311 84b7 0ab6 d8b7 d81d f6b7
00000030: f316 09b8 0a8e 08b8 1d24 b1b7 2bc0 deb7
00000040: d691 96b7 0b10 d5b7 a81a a8b7 1a45 d3b7
00000050: a55f b7b7 5719 f6b7 4737 cbb7 95e5 a2b7
00000060: ec64 c6b7 371d 9db7 861d ecb7 e6cc c7b7
00000070: ddf1 feb7 f6cd 9bb7 dff4 b5b7 093a e9b7
00000080: fa62 a4b6 f739 adb6 c5ae 1cb6 be9c 07b7
00000090: 22b9 8ab6 ff08 cab6 2637 81b6 cc8e c2b6
000000a0: 09cf 09b7 d815 30b6 fcd6 a8b6 a3fc b2b6
000000b0: 3b12 b6b6 1f7f c0b6 cab6 91b6 0184 d3b6
000000c0: 77a4 39b6 9140 a8b6 c226 6ab6 c623 92b6
000000d0: 1903 8eb6 10dd eab6 fffc bab6 33be 59b6
000000e0: 26f6 b1b6 b62a 30b6 023b c9b6 fb5b b0b6
000000f0: d4be eeb6 d7dc 8fb6 427a 82b6 907f b8b6
00000100: 281f bbb8 d647 e338 5d2b ae38 cd67 0ab9
00000110: 6592 a8b8 b553 09b9 ed43 dab8 4c66 de38
00000120: d4b9 a5b8 1de3 a938 d7ba b838 414d d838
00000130: 8b3d b5b8 77eb b338 914a dbb8 b599 0e39
00000140: a6f2 cf38 67e6 cf38 4315 6338 9c15 c138
00000150: 6d18 bcb8 bf6e 27b9 e1d9 e3b8 8b31 df38
00000160: 6368 d6b8 abc6 c2b8 908f f638 d80a e6b8
00000170: 010b 1639 96ce eb38 51ad a138 5577 04b9
00000180: 9a41 f2b7 2c50 e7b7 d60f cfb7 f501 2db8
00000190: e68f 03b8 1bb0 0db8 1ce3 17b8 0c2e fab7
000001a0: 0d9b 41b8 1763 b6b7 0ffe cfb7 a997 1ab8
000001b0: 46c3 ebb7 1557 1ab8 5f25 07b8 7adf 16b8
000001c0: 4fa8 a1b7 ac6c e9b7 7b56 0db8 12e9 f1b7
000001d0: 25fa 03b8 dd54 0db8 107f deb7 fbc8 dab7
000001e0: 156d f3b7 8c14 f3b7 7383 e9b7 ef96 efb7
000001f0: 75ba 0cb8 e303 afb7 ad3f dbb7 38ca dbb7

exp_avg_sq f4 [128]
1.9605804e-09 1.0305294e-09 3.3267297e-10 3.8420803e-10 1.1256791e-09 1.1623952e-09 9.754924e-11 9.627816e-10
1.1125114e-09 5.080767e-10 2.5925703e-10 6.0380745e-10 2.6276241e-09 6.7385136e-10 3.0582054e-10 5.825255e-10
4.7530174e-10 5.732154e-10 2.4849287e-10 6.36802e-10 1.352106e-10 9.206964e-10 3.8002967e-10 4.945242e-10
2.7989622e-10 1.4280316e-09 6.068285e-10 4.1360496e-10 7.8545914e-10 1.5638257e-10 5.8810096e-10 7.923086e-10
2.8676137e-09 1.1188671e-09 6.467571e-10 1.0615909e-09 1.3355513e-09 2.4564641e-09 5.5339486e-11 1.3183459e-09
1.448057e-09 1.1970658e-09 2.572931e-10 6.388657e-10 4.006745e-09 6.493407e-10 3.4377504e-10 1.2803697e-09
4.502248e-10 9.0223656e-10 3.321725e-10 8.6372665e-10 7.6063295e-11 3.0362817e-09 8.492241e-10 1.1692485e-09
4.5932003e-10 2.4283138e-09 1.0503104e-09 8.0336815e-10 9.836857e-10 2.6778568e-10 1.1741336e-09 9.914605e-10
1.689635e-08 1.1560797e-08 8.633914e-09 2.2311971e-08 7.4224427e-09 2.0805295e-08 6.876966e-09 8.3616705e-09
5.364248e-09 1.147934e-08 4.9537823e-09 4.1160244e-09 1.8327668e-08 5.341004e-09 1.1554578e-08 3.2691847e-08
1.4125806e-08 1.2991916e-08 1.5641846e-09 1.1802821e-08 2.796857e-09 6.798133e-08 1.0078259e-08 1.5789794e-08
6.9430452e-09 3.443743e-08 1.5610324e-08 1.7037408e-08 1.1668762e-08 1.0435885e-08 8.155359e-09 3.3129037e-08
5.3240066e-09 3.0605394e-09 2.0656385e-09 7.0035253e-09 3.4212115e-09 8.874192e-09 2.2010618e-09 4.8915965e-09
1.1337437e-08 2.2130302e-09 9.865232e-10 5.146699e-09 4.0255204e-09 5.3442206e-09 5.946227e-10 6.790945e-09
5.838949e-10 3.1325862e-09 3.3072962e-09 3.0361833e-09 1.2904224e-09 5.7386287e-09 2.5405202e-09 4.1708943e-09
2.7807652e-09 4.8092987e-09 1.8696096e-09 2.617767e-09 5.2249036e-09 1.605744e-10 1.9958715e-09 1.1386141e-09
00000000: e5ba 0631 88a2 8d30 8fe3 b62f 7938 d32f
00000010: 50b6 9a30 25c2 9f30 5783 d62e de52 8430
00000020: 04e7 9830 b8a8 0b30 2f87 8e2f 2cf9 2530
00000030: a791 3431 133a 3930 6a20 a82f 961f 2030
00000040: 63a6 0230 7390 1d30 439c 882f f50a 2f30
00000050: 67aa 142f 4014 7d30 6cec d02f 0cef 0730
00000060: e4df 992f 6544 c430 c2cd 2630 b961 e32f
00000070: c6e7 5730 c8f1 2b2f eda7 2130 c3c9 5930
00000080: 980f 4531 a3c6 9930 7cc7 3130 69e7 9130
00000090: 898e b730 93ce 2831 b962 732e 2c31 b530
000000a0: fa04 c730 0286 a430 c972 8d2f 2d9c 2f30
000000b0: b4ab 8931 4a7d 3230 09fe bc2f 01f9 af30
000000c0: 8283 f72f 4101 7830 209d b62f 5c6b 6d30
000000d0: d443 a72e d5a6 5031 d56e 6930 46b3 a030
000000e0: 8c83 fc2f 59df 2631 835a 9030 02d4 5c30
000000f0: 5d32 8730 7c37 932f 275f a130 ea43 8830
00000100: 7723 9132 ec9c 4632 5b54 1432 8ba8 bf32
00000110: 7f08 ff31 54b7 b232 6f4a ec31 04a7 0f32
00000120: 6d50 b831 ac36 4532 ee35 aa31 ef6c 8d31
00000130: f86e 9d32 f883 b731 9281 4632 1169 0c33
00000140: f4ad 7232 0d33 5f32 dafa d630 5bc5 4a32
00000150: d432 4031 22fd 9133 a724 2d32 20a2 8732
00000160: ac8f ee31 5be8 1333 7717 8632 a859 9232
00000170: c277 4832 8249 3332 a61b 0c32 c349 0e33
00000180: 75ee b631 9451 5231 19f3 0d31 a9a3 f031
00000190: 971a 6b31 1c75 1832 7d41 1731 f012 a831
000001a0: 93c6 4232 0a14 1831 3396 8730 d8d6 b031
000001b0: da50 8a31 43a0 b731 da72 2330 c955 e931
000001c0: f37f 2030 0a45 5731 9246 6331 1aa5 5031
000001d0: b45a b130 832d c531 4e95 2e31 934f 8f31
000001e0: bd17 3f31 0a3f a531 857a 0031 3ee4 3331
000001f0: bd86 b331 ad8d 302f be27 0931 6c7d 9c30

exp_avg f4 [128]
-2.90638e-05 -2.9576167e-05 -1.7536398e-05 -2.622253e-05 -2.415763e-05 -2.5702462e-05 -2.0555091e-05 -2.713247e-05
-3.740764e-05 -1.5743693e-05 -2.5833975e-05 -2.9339382e-05 -3.268472e-05 -3.255721e-05 -2.111686e-05 -2.6553947e-05
-1.7949304e-05 -2.539905e-05 -2.0039573e-05 -2.5185338e-05 -2.1859838e-05 -2.9337285e-05 -2.4225226e-05 -1.9418812e-05
-2.3650435e-05 -1.8729463e-05 -2.814714e-05 -2.3818062e-05 -3.0391786e-05 -1.8573348e-05 -2.1690908e-05 -2.780279e-05
-4.8991033e-06 -5.1625498e-06 -2.334754e-06 -8.083121e-06 -4.134273e-06 -6.0211164e-06 -3.8509197e-06 -5.7982743e-06
-8.2140405e-06 -2.6238758e-06 -5.0318176e-06 -5.334224e-06 -5.426145e-06 -5.7368447e-06 -4.342616e-06 -6.3036573e-06
-2.766288e-06 -5.0143067e-06 -3.4891277e-06 -4.3553036e-06 -4.2322904e-06 -6.9994785e-06 -5.5726846e-06 -3.244623e-06
-5.3036665e-06 -2.6250905e-06 -5.997136e-06 -5.2559167e-06 -7.115168e-06 -4.2874412e-06 -3.8885346e-06 -5.4984775e-06
-8.922658e-05 0.00010837584 8.3050436e-05 -0.00013199374 -8.0381324e-05 -0.00013096521 -0.00010407702 0.00010604839
-7.902426e-05 8.100851e-05 8.808605e-05 0.00010314072 -8.642216e-05 8.579244e-05 -0.00010456623 0.00013599436
9.915726e-05 9.913445e-05 5.414082e-05 9.206982e-05 -8.969088e-05 -0.00015967617 -0.000108647866 0.00010642697
-0.00010223759 -9.287646e-05 0.00011756935 -0.000109692744 0.00014309214 0.00011244153 7.709361e-05 -0.00012632956
-2.8879196e-05 -2.7574679e-05 -2.4683697e-05 -4.1248237e-05 -3.136685e-05 -3.378103e-05 -3.6212718e-05 -2.9823765e-05
-4.6159188e-05 -2.1742233e-05 -2.4794628e-05 -3.6857706e-05 -2.8105114e-05 -3.6797563e-05 -3.2221313e-05 -3.5970916e-05
-1.927107e-05 -2.7826369e-05 -3.369756e-05 -2.883797e-05 -3.14658e-05 -3.3696055e-05 -2.652363e-05 -2.6081214e-05
-2.9018653e-05 -2.8977425e-05 -2.7836975e-05 -2.8561304e-05 -3.3552253e-05 -2.0863436e-05 -2.6136486e-05 -2.6201e-05
00000000: 09ce f3b7 561a f8b7 211b 93b7 74f8 dbb7
00000010: 1ea6 cab7 9e9b d7b7 b96d acb7 899a e3b7
00000020: 26e6 1cb8 5311 84b7 0ab6 d8b7 d81d f6b7
00000030: f316 09b8 0a8e 08b8 1d24 b1b7 2bc0 deb7
00000040: d691 96b7 0b10 d5b7 a81a a8b7 1a45 d3b7
00000050: a55f b7b7 5719 f6b7 4737 cbb7 95e5 a2b7
00000060: ec64 c6b7 371d 9db7 861d ecb7 e6cc c7b7
00000070: ddf1 feb7 f6cd 9bb7 dff4 b5b7 093a e9b7
00000080: fa62 a4b6 f739 adb6 c5ae 1cb6 be9c 07b7
00000090: 22b9 8ab6 ff08 cab6 2637 81b6 cc8e c2b6
000000a0: 09cf 09b7 d815 30b6 fcd6 a8b6 a3fc b2b6
000000b0: 3b12 b6b6 1f7f c0b6 cab6 91b6 0184 d3b6
000000c0: 77a4 39b6 9140 a8b6 c226 6ab6 c623 92b6
000000d0: 1903 8eb6 10dd eab6 fffc bab6 33be 59b6
000000e0: 26f6 b1b6 b62a 30b6 023b c9b6 fb5b b0b6
000000f0: d4be eeb6 d7dc 8fb6 427a 82b6 907f b8b6
00000100: 281f bbb8 d647 e338 5d2b ae38 cd67 0ab9
00000110: 6592 a8b8 b553 09b9 ed43 dab8 4c66 de38
00000120: d4b9 a5b8 1de3 a938 d7ba b838 414d d838
00000130: 8b3d b5b8 77eb b338 914a dbb8 b599 0e39
00000140: a6f2 cf38 67e6 cf38 4315 6338 9c15 c138
00000150: 6d18 bcb8 bf6e 27b9 e1d9 e3b8 8b31 df38
00000160: 6368 d6b8 abc6 c2b8 908f f638 d80a e6b8
00000170: 010b 1639 96ce eb38 51ad a138 5577 04b9
00000180: 9a41 f2b7 2c50 e7b7 d60f cfb7 f501 2db8
00000190: e68f 03b8 1bb0 0db8 1ce3 17b8 0c2e fab7
000001a0: 0d9b 41b8 1763 b6b7 0ffe cfb7 a997 1ab8
000001b0: 46c3 ebb7 1557 1ab8 5f25 07b8 7adf 16b8
000001c0: 4fa8 a1b7 ac6c e9b7 7b56 0db8 12e9 f1b7
000001d0: 25fa 03b8 dd54 0db8 107f deb7 fbc8 dab7
000001e0: 156d f3b7 8c14 f3b7 7383 e9b7 ef96 efb7
000001f0: 75ba 0cb8 e303 afb7 ad3f dbb7 38ca dbb7

exp_avg_sq f4 [128]
1.9605804e-09 1.0305294e-09 3.3267297e-10 3.8420803e-10 1.1256791e-09 1.1623952e-09 9.754924e-11 9.627816e-10
1.1125114e-09 5.080767e-10 2.5925703e-10 6.0380745e-10 2.6276241e-09 6.7385136e-10 3.0582054e-10 5.825255e-10
4.7530174e-10 5.732154e-10 2.4849287e-10 6.36802e-10 1.352106e-10 9.206964e-10 3.8002967e-10 4.945242e-10
2.7989622e-10 1.4280316e-09 6.068285e-10 4.1360496e-10 7.8545914e-10 1.5638257e-10 5.8810096e-10 7.923086e-10
2.8676137e-09 1.1188671e-09 6.467571e-10 1.0615909e-09 1.3355513e-09 2.4564641e-09 5.5339486e-11 1.3183459e-09
1.448057e-09 1.1970658e-09 2.572931e-10 6.388657e-10 4.006745e-09 6.493407e-10 3.4377504e-10 1.2803697e-09
4.502248e-10 9.0223656e-10 3.321725e-10 8.6372665e-10 7.6063295e-11 3.0362817e-09 8.492241e-10 1.1692485e-09
4.5932003e-10 2.4283138e-09 1.0503104e-09 8.0336815e-10 9.836857e-10 2.6778568e-10 1.1741336e-09 9.914605e-10
1.689635e-08 1.1560797e-08 8.633914e-09 2.2311971e-08 7.4224427e-09 2.0805295e-08 6.876966e-09 8.3616705e-09
5.364248e-09 1.147934e-08 4.9537823e-09 4.1160244e-09 1.8327668e-08 5.341004e-09 1.1554578e-08 3.2691847e-08
1.4125806e-08 1.2991916e-08 1.5641846e-09 1.1802821e-08 2.796857e-09 6.798133e-08 1.0078259e-08 1.5789794e-08
6.9430452e-09 3.443743e-08 1.5610324e-08 1.7037408e-08 1.1668762e-08 1.0435885e-08 8.155359e-09 3.3129037e-08
5.3240066e-09 3.0605394e-09 2.0656385e-09 7.0035253e-09 3.4212115e-09 8.874192e-09 2.2010618e-09 4.8915965e-09
1.1337437e-08 2.2130302e-09 9.865232e-10 5.146699e-09 4.0255204e-09 5.3442206e-09 5.946227e-10 6.790945e-09
5.838949e-10 3.1325862e-09 3.3072962e-09 3.0361833e-09 1.2904224e-09 5.7386287e-09 2.5405202e-09 4.1708943e-09
2.7807652e-09 4.8092987e-09 1.8696096e-09 2.617767e-09 5.2249036e-09 1.605744e-10 1.9958715e-09 1.1386141e-09
00000000: e5ba 0631 88a2 8d30 8fe3 b62f 7938 d32f
00000010: 50b6 9a30 25c2 9f30 5783 d62e de52 8430
00000020: 04e7 9830 b8a8 0b30 2f87 8e2f 2cf9 2530
00000030: a791 3431 133a 3930 6a20 a82f 961f 2030
00000040: 63a6 0230 7390 1d30 439c 882f f50a 2f30
00000050: 67aa 142f 4014 7d30 6cec d02f 0cef 0730
00000060: e4df 992f 6544 c430 c2cd 2630 b961 e32f
00000070: c6e7 5730 c8f1 2b2f eda7 2130 c3c9 5930
00000080: 980f 4531 a3c6 9930 7cc7 3130 69e7 9130
00000090: 898e b730 93ce 2831 b962 732e 2c31 b530
000000a0: fa04 c730 0286 a430 c972 8d2f 2d9c 2f30
000000b0: b4ab 8931 4a7d 3230 09fe bc2f 01f9 af30
000000c0: 8283 f72f 4101 7830 209d b62f 5c6b 6d30
000000d0: d443 a72e d5a6 5031 d56e 6930 46b3 a030
000000e0: 8c83 fc2f 59df 2631 835a 9030 02d4 5c30
000000f0: 5d32 8730 7c37 932f 275f a130 ea43 8830
00000100: 7723 9132 ec9c 4632 5b54 1432 8ba8 bf32
00000110: 7f08 ff31 54b7 b232 6f4a ec31 04a7 0f32
00000120: 6d50 b831 ac36 4532 ee35 aa31 ef6c 8d31
00000130: f86e 9d32 f883 b731 9281 4632 1169 0c33
00000140: f4ad 7232 0d33 5f32 dafa d630 5bc5 4a32
00000150: d432 4031 22fd 9133 a724 2d32 20a2 8732
00000160: ac8f ee31 5be8 1333 7717 8632 a859 9232
00000170: c277 4832 8249 3332 a61b 0c32 c349 0e33
00000180: 75ee b631 9451 5231 19f3 0d31 a9a3 f031
00000190: 971a 6b31 1c75 1832 7d41 1731 f012 a831
000001a0: 93c6 4232 0a14 1831 3396 8730 d8d6 b031
000001b0: da50 8a31 43a0 b731 da72 2330 c955 e931
000001c0: f37f 2030 0a45 5731 9246 6331 1aa5 5031
000001d0: b45a b130 832d c531 4e95 2e31 934f 8f31
000001e0: bd17 3f31 0a3f a531 857a 0031 3ee4 3331
000001f0: bd86 b331 ad8d 302f be27 0931 6c7d 9c30

exp_avg f4 [81, 32]
1.6912012e-05 -1.7101276e-05 -1.6736469e-05 1.7347209e-05 1.6788805e-05 1.737731e-05 1.6582748e-05 -1.6851976e-05
1.8120083e-05 -1.711466e-05 -1.7253247e-05 -1.68165e-05 1.7413111e-05 -1.7366398e-05 1.614959e-05 -1.6828886e-05
-1.595759e-05 -1.711818e-05 -1.7251034e-05 -1.6868695e-05 1.70087e-05 1.7436445e-05 1.7944421e-05 -1.7276765e-05
1.7669363e-05 1.5551823e-05 -1.7516033e-05 1.7209724e-05 -1.7200155e-05 -1.7549486e-05 -1.7512066e-05 1.7013159e-05
-0.0016241436 0.0016384445 0.0015945751 -0.0016543197 -0.0016091362 -0.0016536721 -0.0015845917 0.0016183744
-0.0017037807 0.0016315569 0.0016506731 0.0016118004 -0.0016584593 0.0016528621 -0.0015460902 0.0016188322
0.0015554457 0.001635951 0.0016298185 0.0016169035 -0.0016256304 -0.0016624493 -0.0016954918 0.0016428577
-0.0016773372 -0.001507455 0.0016692964 -0.001646061 0.0016441118 0.0016701674 0.001663597 -0.0016351204
4.9628516e-06 -5.0666117e-06 -5.077948e-06 5.3312297e-06 5.027152e-06 5.270936e-06 5.06348e-06 -4.9641426e-06
6.0040584e-06 -5.1606007e-06 -5.161137e-06 -4.9950386e-06 5.3481717e-06 -5.3652916e-06 4.9606506e-06 -4.9430855e-06
-4.3702667e-06 -5.1823686e-06 -5.5720056e-06 -5.049649e-06 5.138216e-06 5.316923e-06 5.695934e-06 -5.2870178e-06
5.451245e-06 4.4129524e-06 -5.2818614e-06 5.1518264e-06 -5.1907396e-06 -5.4320353e-06 -5.467669e-06 5.0032722e-06
7.970498e-06 -8.105696e-06 -8.033849e-06 8.389795e-06 7.997958e-06 8.348324e-06 7.98639e-06 -7.949388e-06
9.14409e-06 -8.198179e-06 -8.2191345e-06 -7.977284e-06 8.418837e-06 -8.423931e-06 7.801468e-06 -7.932101e-06
-7.229128e-06 -8.2123215e-06 -8.580393e-06 -8.035953e-06 8.150658e-06 8.398223e-06 8.849493e-06 -8.333525e-06
8.568898e-06 7.1864542e-06 -8.390705e-06 8.203888e-06 -8.235846e-06 -8.518998e-06 -8.549533e-06 8.022638e-06
1.0478305e-05 -1.0645134e-05 -1.0538992e-05 1.1010382e-05 1.0508191e-05 1.09499115e-05 1.0483215e-05 -1.0454226e-05
1.1965397e-05 -1.07488595e-05 -1.0799956e-05 -1.0482741e-05 1.1043698e-05 -1.1048556e-05 1.0247375e-05 -1.0435668e-05
-9.5530895e-06 -1.0780916e-05 -1.1232867e-05 -1.0555529e-05 1.0694409e-05 1.1022348e-05 1.15824305e-05 -1.0934383e-05
1.1236539e-05 9.465906e-06 -1.10045785e-05 1.0769213e-05 -1.0810887e-05 -1.1178166e-05 -1.12053995e-05 1.054991e-05
4.6650275e-06 -4.7680655e-06 -4.799609e-06 5.0501667e-06 4.743089e-06 4.977846e-06 4.7934354e-06 -4.6710006e-06
5.758505e-06 -4.8711418e-06 -4.8671427e-06 -4.7058256e-06 5.067521e-06 -5.086686e-06 4.703658e-06 -4.648966e-06
-4.0587734e-06 -4.8973593e-06 -5.322771e-06 -4.766373e-06 4.8552515e-06 5.0305257e-06 5.417488e-06 -4.999313e-06
5.1626375e-06 4.1273734e-06 -4.983837e-06 4.8570055e-06 -4.902461e-06 -5.1520956e-06 -5.1930388e-06 4.703958e-06
7.2425332e-06 -7.3757565e-06 -7.344385e-06 7.685727e-06 7.29854e-06 7.6247134e-06 7.313026e-06 -7.2359767e-06
8.492503e-06 -7.4811414e-06 -7.493715e-06 -7.263308e-06 7.713412e-06 -7.724144e-06 7.1482596e-06 -7.211325e-06
-6.496966e-06 -7.500955e-06 -7.9323645e-06 -7.3311476e-06 7.4410696e-06 7.682726e-06 8.144227e-06 -7.630625e-06
7.852232e-06 6.497745e-06 -7.655883e-06 7.4784343e-06 -7.520285e-06 -7.815253e-06 -7.850579e-06 7.296965e-06
4.8434213e-06 -4.94607e-06 -4.9694395e-06 5.2204896e-06 4.914659e-06 5.157313e-06 4.957284e-06 -4.846662e-06
5.918473e-06 -5.0468907e-06 -5.0454714e-06 -4.8804995e-06 5.2391183e-06 -5.257665e-06 4.8606103e-06 -4.8252855e-06
-4.2391125e-06 -5.0699305e-06 -5.48051e-06 -4.9377777e-06 5.0281315e-06 5.2066316e-06 5.590315e-06 -5.1762827e-06
5.3405665e-06 4.2937795e-06 -5.1632514e-06 5.034964e-06 -5.075704e-06 -5.324709e-06 -5.3626536e-06 4.8813968e-06
00000000: 45de 8d37 b674 8fb7 4b65 8cb7 d984 9137
00000010: afd5 8c37 7dc5 9137 2e1b 8b37 585d 8db7
00000020: 9500 9837 7491 8fb7 11bb 90b7 2911 8db7
00000030: 5f12 9237 0eae 91b7 fb78 8737 c22b 8db7
00000040: aadc 85b7 0399 8fb7 50b6 90b7 3f81 8db7
00000050: e8ad 8e37 7b44 9237 5a87 9637 92ed 90b7
00000060: ab38 9437 4975 8237 65ef 92b7 9a5d 9037
00000070: 0d49 90b7 3c37 93b7 e0e6 92b7 7bb7 8e37
00000080: 37e1 d4ba 13c1 d63a 1001 d13a c2d5 d8ba
00000090: a7e9 d2ba 07c0 d8ba 13b2 cfba a21f d43a
000000a0: 6551 dfba f7d9 d53a 665b d83a 0c43 d33a
000000b0: a960 d9ba d9a4 d83a 2ea6 caba ff2e d43a
000000c0: 19e0 cb3a 686d d63a a29f d53a 47ee d33a
000000d0: 1b13 d5ba 8be6 d9ba 443b deba 2855 d73a
000000e0: 19da dbba cc95 c5ba 4bcc da3a a4c0 d7ba
000000f0: 3d7f d73a 85e9 da3a 0d0d da3a 8951 d6ba
00000100: 9286 a636 dd01 aab6 3e63 aab6 eae2 b236
00000110: e8ae a836 ffdc b036 f6e6 a936 a991 a6b6
00000120: 7876 c936 3929 adb6 d42d adb6 0e9b a7b6
00000130: 7274 b336 8107 b4b6 aa73 a636 c8dc a5b6
00000140: 4ea4 92b6 35e4 adb6 2af7 bab6 2870 a9b6
00000150: f068 ac36 0568 b236 b31f bf36 2367 b1b6
00000160: d7e9 b636 f912 9436 d83a b1b6 dadd ac36
00000170: 1d2c aeb6 d444 b6b6 eb76 b7b6 c8e1 a736
00000180: 07b9 0537 b3fd 07b7 1ec9 06b7 e5c1 0c37
00000190: f82e 0637 c70f 0c37 49fd 0537 5d5e 05b7
000001a0: 9169 1937 e98a 09b7 eae4 09b7 2dd6 05b7
000001b0: a13e 0d37 8254 0db7 0de3 0237 1d14 05b7
000001c0: bd91 f2b6 a7c7 09b7 82f4 0fb7 28d2 06b7
000001d0: cfbe 0837 18e6 0c37 4878 1437 38d0 0bb7
000001e0: 23c3 0f37 2c23 f136 cec5 0cb7 6ea3 0937
000001f0: b02c 0ab7 d1ec 0eb7 f76f 0fb7 f898 0637
00000200: facb 2f37 8198 32b7 a0d0 30b7 3bb9 3837
00000210: 564c 3037 83b5 3737 11e1 2f37 8f64 2fb7
00000220: fdbe 4837 0056 34b7 7531 35b7 08df 2fb7
00000230: 5248 3937 305d 39b7 24ec 2b37 da14 2fb7
00000240: 3546 20b7 afdf 34b7 cc74 3cb7 a717 31b7
00000250: 236c 3337 a0ec 3837 2952 4237 d172 37b7
00000260: 9184 3c37 c2cf 1e37 4ea0 38b7 6bad 3437
00000270: 6860 35b7 db89 3bb7 d3fe 3bb7 85ff 3037
00000280: 4888 9c36 5ffd 9fb6 540c a1b6 9a74 a936
00000290: d326 9f36 5f07 a736 4cd7 a036 97bb 9cb6
000002a0: 2e39 c136 ca72 a3b6 7050 a3b6 bce6 9db6
000002b0: ad09 aa36 4dae aab6 1dd4 9d36 50fe 9bb6
000002c0: 9930 88b6 ff53 a4b6 419a b2b6 d5ee 9fb6
000002d0: 4bea a236 e3cb a836 dec7 b536 c6bf a7b6
000002e0: b83a ad36 de7d 8a36 d53a a7b6 5cf9 a236
000002f0: d27f a4b6 2ae0 acb6 dd3f aeb6 b1d6 9d36
00000300: e304 f336 447d f7b6 c96f f6b6 f2f1 0037
00000310: fbe5 f436 cad7 ff36 6a62 f536 91cc f2b6
00000320: 067b 0e37 8406 fbb6 8672 fbb6 57b7 f3b6
00000330: da68 0137 f296 01b7 15db ef36 cff8 f1b6
00000340: 8300 dab6 b6b0 fbb6 3f15 05b7 14fe f5b6
00000350: 4dae f936 0fe5 0037 30a3 0837 4905 00b7
00000360: 14bd 0337 3407 da36 c471 00b7 43ef fa36
00000370: c256 fcb6 421e 03b7 fbb5 03b7 74d8 f436
00000380: ac84 a236 6bf6 a5b6 29bf a6b6 aa2b af36
00000390: 99e8 a436 fb0c ad36 bf56 a636 82a0 a2b6
000003a0: 4c97 c636 7658 a9b6 454c a9b6 2cc3 a3b6
000003b0: afcb af36 006b b0b6 5318 a336 e3e8 a1b6
000003c0: b33d 8eb6 5f1e aab6 39e5 b7b6 30af a5b6
000003d0: 52b7 a836 a0b4 ae36 7194 bb36 eeaf adb6
000003e0: 1e33 b336 4913 9036 fe3f adb6 03f2 a836
000003f0: f74f aab6 e7aa b2b6 d8f0 b3b6 e1ca a336
