lightning_logs/version_78/checkpoints/epoch=39.ckpt (torch_old, 291038 bytes, 21 tensors)

exp_avg f4 [81, 81]
0	0x330a7cca	3.2244124e-08
1	0x3286629d	1.5644497e-08
2	0xb331aeb7	-4.1369926e-08
3	0x3307b6c5	3.1598365e-08
4	0xb2ec6912	-2.7521796e-08
5	0x3297102b	1.7586066e-08
6	0x3302ebb1	3.0482344e-08
7	0x32c46aa9	2.2865907e-08
8	0xb30db02a	-3.298934e-08
9	0xb3404f52	-4.4775625e-08
10	0xb2f72a51	-2.8773828e-08
11	0xb2278a34	-9.752103e-09
12	0xb2e6d7bc	-2.6873629e-08
13	0x3251db17	1.2215216e-08
14	0xb31d2a2a	-3.659276e-08
15	0x32d43c57	2.4707488e-08
16	0xb255ccd4	-1.2444804e-08
17	0xb33bb184	-4.370078e-08
18	0xb2c458f1	-2.2857849e-08
19	0xb302c9ba	-3.0451453e-08
20	0xb3267f4e	-3.876567e-08
21	0x3315f2d6	3.4912624e-08
22	0x32b3d908	2.0937037e-08
23	0xb330588f	-4.1058737e-08
24	0x330545f5	3.10301e-08
25	0x3220366f	9.3256025e-09
26	0xb3569f22	-4.9970488e-08
27	0x3289adbe	1.6027908e-08
28	0x32d8bf43	2.5232685e-08
29	0xb2b0bee0	-2.0575897e-08
30	0xb2883923	-1.5858467e-08
31	0x3195d6b0	4.360878e-09
32	0x3340a379	4.485216e-08
33	0x33368521	4.2496257e-08
34	0xb341a132	-4.508292e-08
35	0x300201b1	4.729613e-10
36	0xb372965b	-5.6481763e-08
37	0xb327a913	-3.903649e-08
38	0xb3206805	-3.7347508e-08
39	0xb3114a84	-3.3828215e-08
40	0xb2fb204d	-2.9234934e-08
41	0xb292de76	-1.70978e-08
42	0x331fd1db	3.7210935e-08
43	0xb2d07e3d	-2.4271793e-08
44	0x336891d4	5.414934e-08
45	0x3342fab0	4.5397144e-08
46	0xb2bf9ee8	-2.2307589e-08
47	0xb341ac5b	-4.509307e-08
48	0x3313d0bf	3.4415958e-08
49	0x330f520e	3.336941e-08
50	0xb30e44e6	-3.3124614e-08
51	0x3319a610	3.577412e-08
52	0x3308f732	3.188979e-08
53	0xb30592b1	-3.109989e-08
54	0xb3126a3f	-3.4089904e-08
55	0xb31146b2	-3.382474e-08
56	0xb317bcbf	-3.532909e-08
57	0xb33264dd	-4.153559e-08
58	0x32fec31c	2.9658217e-08
59	0x33457c2a	4.5980563e-08
60	0x3325a46d	3.85666e-08
61	0x333f8e71	4.4600203e-08
62	0xb3060889	-3.120707e-08
63	0xb33f303e	-4.451453e-08
64	0x3145e872	2.8799403e-09
65	0x32628758	1.3185705e-08
66	0xb2f26a03	-2.8220716e-08
67	0xb1d86982	-6.2984222e-09
68	0xb321179a	-3.75072e-08
69	0x33338810	4.1800433e-08
70	0x3272aadf	1.41251055e-08
71	0x332c7413	4.015244e-08
72	0xb1cfbf56	-6.0462453e-09
73	0x321b4a79	9.039121e-09
74	0xb35cd2df	-5.1414528e-08
75	0xb2580478	-1.2573871e-08
76	0xb2746595	-1.4225766e-08
77	0xb32fc53a	-4.092474e-08
78	0xb2cf29ed	-2.4117037e-08
79	0x334b19c2	4.7288047e-08
80	0x31d7f401	6.2850636e-09
81	0x34458b6b	1.8397775e-07
82	0x33c81347	9.316732e-08
83	0xb48f2f9d	-2.667047e-07
84	0x345ed8ba	2.0754206e-07
85	0xb45e9020	-2.0727794e-07
86	0x33fa3bcc	1.1652409e-07
87	0x349aa8a0	2.8807426e-07
88	0x344896c1	1.8681295e-07
89	0xb48df3a0	-2.6440557e-07
90	0xb48d76fb	-2.6349866e-07
91	0xb4521fae	-1.9569299e-07
92	0xb3c63fba	-9.231685e-08
93	0xb4493968	-1.8740468e-07
94	0x33b81120	8.571283e-08
95	0xb46f3bb8	-2.2280335e-07
96	0x347cbe70	2.353861e-07
97	0xb4050ae7	-1.2390556e-07
98	0xb4aa9b99	-3.177818e-07
99	0xb4342244	-1.6776272e-07
100	0xb45e2eca	-2.0692383e-07
101	0xb4a576c8	-3.082007e-07
102	0x3496df49	2.8102139e-07
103	0x34295d7e	1.5773364e-07
104	0xb4bac822	-3.4790816e-07
105	0x34713230	2.2463132e-07
106	0x3393592b	6.8614405e-08
107	0xb4ba4853	-3.4697823e-07
108	0x33f664f0	1.1473628e-07
109	0x345b5e03	2.0430166e-07
110	0xb3f1da11	-1.1262103e-07
111	0xb37f9a00	-5.9511876e-08
112	0x3246d93c	1.157451e-08
113	0x34a5f46d	3.0911488e-07
114	0x34d62b86	3.9892274e-07
115	0xb48a60ef	-2.5775032e-07
116	0x3320bde5	3.742561e-08
117	0xb4e4be8c	-4.260695e-07
118	0xb4621e06	-2.1058813e-07
119	0xb46d624e	-2.2108108e-07
120	0xb48e363b	-2.648902e-07
121	0xb45eb306	-2.074049e-07
122	0xb43d144a	-1.7609378e-07
123	0x348de2f6	2.6428432e-07
124	0xb4408451	-1.792953e-07
125	0x34f0a402	4.4822815e-07
126	0x349d6351	2.931579e-07
127	0xb4234f5d	-1.520943e-07
128	0xb48de983	-2.64332e-07
129	0x34848fea	2.4691627e-07
130	0x349c9555	2.9165918e-07
131	0xb46a8cb4	-2.1844136e-07
132	0x3495b79b	2.7887003e-07
133	0x3464d822	2.1312783e-07
134	0xb49b3d4b	-2.8915596e-07
135	0xb4aaef08	-3.1838886e-07
136	0xb4937583	-2.7466385e-07
137	0xb4950b65	-2.7761703e-07
138	0xb4a88eba	-3.1396286e-07
139	0x3479dda8	2.327057e-07
140	0x34acbb5a	3.2173813e-07
141	0x34a5c197	3.08745e-07
142	0x349b6082	2.8941218e-07
143	0xb4a6bdad	-3.1057917e-07
144	0xb4b464be	-3.3600912e-07
145	0x32bdc950	2.2094042e-08
146	0x33cde9df	9.588597e-08
147	0xb4443d04	-1.827612e-07
148	0xb320a084	-3.739889e-08
149	0xb49c742e	-2.9141796e-07
150	0x347ffa9e	2.38399e-07
151	0x33f03194	1.1184889e-07
152	0x34848ddc	2.4690132e-07
153	0xb2a2c46f	-1.894861e-08
154	0x3344520d	4.570943e-08
155	0xb49ef199	-2.960558e-07
156	0xb409f58a	-1.2848446e-07
157	0xb41fd7bd	-1.4886514e-07
158	0xb47d9926	-2.3618176e-07
159	0xb431c08a	-1.6554455e-07
160	0x349d70e7	2.9325676e-07
161	0xafdac746	-3.979556e-10
162	0x32b082a8	2.0548512e-08
163	0x324536ab	1.1479339e-08
164	0xb3007e42	-2.9917153e-08
165	0x32cdac56	2.394351e-08
166	0xb2c8748a	-2.333606e-08
167	0x3280e4da	1.500523e-08
168	0x3312c647	3.4173606e-08
169	0x328573d3	1.5535909e-08
170	0xb2e841f8	-2.7038354e-08
171	0xb2fd1644	-2.9463202e-08
172	0xb28b23cf	-1.6198014e-08
173	0xb202f0f4	-7.621782e-09
174	0xb2aed61c	-2.0353632e-08
175	0x31c8fc6c	5.849463e-09
176	0xb2be34c3	-2.2142904e-08
177	0x32bc2db3	2.1906862e-08
178	0xb267e248	-1.349742e-08
179	0xb303b8ee	-3.0669007e-08
180	0xb2b9bb01	-2.1621874e-08
181	0xb2d5e629	-2.4901128e-08
182	0xb311b344	-3.3923484e-08
183	0x32caa112	2.3589141e-08
184	0x32483746	1.16541e-08
185	0xb30d5764	-3.2908602e-08
186	0x32faa876	2.9180438e-08
187	0x322584ca	9.634457e-09
188	0xb3231ef1	-3.7979536e-08
189	0x3269b318	1.3603106e-08
190	0x32cb8720	2.3693758e-08
191	0xb2690189	-1.3562734e-08
192	0xb2178745	-8.8201135e-09
193	0x312b94b9	2.4968314e-09
194	0x32fe31aa	2.9592076e-08
195	0x332b53d2	3.9890274e-08
196	0xb2fea19f	-2.9642989e-08
197	0x31a3e7f9	4.7702966e-09
198	0xb344a561	-4.5785217e-08
199	0xb2a23043	-1.8881229e-08
200	0xb2c592aa	-2.3000513e-08
201	0xb2f871f5	-2.8922821e-08
202	0xb2f92a3e	-2.9006625e-08
203	0xb2ae41b6	-2.0286148e-08
204	0x32cdbbd3	2.3950554e-08
205	0xb266a575	-1.3425383e-08
206	0x3344688b	4.5729887e-08
207	0x32e94e00	2.716024e-08
208	0xb29d729f	-1.832933e-08
209	0xb2f2ae6a	-2.8251822e-08
210	0x32cce460	2.3852579e-08
211	0x330e1cd0	3.3088156e-08
212	0xb2d408a3	-2.4683976e-08
213	0x3305a54e	3.111682e-08
214	0x32a653e8	1.93631e-08
215	0xb2f3564a	-2.8328163e-08
216	0xb3018a8a	-3.0161154e-08
217	0xb30db3a8	-3.2992517e-08
218	0xb2ed299c	-2.7609353e-08
219	0xb2d04dbf	-2.4249742e-08
220	0x32d64b87	2.4947225e-08
221	0x331657a0	3.500429e-08
222	0x331222ee	3.4025042e-08
223	0x3307a7e3	3.158483e-08
224	0xb2f64480	-2.866932e-08
225	0xb3233a7c	-3.8004586e-08
226	0xb0510c1c	-7.6050966e-10
227	0x3235583a	1.0555647e-08
228	0xb2a8f86e	-1.9670747e-08
229	0xb09a6473	-1.1233524e-09
230	0xb31093fa	-3.3662197e-08
231	0x32d3759a	2.4617112e-08
232	0x32221da1	9.436378e-09
233	0x32d72f3a	2.505077e-08
234	0xb18d46ef	-4.1117043e-09
235	0x318bfa98	4.0739216e-09
236	0xb2fea290	-2.9643417e-08
237	0xb27d908b	-1.47594035e-08
238	0xb286a610	-1.567517e-08
239	0xb2b1eda8	-2.0713586e-08
240	0xb28a79d5	-1.6120717e-08
241	0x33180d27	3.540222e-08
242	0x313bd90a	2.7335454e-09
243	0x32f02fa4	2.7961342e-08
244	0x32834263	1.5280596e-08
245	0xb32cbfcb	-4.0221305e-08
246	0x32e69088	2.684125e-08
247	0xb3031ecc	-3.0528824e-08
248	0x32b1a7f8	2.0681895e-08
249	0x332891fe	3.9248327e-08
250	0x3298d46c	1.7791727e-08
251	0xb306ee85	-3.141624e-08
252	0xb324423c	-3.8244465e-08
253	0xb2f7faf7	-2.886871e-08
254	0xb22b0369	-9.954285e-09
255	0xb2ce2228	-2.3997089e-08

exp_avg_sq f4 [81, 81]
0	0x2d0a9a18	7.8786075e-12
1	0x2caff7fd	5.0013314e-12
2	0x2cedeb89	6.762095e-12
3	0x2cc09fa3	5.4746914e-12
4	0x2c805c9a	3.6482596e-12
5	0x2b51ded4	7.456095e-13
6	0x2b3757de	6.51366e-13
7	0x2c9cafb2	4.4532928e-12
8	0x2ce7b6bc	6.5857025e-12
9	0x2b8bc558	9.931318e-13
10	0x2ca6067c	4.7187237e-12
11	0x2b837594	9.340744e-13
12	0x2b4aa5c2	7.199485e-13
13	0x2c0448fc	1.8798843e-12
14	0x2c705764	3.4154563e-12
15	0x2c22d224	2.3138236e-12
16	0x2a83bcb8	2.3401225e-13
17	0x2cc02a1e	5.461644e-12
18	0x2c586343	3.0750548e-12
19	0x2c69373b	3.314195e-12
20	0x2ba76cdd	1.1896279e-12
21	0x2cd756d6	6.1203083e-12
22	0x2c3db549	2.6959149e-12
23	0x2d7aa4a1	1.424741e-11
24	0x2c8fc878	4.086561e-12
25	0x2a82c523	2.322943e-13
26	0x2d2c0c64	9.779819e-12
27	0x2ae38fc7	4.0423066e-13
28	0x2c17dd6d	2.1581307e-12
29	0x2aa96da5	3.0096512e-13
30	0x2ca183e0	4.5905363e-12
31	0x2b0a161f	4.905815e-13
32	0x2cf0d603	6.8449703e-12
33	0x2c0d1e62	2.005417e-12
34	0x2ac209e7	3.4468194e-13
35	0x2b1cb212	5.5669456e-13
36	0x2d819ecc	1.4736122e-11
37	0x2cc06820	5.4685284e-12
38	0x2d123883	8.311687e-12
39	0x2cacf3f9	4.9156204e-12
40	0x2c844030	3.758792e-12
41	0x2c706623	3.4162749e-12
42	0x2ccedb9b	5.8792532e-12
43	0x2a9db784	2.8016142e-13
44	0x2d1c1284	8.871685e-12
45	0x2c8d721e	4.0201306e-12
46	0x2b78d8b6	8.8408046e-13
47	0x2cd2ace8	5.9877554e-12
48	0x2c460844	2.814208e-12
49	0x2c081424	1.9337943e-12
50	0x2c51739e	2.9764867e-12
51	0x2b2b9932	6.0964005e-13
52	0x2c78212c	3.5261334e-12
53	0x2bce2845	1.4648357e-12
54	0x2c12148b	2.0759252e-12
55	0x2cc7e330	5.681143e-12
56	0x2ca62244	4.721808e-12
57	0x2d393c76	1.05294575e-11
58	0x2cac880e	4.903639e-12
59	0x2cd7b4ce	6.130741e-12
60	0x2c12f572	2.0884097e-12
61	0x2c5a0355	3.0981513e-12
62	0x2b21ce4b	5.748498e-13
63	0x2caf03aa	4.974206e-12
64	0x2c235d2f	2.321542e-12
65	0x2adfd9d8	3.9763917e-13
66	0x2c2744b7	2.3770272e-12
67	0x2b2d110a	6.1485593e-13
68	0x2c07a5de	1.9276729e-12
69	0x2d396dca	1.05404106e-11
70	0x2bd0aca2	1.4827204e-12
71	0x2d1e6416	9.003484e-12
72	0x2a86874c	2.3897063e-13
73	0x2c1b42f5	2.2063993e-12
74	0x2ccc9521	5.8145854e-12
75	0x2bd350c4	1.5014869e-12
76	0x2b5f8d0a	7.9421246e-13
77	0x2cc9f688	5.740134e-12
78	0x2c81fceb	3.69448e-12
79	0x2c489b9a	2.8508086e-12
80	0x2bcaec84	1.441861e-12
81	0x2ea2380c	7.376863e-11
82	0x2ead58be	7.882893e-11
83	0x2ec8cfad	9.1318376e-11
84	0x2ec125ad	8.7833164e-11
85	0x2edf1a44	1.01455316e-10
86	0x2d1bc710	8.854931e-12
87	0x2e47f30f	4.546324e-11
88	0x2f7ca0e0	2.2976421e-10
89	0x2ec3731d	8.8880216e-11
90	0x2d12c706	8.343331e-12
91	0x2f0742e8	1.2301948e-10
92	0x2e6a9cd7	5.3344742e-11
93	0x2c922d7a	4.1546185e-12
94	0x2ebf3d34	8.696546e-11
95	0x2d5330b6	1.2004777e-11
96	0x2f1b2ed6	1.4113807e-10
97	0x2d16b18d	8.565937e-12
98	0x2f0709ef	1.2281708e-10
99	0x2ee234d4	1.0286674e-10
100	0x2e3f687a	4.3521166e-11
101	0x2e02789f	2.966571e-11
102	0x2f814ce8	2.3519608e-10
103	0x2e8edb97	6.4964194e-11
104	0x2fecef8f	4.3098367e-10
105	0x2e1afd0a	3.524029e-11
106	0x2d0d6b46	8.0387415e-12
107	0x2f3ea856	1.7340204e-10
108	0x2d9ef904	1.8073106e-11
109	0x2f4fc881	1.8897774e-10
110	0x2d586e82	1.2302716e-11
111	0x2dfe9de1	2.8946569e-11
112	0x2b930cfc	1.0448582e-12
113	0x2ea212fb	7.370279e-11
114	0x2ee00a8e	1.01882155e-10
115	0x2dc59680	2.2463142e-11
116	0x2c3ec134	2.7107873e-12
117	0x3004a03a	4.8249016e-10
118	0x2ee8bbe5	1.0583515e-10
119	0x2f111811	1.3196223e-10
120	0x2f5d50ec	2.0128582e-10
121	0x2df0c3ce	2.7371796e-11
122	0x2f1fd17c	1.453539e-10
123	0x2ef0a12f	1.09425684e-10
124	0x2df7bd66	2.8164759e-11
125	0x2fa46e79	2.9909922e-10
126	0x2ed636a3	9.741299e-11
127	0x2d17861c	8.6131345e-12
128	0x2e709046	5.4697823e-11
129	0x2e025280	2.9631853e-11
130	0x2ee192db	1.0257902e-10
131	0x2e8bfe0f	6.366118e-11
132	0x2ccbe4a7	5.7949925e-12
133	0x2f142ca2	1.3476378e-10
134	0x2f0f2f3a	1.3022552e-10
135	0x2f8e731f	2.5911448e-10
136	0x2f540360	1.9282487e-10
137	0x2efb68d3	1.1432779e-10
138	0x2f9f6ff7	2.9001487e-10
139	0x2ef96187	1.13405334e-10
140	0x2f91637f	2.6446043e-10
141	0x2e82e10b	5.951691e-11
142	0x2db5d642	2.0672467e-11
143	0x2e3b5f13	4.260332e-11
144	0x2e96f68d	6.8650065e-11
145	0x2e770703	5.6167525e-11
146	0x2cf1d2ac	6.8730212e-12
147	0x2dff4c44	2.9024012e-11
148	0x2dcad4f3	2.305931e-11
149	0x2ec9213c	9.1463254e-11
150	0x2eb16a75	8.067939e-11
151	0x2d2168f3	9.175094e-12
152	0x2f403e57	1.7484446e-10
153	0x2da6de1c	1.8970651e-11
154	0x2dd9afe7	2.474816e-11
155	0x2e8027ad	5.827814e-11
156	0x2f092c36	1.2475784e-10
157	0x2de683ed	2.620656e-11
158	0x2e10c2c2	3.291479e-11
159	0x2e8755b5	6.154314e-11
160	0x2e70bcb6	5.473729e-11
161	0x2cf5fca7	6.991369e-12
162	0x293ffc34	4.262927e-14
163	0x295060c5	4.6269212e-14
164	0x2a00a540	1.1426016e-13
165	0x29b2380c	7.9145105e-14
166	0x29c30bc6	8.661782e-14
167	0x282f2688	9.722807e-15
168	0x29f718b5	1.09732895e-13
169	0x296b36ca	5.2228004e-14
170	0x29e012b3	9.950842e-14
171	0x29129469	3.2547238e-14
172	0x29251701	3.6657313e-14
173	0x27f60517	6.8284234e-15
174	0x290c340d	3.113139e-14
175	0x28a504c6	1.832075e-14
176	0x293919d0	4.110064e-14
177	0x292f1685	3.887734e-14
178	0x279801e2	4.2190516e-15
179	0x29909944	6.421472e-14
180	0x2a0a7db5	1.2300476e-13
181	0x2966b73e	5.1229196e-14
182	0x29910845	6.440728e-14
183	0x295c8dcd	4.8972806e-14
184	0x28ba70df	2.0699098e-14
185	0x2a7e30ee	2.2576708e-13
186	0x29f16016	1.0719218e-13
187	0x28e43dac	2.5339831e-14
188	0x2a50ff72	1.8562737e-13
189	0x286dad2f	1.3193696e-14
190	0x29ad2346	7.688862e-14
191	0x2834bad6	1.0032521e-14
192	0x29810f7a	5.7314356e-14
193	0x2713e3f6	2.0523926e-15
194	0x298a5fd5	6.145055e-14
195	0x29f022cc	1.0664177e-13
196	0x28a6144f	1.843851e-14
197	0x277a1e7c	3.4710995e-15
198	0x2a99b907	2.7306648e-13
199	0x288ce28e	1.5641375e-14
200	0x29350031	4.019024e-14
201	0x29b8fb91	8.214881e-14
202	0x2a330da3	1.5903125e-13
203	0x29cdc19c	9.137415e-14
204	0x295fd0ef	4.9697168e-14
205	0x27b8d3bd	5.1299826e-15
206	0x2a4ccd3e	1.8190047e-13
207	0x291f15a5	3.5323866e-14
208	0x28e24af2	2.5123543e-14
209	0x2983f822	5.860613e-14
210	0x290b939b	3.0992227e-14
211	0x29cd4503	9.1158004e-14
212	0x2992de93	6.522313e-14
213	0x2960a646	4.988221e-14
214	0x29a537cd	7.337152e-14
215	0x29314517	3.936182e-14
216	0x297f7874	5.672585e-14
217	0x2a33cf31	1.5970278e-13
218	0x29998296	6.817218e-14
219	0x299bf36c	6.92561e-14
220	0x29c99430	8.9518996e-14
221	0x29ae1ceb	7.732169e-14
222	0x29ee6c14	1.0588072e-13
223	0x299d206f	6.977827e-14
224	0x293d0984	4.1974684e-14
225	0x2a07389c	1.2010049e-13
226	0x274335a3	2.7090763e-15
227	0x284c5db3	1.1344593e-14
228	0x2936eaf4	4.0615907e-14
229	0x26b68bec	1.2666713e-15
230	0x29b2f8e9	7.947967e-14
231	0x2995b348	6.6480296e-14
232	0x270f7c3e	1.9912588e-15
233	0x299d9db9	6.999561e-14
234	0x2742d260	2.7036953e-15
235	0x2796f956	4.1903694e-15
236	0x298d25c6	6.2682105e-14
237	0x28610caf	1.2492759e-14
238	0x28a3154d	1.8105873e-14
239	0x28aa9264	1.8937278e-14
240	0x290b1057	3.0878373e-14
241	0x295fe64d	4.97157e-14
242	0x27afca8a	4.879185e-15
243	0x2b9b2ee6	1.1026429e-12
244	0x2b9e04a7	1.1227867e-12
245	0x2bbab4a6	1.3266235e-12
246	0x2b56cf2f	7.63156e-13
247	0x2b807c66	9.129475e-13
248	0x2a519982	1.8616188e-13
249	0x2b152e82	5.2999976e-13
250	0x2a837b30	2.3355753e-13
251	0x2b9defa4	1.1222035e-12
252	0x2ad79585	3.8295422e-13
253	0x2b93f79c	1.0513704e-12
254	0x296e2e29	5.2886654e-14
255	0x29ddc206	9.848029e-14

exp_avg f4 [128, 81]
0	0x334a5e00	4.7117283e-08
1	0x32c64005	2.3079346e-08
2	0xb3a05ba8	-7.467253e-08
3	0x3329e408	3.9555772e-08
4	0xb2c9f283	-2.3509761e-08
5	0xaf890744	-2.4925317e-10
6	0x339cde8c	7.304797e-08
7	0x331c34aa	3.6369478e-08
8	0xb3557d45	-4.970686e-08
9	0xb416b2aa	-1.4034836e-07
10	0xb1bc53f4	-5.4810645e-09
11	0xb2f58737	-2.8583242e-08
12	0xb398b852	-7.111579e-08
13	0xb2f37b29	-2.834493e-08
14	0xb3fcad98	-1.1766241e-07
15	0x32c7b005	2.3246693e-08
16	0xb3908d8c	-6.73127e-08
17	0xb39d30cf	-7.3197604e-08
18	0xb33a6de3	-4.340644e-08
19	0xb3279ed9	-3.902719e-08
20	0xb387ff0f	-6.332822e-08
21	0x33a952ec	7.884759e-08
22	0x3372891d	5.646972e-08
23	0xb3b9dcb0	-8.6548766e-08
24	0x33f05af5	1.1192416e-07
25	0xb1c65416	-5.772118e-09
26	0xb3b7526c	-8.536594e-08
27	0x322884eb	9.809109e-09
28	0xb30a9f79	-3.227567e-08
29	0xb2eb6f07	-2.740809e-08
30	0x332a8458	3.9701575e-08
31	0x332779ef	3.8993615e-08
32	0x33c96dc0	9.379755e-08
33	0x33bd89b4	8.8260464e-08
34	0xb3b47bd0	-8.4044245e-08
35	0xb31ac2dc	-3.6033143e-08
36	0xb427e068	-1.5634726e-07
37	0x304c0348	7.421943e-10
38	0x32a721c6	1.9456717e-08
39	0xb354ab1a	-4.9515712e-08
40	0xb3ff824f	-1.1898066e-07
41	0xb1df4156	-6.497582e-09
42	0x3359f495	5.0746696e-08
43	0xb3f2a624	-1.1299224e-07
44	0x33cb47c9	9.465982e-08
45	0x3351fa1b	4.8889074e-08
46	0xb3b38db2	-8.361111e-08
47	0xb3ce96bf	-9.620043e-08
48	0x3309ed2f	3.2113515e-08
49	0x3410c4c6	1.3482631e-07
50	0xb230b6f6	-1.0286149e-08
51	0x34125cd1	1.3631076e-07
52	0x33776980	5.760512e-08
53	0xb407eb4f	-1.265846e-07
54	0xb22bf114	-1.0008325e-08
55	0xb3cb2954	-9.460442e-08
56	0xb3b4dd87	-8.422199e-08
57	0xb31217a5	-3.401478e-08
58	0xb2c02209	-2.236722e-08
59	0x340fc9a4	1.3391269e-07
60	0x310f47ac	2.084998e-09
61	0x3384aebc	6.178513e-08
62	0xb368e60b	-5.4225932e-08
63	0xb14db5ad	-2.9934697e-09
64	0xb2a5d9f2	-1.9307638e-08
65	0x3373d085	5.6767494e-08
66	0xb3287994	-3.9226123e-08
67	0xb2d54553	-2.4827989e-08
68	0xb3d8ca63	-1.0095098e-07
69	0x33f4a3d8	1.13919384e-07
70	0x3347ea50	4.6546404e-08
71	0x3366a213	5.3698454e-08
72	0xb1e6c07b	-6.7157635e-09
73	0x33a3df91	7.6309455e-08
74	0xb33e9af4	-4.437875e-08
75	0xb2ac965c	-2.009181e-08
76	0xb3c4c4b4	-9.162741e-08
77	0xb4102ae8	-1.3426654e-07
78	0x32f8a1c7	2.8944568e-08
79	0x33e19822	1.0505052e-07
80	0xb2071a56	-7.864022e-09
81	0x32af57d1	2.0412616e-08
82	0x31e129a6	6.5530967e-09
83	0xb2932410	-1.7129452e-08
84	0x321af1fc	9.019001e-09
85	0xb2e67946	-2.6830673e-08
86	0xb27ac6ec	-1.4597145e-08
87	0x334931d3	4.6844274e-08
88	0x329debab	1.8384375e-08
89	0x3157a48c	3.1380152e-09
90	0xb3a31dcf	-7.595701e-08
91	0xb290c3d5	-1.685286e-08
92	0x31cff91a	6.0528125e-09
93	0xb300e0db	-3.0006827e-08
94	0x3206731a	7.825998e-09
95	0xb38626b7	-6.2469034e-08
96	0x324fbcad	1.2091886e-08
97	0xb32ccb9e	-4.023206e-08
98	0xb3309419	-4.1112887e-08
99	0xb0a0ba8d	-1.1694553e-09
100	0xb2432e7b	-1.1361062e-08
101	0xb302c05e	-3.044294e-08
102	0x331899b5	3.5530054e-08
103	0x330186e4	3.0157835e-08
104	0xb30394cf	-3.0636155e-08
105	0x33ab5bb2	7.979487e-08
106	0x3117b77a	2.2077686e-09
107	0xb3484cf0	-4.6636103e-08
108	0x3245f443	1.1522448e-08
109	0x312a60d9	2.4793307e-09
110	0xb2a4bcef	-1.917803e-08
111	0x3235d392	1.0583692e-08
112	0xb22907db	-9.838881e-09
113	0x336fc30d	5.582392e-08
114	0x331ff826	3.7245762e-08
115	0xb3874b14	-6.300084e-08
116	0xb2fbcd47	-2.9313595e-08
117	0xb3594988	-5.0591126e-08
118	0x31beed0a	5.556676e-09
119	0xb253bae0	-1.2324307e-08
120	0xb346bb6e	-4.6270934e-08
121	0xb37d5bc5	-5.8989617e-08
122	0xb24916d6	-1.1704932e-08
123	0x312f1bb1	2.5481592e-09
124	0xb3b3e94f	-8.3777756e-08
125	0x339b3d68	7.22892e-08
126	0x330208fb	3.027615e-08
127	0xb376ea79	-5.748959e-08
128	0xb37abcee	-5.837949e-08
129	0xb15bc71e	-3.198188e-09
130	0x33aabd84	7.9507146e-08
131	0x31ba5a39	5.4235696e-09
132	0x339dcfc2	7.348673e-08
133	0x32de7e0c	2.5901521e-08
134	0xb3a2b1ee	-7.576078e-08
135	0xb2f09093	-2.8005422e-08
136	0xb3ab7e1f	-7.985749e-08
137	0xb3b637aa	-8.485161e-08
138	0xb242046d	-1.12932925e-08
139	0xb1fa11d7	-7.2779858e-09
140	0x33a8e46b	7.8646586e-08
141	0x329f553a	1.8548793e-08
142	0x32ef8bd3	2.7886847e-08
143	0xb388f0e5	-6.376812e-08
144	0xb2d1b28c	-2.4411996e-08
145	0xb320024c	-3.7254992e-08
146	0x3332288d	4.1480735e-08
147	0xb31c0cdd	-3.633328e-08
148	0xb1b9299f	-5.3889404e-09
149	0xb3871f39	-6.292107e-08
150	0x33ad4b3b	8.0696246e-08
151	0x32edf16f	2.7700223e-08
152	0x3300ec15	3.0017038e-08
153	0xb1e08d9c	-6.535357e-09
154	0x331e302f	3.6831064e-08
155	0xb323b1cf	-3.811311e-08
156	0xb2f00558	-2.7942107e-08
157	0xb3073377	-3.1478944e-08
158	0xb39ef99f	-7.402854e-08
159	0xb1793b59	-3.6268004e-09
160	0x3394bc8e	6.926085e-08
161	0xb1f53998	-7.136986e-09
162	0x334b09bb	4.727347e-08
163	0x33308626	4.11002e-08
164	0xb406bff1	-1.254955e-07
165	0x32d09aa3	2.4284708e-08
166	0xb32d5315	-4.0355264e-08
167	0x32e3bd43	2.6512344e-08
168	0x343db543	1.7667939e-07
169	0x338f077b	6.660317e-08
170	0xb3bcbe0d	-8.789002e-08
171	0xb46e7073	-2.2206386e-07
172	0xb31f44b0	-3.7082543e-08
173	0xb2ca890a	-2.3578213e-08
174	0xb36c3827	-5.4999102e-08
175	0xb298d175	-1.7790379e-08
176	0xb480a748	-2.396357e-07
177	0x316b90c2	3.4279286e-09
178	0xb350a69f	-4.8580315e-08
179	0xb3e05cc7	-1.0447689e-07
180	0xb345945c	-4.600257e-08
181	0xb3c9fd4a	-9.405865e-08
182	0xb3f662aa	-1.14732146e-07
183	0x3390cda9	6.742932e-08
184	0x32cea43f	2.4056247e-08
185	0xb41c864e	-1.4577492e-07
186	0x34787c4f	2.3142023e-07
187	0xb2c6e7cc	-2.3155643e-08
188	0xb4238abb	-1.5231028e-07
189	0xb2ae899d	-2.0318845e-08
190	0x3231708b	1.0328345e-08
191	0xb2fdac50	-2.9531435e-08
192	0x33ac178c	8.013657e-08
193	0x32e10a4f	2.6198135e-08
194	0x341ee8dd	1.4799612e-07
195	0x3406dd35	1.2560197e-07
196	0xb4370087	-1.7043395e-07
197	0xb373da47	-5.677637e-08
198	0xb46330c7	-2.1158768e-07
199	0xb45c2c6b	-2.0505256e-07
200	0xb2f6e2c9	-2.87413e-08
201	0xb3923b94	-6.809492e-08
202	0xb44d5173	-1.9121744e-07
203	0xb317466d	-3.522148e-08
204	0x33fe4b7f	1.18415294e-07
205	0xb3c12810	-8.99455e-08
206	0x34125094	1.3626624e-07
207	0x340dd848	1.3210331e-07
208	0xb40cf042	-1.3125921e-07
209	0xb490696b	-2.6898792e-07
210	0x33da89c1	1.0176473e-07
211	0x34826238	2.428585e-07
212	0xb15defa2	-3.2295948e-09
213	0x34511a7d	1.9474278e-07
214	0x3350b60a	4.8594337e-08
215	0xb44b99a7	-1.8961747e-07
216	0xb105c4e3	-1.9465964e-09
217	0xb3f3cd8a	-1.13529566e-07
218	0xb41a6ba3	-1.4381526e-07
219	0xb3a9e685	-7.911607e-08
220	0xb2145d3f	-8.6359355e-09
221	0x345da7a4	2.0643216e-07
222	0x33700db7	5.5891828e-08
223	0x33f937a2	1.16050856e-07
224	0xb3fd8d87	-1.1806974e-07
225	0xb3df0c8b	-1.0386528e-07
226	0xb2bfe4bd	-2.2339345e-08
227	0x335329b4	4.9165195e-08
228	0xb350e893	-4.86403e-08
229	0xb37bba03	-5.860967e-08
230	0xb47b48a6	-2.3402626e-07
231	0x349c384b	2.9098223e-07
232	0x337e103c	5.915375e-08
233	0x34230ace	1.5184489e-07
234	0x2f91208d	2.6398475e-10
235	0x32720b3d	1.4088809e-08
236	0xb422d407	-1.5164561e-07
237	0xb383a558	-6.130239e-08
238	0xb39c12a5	-7.2677075e-08
239	0xb43763d5	-1.7079522e-07
240	0xb3fe62df	-1.1845781e-07
241	0x344979e7	1.8763932e-07
242	0xb3818218	-6.0306945e-08
243	0x339f7ffb	7.427294e-08
244	0x332de80f	4.0490757e-08
245	0xb3a1c096	-7.532178e-08
246	0xb318e0c0	-3.5594667e-08
247	0xafec187c	-4.2945547e-10
248	0x338aafdb	6.458114e-08
249	0x3400b334	1.1986123e-07
250	0x3382969f	6.0809946e-08
251	0xb394e662	-6.9336934e-08
252	0xb3b40aeb	-8.383889e-08
253	0xb2e6cc16	-2.6868332e-08
254	0x3271c4d1	1.4072797e-08
255	0xb37ab3b6	-5.8371107e-08

exp_avg_sq f4 [128, 81]
0	0x2d874c5f	1.5381639e-11
1	0x2c038ceb	1.8694445e-12
2	0x2da3ba78	1.8613763e-11
3	0x2db59348	2.0642724e-11
4	0x2c64b780	3.2502612e-12
5	0x2a71c1bf	2.1472319e-13
6	0x2cca4807	5.749182e-12
7	0x2c8e6242	4.0467915e-12
8	0x2cbdb568	5.3918432e-12
9	0x2d36f12f	1.0399056e-11
10	0x2b1ce9c8	5.574677e-13
11	0x2bca2bae	1.4365087e-12
12	0x2c99d3d9	4.3720414e-12
13	0x2c46e315	2.8263548e-12
14	0x2dc30307	2.2170278e-11
15	0x2c67b556	3.2927736e-12
16	0x2ae3e807	4.0484302e-13
17	0x2c1e459d	2.2491794e-12
18	0x2d4b7131	1.1564348e-11
19	0x2a8653d2	2.3861344e-13
20	0x2b483373	7.1125674e-13
21	0x2bf0b31e	1.7102741e-12
22	0x2c020ba6	1.8480577e-12
23	0x2e1923e3	3.4820046e-11
24	0x2cff4273	7.2549133e-12
25	0x2d95d472	1.7033683e-11
26	0x2dbe3153	2.1622404e-11
27	0x2c8c7db2	3.9929943e-12
28	0x2c883e2b	3.8722545e-12
29	0x2a64e68e	2.0330458e-13
30	0x2d232d4c	9.275535e-12
31	0x2d5721ec	1.2228867e-11
32	0x2c434046	2.7746846e-12
33	0x2b2edee6	6.212655e-13
34	0x2b84bdb0	9.431813e-13
35	0x2cd4d681	6.049217e-12
36	0x2cbee916	5.4260025e-12
37	0x2dc96a8c	2.289837e-11
38	0x2ce673f7	6.549868e-12
39	0x2c9e50bc	4.4995934e-12
40	0x2d6e918a	1.356105e-11
41	0x2bd93a0f	1.5434892e-12
42	0x2ce3bd14	6.47272e-12
43	0x2d89ffe9	1.5688744e-11
44	0x2ccb806e	5.7838656e-12
45	0x2bcd10ba	1.4570769e-12
46	0x2aef3458	4.249125e-13
47	0x2d59dd97	1.2384225e-11
48	0x2dde765e	2.5291044e-11
49	0x2c5fcf80	3.1805392e-12
50	0x2cab74fd	4.8731006e-12
51	0x2d3d69d9	1.0766909e-11
52	0x2d10d80e	8.233426e-12
53	0x2cb942b4	5.2654218e-12
54	0x2c5e9f50	3.1636534e-12
55	0x2ae93012	4.142247e-13
56	0x2be9587a	1.6580203e-12
57	0x2c25874f	2.3523022e-12
58	0x2c87f0e5	3.8636754e-12
59	0x2d688abd	1.3218479e-11
60	0x2bf2b81b	1.7246234e-12
61	0x2c9e4a6a	4.4988917e-12
62	0x2c1b7363	2.2090877e-12
63	0x2beb6128	1.6724721e-12
64	0x2ba0c680	1.1423779e-12
65	0x2c23b086	2.3261683e-12
66	0x2d242809	9.33121e-12
67	0x2ca0b6fb	4.5677884e-12
68	0x2d5d6e9e	1.25869575e-11
69	0x2e95c98b	6.811537e-11
70	0x2b82c872	9.29269e-13
71	0x2cb676ca	5.1859394e-12
72	0x2b07e120	4.827406e-13
73	0x2d5d2f28	1.2572866e-11
74	0x2c78d608	3.536173e-12
75	0x2c1f93a9	2.2677227e-12
76	0x2d31a6ea	1.00983475e-11
77	0x2ce560ff	6.51934e-12
78	0x2d99ba45	1.7476806e-11
79	0x2d2c81e6	9.805911e-12
80	0x2c2f4954	2.49097e-12
81	0x2c651f1e	3.256013e-12
82	0x2aa0ebb0	2.858525e-13
83	0x2b948aad	1.0554523e-12
84	0x2b8b474e	9.896335e-13
85	0x2b9eab93	1.1274197e-12
86	0x2ab81df2	3.2705745e-13
87	0x2b81976f	9.208033e-13
88	0x2babb420	1.2200276e-12
89	0x2b8a5a9a	9.830637e-13
90	0x2ae3dbea	4.0475896e-13
91	0x2b875e5c	9.618517e-13
92	0x2b1aad01	5.495188e-13
93	0x2bed72fa	1.6871775e-12
94	0x2b176fe0	5.3801234e-13
95	0x2c42048d	2.7571584e-12
96	0x2c004bbe	1.823194e-12
97	0x2a050050	1.1812881e-13
98	0x2b207bf2	5.701543e-13
99	0x2c50839d	2.9631638e-12
100	0x296b5ff0	5.2263695e-14
101	0x2908dcd9	3.038962e-14
102	0x2af396c7	4.3270094e-13
103	0x2a733943	2.1602602e-13
104	0x2ccc9db9	5.8155395e-12
105	0x2c495fff	2.8617107e-12
106	0x2c03646f	1.8671972e-12
107	0x2cbb487f	5.3229083e-12
108	0x2bb4e44a	1.2853132e-12
109	0x2aa15a0f	2.8661836e-13
110	0x29abeef2	7.635376e-14
111	0x2bfbb36e	1.7884424e-12
112	0x2bab53ee	1.2173576e-12
113	0x2b702645	8.531824e-13
114	0x2a5878bd	1.9226543e-13
115	0x2a98b37b	2.7125164e-13
116	0x29bb9e27	8.331903e-14
117	0x2b10f275	5.1495554e-13
118	0x2cad950f	4.9335046e-12
119	0x2af8c869	4.4192712e-13
120	0x2b4bbb5d	7.2380106e-13
121	0x2b896547	9.762546e-13
122	0x2b4f243a	7.359145e-13
123	0x2b7734fe	8.782557e-13
124	0x2c9285c1	4.1644192e-12
125	0x2bc60c90	1.4072233e-12
126	0x2b5a520c	7.756302e-13
127	0x2a994e6c	2.7232676e-13
128	0x2c08d283	1.944362e-12
129	0x2b8400bc	9.379368e-13
130	0x2b19dabe	5.4660085e-13
131	0x2baf4b77	1.2455444e-12
132	0x2ab4bac0	3.2104007e-13
133	0x29d768cf	9.5660994e-14
134	0x2aea961d	4.1670912e-13
135	0x2b8b70fe	9.907906e-13
136	0x2b62cce6	8.0575683e-13
137	0x2b09a899	4.8906154e-13
138	0x2ab15903	3.150328e-13
139	0x29896abb	6.102537e-14
140	0x2c06b629	1.9143665e-12
141	0x2b53e8da	7.5285405e-13
142	0x2b028fcc	4.6384836e-13
143	0x2aa19670	2.8703732e-13
144	0x2a0bf9e7	1.2432382e-13
145	0x2b1e06a3	5.6142086e-13
146	0x2b1bcd36	5.535185e-13
147	0x2ad8b6e2	3.8496208e-13
148	0x2c728dc9	3.4468975e-12
149	0x2c1310cf	2.0899287e-12
150	0x2d8be1c7	1.5902736e-11
151	0x2a6d1d67	2.106003e-13
152	0x2ab9c644	3.3000176e-13
153	0x2a9108ff	2.5763416e-13
154	0x2c683f0b	3.3004179e-12
155	0x2985b0e0	5.9370694e-14
156	0x2ae01545	3.9805152e-13
157	0x2c873a16	3.8433796e-12
158	0x2ad0ec4d	3.711219e-13
159	0x2c632681	3.2280014e-12
160	0x2c8b77ae	3.9639047e-12
161	0x2b6b727b	8.3647645e-13
162	0x2dc67913	2.2563762e-11
163	0x2e3f712c	4.352889e-11
164	0x2e3758de	4.1688313e-11
165	0x2eb41d70	8.1906815e-11
166	0x2e0de8aa	3.2266335e-11
167	0x2e74aacd	5.563088e-11
168	0x2e331506	4.071856e-11
169	0x2ca01de8	4.5507938e-12
170	0x2d359115	1.03208735e-11
171	0x2e83c4bc	5.992137e-11
172	0x2c83c31b	3.744905e-12
173	0x2cbf0ad2	5.429748e-12
174	0x2dd373d1	2.4039356e-11
175	0x2e12f522	3.341428e-11
176	0x2eeeb527	1.0855166e-10
177	0x2ed66dc6	9.751093e-11
178	0x2b29efc8	6.0373625e-13
179	0x2d3ab3a8	1.0612768e-11
180	0x2c8f38a8	4.0705946e-12
181	0x2cc22f2e	5.5190496e-12
182	0x2ce2ffd1	6.4517077e-12
183	0x2ea0affa	7.307217e-11
184	0x2e34a3e1	4.1072815e-11
185	0x2e2536d6	3.756536e-11
186	0x2e978e96	6.8920133e-11
187	0x2df053a4	2.7321985e-11
188	0x2db8aa79	2.0994083e-11
189	0x2d120b2a	8.301618e-12
190	0x2d8bb650	1.5883433e-11
191	0x2c9d30c7	4.4676238e-12
192	0x2df59fe9	2.792429e-11
193	0x2e40a33c	4.3800727e-11
194	0x2c82050d	3.695383e-12
195	0x2d70f08d	1.36958335e-11
196	0x2d480951	1.1370752e-11
197	0x2e724335	5.508412e-11
198	0x2d8f331c	1.6279915e-11
199	0x2e700390	5.4572846e-11
200	0x2e049d82	3.015322e-11
201	0x2e8d8302	6.435209e-11
202	0x2f530605	1.9192477e-10
203	0x2e364aaf	4.144834e-11
204	0x2e8e949c	6.483811e-11
205	0x2e312604	4.0278905e-11
206	0x2be0a55b	1.5962053e-12
207	0x2dcd7cd2	2.3361233e-11
208	0x2eda30a7	9.9221346e-11
209	0x2f4218be	1.7652987e-10
210	0x2f2a4d7c	1.5488938e-10
211	0x2e87cb41	6.1751944e-11
212	0x2de87719	2.6428236e-11
213	0x2d33bfea	1.02175855e-11
214	0x2df31a91	2.76377e-11
215	0x2dbcbe5a	2.1457659e-11
216	0x2bc916fa	1.4288286e-12
217	0x2c20ae86	2.2834248e-12
218	0x2ecd63cb	9.3400475e-11
219	0x2e32bfb5	4.0642784e-11
220	0x2cfe5644	7.2286916e-12
221	0x2e7681f4	5.6049346e-11
222	0x2dda8a1b	2.4845062e-11
223	0x2d82ee8a	1.4885222e-11
224	0x2ca0c5d3	4.5694364e-12
225	0x2dc227a8	2.2072857e-11
226	0x2db6f07d	2.0797803e-11
227	0x2d71121b	1.3703284e-11
228	0x2ed1bf0f	9.5381585e-11
229	0x2bca1089	1.4357553e-12
230	0x2dc229de	2.207384e-11
231	0x2f6e78b8	2.1688862e-10
232	0x2d00cfcb	7.322097e-12
233	0x2f0b8a03	1.2691008e-10
234	0x2e6d977e	5.4022113e-11
235	0x2cc7d2e1	5.6793324e-12
236	0x2eec15a6	1.0735883e-10
237	0x2d004053	7.2902405e-12
238	0x2d94a1af	1.6897454e-11
239	0x2dc0ff8c	2.1941358e-11
240	0x2eb2a7a8	8.1242846e-11
241	0x2d13d3b4	8.40299e-12
242	0x2c8da70c	4.026007e-12
243	0x2cd106f3	5.940909e-12
244	0x2cfd46d9	7.198558e-12
245	0x2d848ab3	1.5068257e-11
246	0x2d7d55ee	1.4400465e-11
247	0x2d981a4d	1.729208e-11
248	0x2d183c80	8.653633e-12
249	0x2d191d35	8.703528e-12
250	0x2ce0324e	6.372048e-12
251	0x2dba2dd0	2.1166097e-11
252	0x2bdff685	1.5913526e-12
253	0x2c96bf73	4.2845115e-12
254	0x2cb56e21	5.156556e-12
255	0x2d0d56ea	8.034221e-12

exp_avg f4 [128, 32]
0	0x2f58cd51	1.9718029e-10
1	0x2f56ed8b	1.9547579e-10
2	0x2f439cd9	1.779087e-10
3	0xaf50d10f	-1.8991762e-10
4	0xaf5bd3a7	-1.9993128e-10
5	0xaf4e602c	-1.8769758e-10
6	0x2f4cd111	1.8627967e-10
7	0x2f4b3cea	1.8484383e-10
8	0xaf4edc19	-1.8813785e-10
9	0xaf4de8be	-1.8727328e-10
10	0xaf4fcc50	-1.8899127e-10
11	0xaf52fba2	-1.9188787e-10
12	0x2f45a876	1.7976895e-10
13	0x2f669298	2.0970459e-10
14	0xaf58da62	-1.9722671e-10
15	0x2f390cdb	1.6830219e-10
16	0x2f4d65ff	1.8680878e-10
17	0xaf57a3f8	-1.961239e-10
18	0x2f4f8b47	1.8876022e-10
19	0x2f58cfe6	1.9718946e-10
20	0x2f5987fb	1.9784345e-10
21	0x2f267736	1.5139964e-10
22	0x2f494308	1.8304658e-10
23	0x2f4e52ed	1.8765052e-10
24	0x2f4fadd0	1.8888291e-10
25	0x2f5e0910	2.0194002e-10
26	0x2f4d374a	1.8664284e-10
27	0x2f4e3af9	1.8756542e-10
28	0xaf4ade3b	-1.8450745e-10
29	0xaf4e4753	-1.876093e-10
30	0xaf5b37df	-1.9937783e-10
31	0x2f31796c	1.6141194e-10
32	0x2f8dc33f	2.578648e-10
33	0x2f8bec9c	2.5452074e-10
34	0x2f8316b3	2.384489e-10
35	0xaf889442	-2.48436e-10
36	0xaf8df4b5	-2.5821625e-10
37	0xaf861a48	-2.4393132e-10
38	0x2f866745	2.4447835e-10
39	0x2f88db79	2.48942e-10
40	0xaf88fff2	-2.4920116e-10
41	0xaf841e73	-2.4032296e-10
42	0xaf8e04ce	-2.5833063e-10
43	0xaf8a621d	-2.5171767e-10
44	0x2f80e367	2.3444643e-10
45	0x2f965327	2.7343924e-10
46	0xaf8ec294	-2.5967906e-10
47	0x2f8003cc	2.3285762e-10
48	0x2f8d014d	2.5648675e-10
49	0xaf8b18b8	-2.5301516e-10
50	0x2f8da3d9	2.576417e-10
51	0x2f8e2bb0	2.586069e-10
52	0x2f8d65fd	2.5720218e-10
53	0x2f5fdc6c	2.0360041e-10
54	0x2f86d916	2.4528707e-10
55	0x2f89dbdb	2.5076372e-10
56	0x2f8971a4	2.50009e-10
57	0x2f8e9b8c	2.5940172e-10
58	0x2f8c9f39	2.5578986e-10
59	0x2f8864dd	2.4809924e-10
60	0xaf88bdb4	-2.4873048e-10
61	0xaf8629f4	-2.4404267e-10
62	0xaf8f7516	-2.6094743e-10
63	0x2f76a7dc	2.2433205e-10
64	0x30eb7201	1.7130902e-09
65	0x30e83c0b	1.6897287e-09
66	0x30d8f489	1.578557e-09
67	0xb0e2a00c	-1.6489152e-09
68	0xb0eb0ff8	-1.7103039e-09
69	0xb0e09fd3	-1.634357e-09
70	0x30e136b0	1.6386448e-09
71	0x30e3d345	1.657647e-09
72	0xb0e5c425	-1.6717691e-09
73	0xb0e0ecd9	-1.6365461e-09
74	0xb0e441e5	-1.6607912e-09
75	0xb0e6f1ca	-1.6803423e-09
76	0x30d68a2d	1.5609821e-09
77	0x30f72991	1.7983429e-09
78	0xb0ea4051	-1.7044021e-09
79	0x30d007e3	1.5136233e-09
80	0x30e50935	1.666456e-09
81	0xb0e76cf7	-1.6838432e-09
82	0x30e3c472	1.6572257e-09
83	0x30ec7be0	1.7206467e-09
84	0x30ebea69	1.7165124e-09
85	0x30bcb862	1.3731205e-09
86	0x30e23477	1.6458576e-09
87	0x30e28412	1.6481201e-09
88	0x30e5d02b	1.6721108e-09
89	0x30ee489a	1.7337414e-09
90	0x30e59040	1.6702941e-09
91	0x30e10452	1.6372133e-09
92	0xb0e27b1f	-1.6478657e-09
93	0xb0df64ba	-1.6254014e-09
94	0xb0ed639f	-1.7272334e-09
95	0x30c3565f	1.4212665e-09
96	0x304c0f7a	7.423676e-10
97	0x3047f70f	7.274687e-10
98	0x303bc453	6.8309197e-10
99	0xb04302fa	-7.0944817e-10
100	0xb0477522	-7.2562234e-10
101	0xb03feb04	-6.981937e-10
102	0x30404d42	6.9958983e-10
103	0x30479f79	7.26224e-10
104	0xb042c903	-7.0862444e-10
105	0xb0402961	-6.9907996e-10
106	0xb0444bdb	-7.141218e-10
107	0xb045b72e	-7.1928496e-10
108	0x3039096e	6.731601e-10
109	0x30542a30	7.71851e-10
110	0xb0497965	-7.3295886e-10
111	0x30324649	6.4855904e-10
112	0x304097da	7.0064987e-10
113	0xb044d1a1	-7.1602285e-10
114	0x3041e682	7.054056e-10
115	0x304ae340	7.3810114e-10
116	0x304b4045	7.39423e-10
117	0x30201207	5.823328e-10
118	0x3041c392	7.0490913e-10
119	0x30438d70	7.114158e-10
120	0x3044db37	7.161591e-10
121	0x304d5272	7.469573e-10
122	0x30422945	7.0635436e-10
123	0x3041a8f0	7.0453066e-10
124	0xb044fd1f	-7.166409e-10
125	0xb04094eb	-7.006082e-10
126	0xb04b0a7a	-7.386586e-10
127	0x30262446	6.0441996e-10
128	0x2fbc4141	3.4243366e-10
129	0x2fb960bf	3.3720046e-10
130	0x2fad8170	3.1560488e-10
131	0xafb425af	-3.2768585e-10
132	0xafb423c2	-3.2767217e-10
133	0xafb04a6a	-3.2067088e-10
134	0x2fb0c474	3.2153802e-10
135	0x2fb9d3ef	3.3801892e-10
136	0xafb59df0	-3.303593e-10
137	0xafaffc12	-3.201142e-10
138	0xafb1185a	-3.2213415e-10
139	0xafb7cf11	-3.3434636e-10
140	0x2fa703ab	3.037973e-10
141	0x2fc12fb8	3.5140402e-10
142	0xafb82bce	-3.350053e-10
143	0x2fa3a605	2.976749e-10
144	0x2fb40706	3.27468e-10
145	0xafb4872c	-3.2837855e-10
146	0x2fb2f2b0	3.255045e-10
147	0x2fba4647	3.3883138e-10
148	0x2fb9c8c1	3.3793948e-10
149	0x2f937cb3	2.6827748e-10
150	0x2fb28194	3.2470082e-10
151	0x2fb334d3	3.2597444e-10
152	0x2fb2a8b0	3.249787e-10
153	0x2fbc1e3b	3.421848e-10
154	0x2fb413df	3.2755929e-10
155	0x2fb035ba	3.2052389e-10
156	0xafb47ab7	-3.2829003e-10
157	0xafb277ba	-3.2463082e-10
158	0xafbd1cb3	-3.4399292e-10
159	0x2f9a58c8	2.807552e-10
160	0x30713b4b	8.775955e-10
161	0x3076ad2d	8.9740376e-10
162	0x30661cfe	8.3714713e-10
163	0xb068df66	-8.4718577e-10
164	0xb0730b20	-8.8418695e-10
165	0xb063be69	-8.285271e-10
166	0x30669d7a	8.38973e-10
167	0x307aea8f	9.12828e-10
168	0xb06a34e2	-8.5203855e-10
169	0xb05fd2c7	-8.142646e-10
170	0xb0735a98	-8.8531626e-10
171	0xb074db3b	-8.907823e-10
172	0x305dadaa	8.0646123e-10
173	0x3080f882	9.383856e-10
174	0xb07157de	-8.7800156e-10
175	0x305b5205	7.978829e-10
176	0x30790b3f	9.0601654e-10
177	0xb06855a0	-8.452279e-10
178	0x3079417c	9.067873e-10
179	0x307498a2	8.8983587e-10
180	0x3072cf25	8.8333457e-10
181	0x302d2900	6.29953e-10
182	0x30687695	8.4569624e-10
183	0x30741ef9	8.88107e-10
184	0x306d19b5	8.625663e-10
185	0x306f33d2	8.7021335e-10
186	0x306f8d31	8.714834e-10
187	0x306bd6cb	8.579774e-10
188	0xb070e0f9	-8.7631197e-10
189	0xb06b5073	-8.5606827e-10
190	0xb075590b	-8.925702e-10
191	0x3053d967	7.70703e-10
192	0x3049ecd7	7.3459944e-10
193	0x30447339	7.1468126e-10
194	0x3036ef76	6.655151e-10
195	0xb0425ff3	-7.071314e-10
196	0xb046aa44	-7.227394e-10
197	0xb039d482	-6.76046e-10
198	0x3039203c	6.7348416e-10
199	0x304222f7	7.0626477e-10
200	0xb03b4f25	-6.8142675e-10
201	0xb03d9cda	-6.89807e-10
202	0xb042bff1	-7.0849554e-10
203	0xb040e8cb	-7.018001e-10
204	0x303334dc	6.519494e-10
205	0x304faa75	7.5548395e-10
206	0xb044671a	-7.14509e-10
207	0x3029fe13	6.1842903e-10
208	0x303cca83	6.868179e-10
209	0xb0421e6f	-7.062004e-10
210	0x30400b0f	6.986491e-10
211	0x304a59b1	7.361463e-10
212	0x30468524	7.2221185e-10
213	0x30218402	5.8759053e-10
214	0x303bc6dc	6.83128e-10
215	0x303ca47e	6.862776e-10
216	0x30436517	7.1084244e-10
217	0x304b10fb	7.38751e-10
218	0x30422c02	7.063933e-10
219	0x303e9c3e	6.934363e-10
220	0xb03e4b58	-6.922867e-10
221	0xb03d1ab1	-6.879573e-10
222	0xb04a0cb7	-7.350524e-10
223	0x3027328e	6.082609e-10
224	0x30472fd1	7.246373e-10
225	0x3044be7b	7.1575074e-10
226	0x3032b3d5	6.501158e-10
227	0xb0484a34	-7.2865025e-10
228	0xb054ca35	-7.7412504e-10
229	0xb04b4d50	-7.396084e-10
230	0x3043361a	7.101747e-10
231	0x3031a50f	6.462679e-10
232	0xb04b954d	-7.406314e-10
233	0xb0431c7e	-7.0981077e-10
234	0xb0501608	-7.570127e-10
235	0xb045e38b	-7.199154e-10
236	0x303d5cd5	6.888972e-10
237	0x30546d5c	7.728056e-10
238	0xb04e09de	-7.4956386e-10
239	0x3033cc15	6.540984e-10
240	0x304d5415	7.4698053e-10
241	0xb04ed52b	-7.5245293e-10
242	0x3053f11a	7.710398e-10
243	0x304d9a78	7.479808e-10
244	0x304cdbf7	7.4527357e-10
245	0x3015d576	5.450923e-10
246	0x30423347	7.064966e-10
247	0x303f1e98	6.952887e-10
248	0x304aaa51	7.3729206e-10
249	0x30531c62	7.680169e-10
250	0x30507093	7.5829937e-10
251	0x30460950	7.2045214e-10
252	0xb037ff0d	-6.693746e-10
253	0xb03fab9b	-6.972926e-10
254	0xb052f7d9	-7.674977e-10
255	0x303b2d22	6.809434e-10

exp_avg_sq f4 [128, 32]
0	0x2ccb28e9	5.774149e-12
1	0x2c41e22c	2.75525e-12
2	0x2c7d6db5	3.6014362e-12
3	0x2c3ab6aa	2.6533589e-12
4	0x2d0f173e	8.13377e-12
5	0x2bd45db8	1.5089518e-12
6	0x2c97b4cd	4.311751e-12
7	0x2d45a04a	1.1233745e-11
8	0x2cb3258f	5.091656e-12
9	0x2c6a8932	3.3329559e-12
10	0x2c9e9004	4.506619e-12
11	0x2cd448d7	6.0334892e-12
12	0x2b451094	7.0011466e-13
13	0x2a120948	1.2970625e-13
14	0x2cf3cc18	6.9291343e-12
15	0x2cd967e4	6.179045e-12
16	0x2a4e27be	1.8310264e-13
17	0x2d15f8e3	8.524933e-12
18	0x2d09ca24	7.832433e-12
19	0x2cb39b1d	5.104707e-12
20	0x2c89b09d	3.913382e-12
21	0x2cc77df3	5.6699033e-12
22	0x2c23e1c8	2.3289027e-12
23	0x2c68f858	3.3107041e-12
24	0x2c15d765	2.1293742e-12
25	0x2cdca1eb	6.2707526e-12
26	0x2cd52640	6.0580707e-12
27	0x2c49896c	2.8640102e-12
28	0x2cde780e	6.3229482e-12
29	0x2c47d3b6	2.8397124e-12
30	0x2d38b814	1.0500063e-11
31	0x2cb67015	5.1851947e-12
32	0x2bac9fda	1.2265703e-12
33	0x2b2b359b	6.0825796e-13
34	0x2b283fed	5.9774305e-13
35	0x2b24dbe2	5.8569653e-13
36	0x2bbfd1d3	1.3629604e-12
37	0x2acad17e	3.6027773e-13
38	0x2b79da4b	8.8765513e-13
39	0x2c03cdd4	1.8730477e-12
40	0x2b8afcfe	9.875709e-13
41	0x2b271d0f	5.9370645e-13
42	0x2b645a73	8.1127395e-13
43	0x2b99c49a	1.0925872e-12
44	0x29fe4c97	1.1293152e-13
45	0x28ea50d4	2.6014272e-14
46	0x2bb4b0fc	1.2838892e-12
47	0x2b882a44	9.675112e-13
48	0x295a1c5d	4.8430325e-14
49	0x2bef3a28	1.6998113e-12
50	0x2bb8ee66	1.3140155e-12
51	0x2b8899a5	9.706026e-13
52	0x2b5c4930	7.826127e-13
53	0x2b880029	9.663426e-13
54	0x2b0645cb	4.770322e-13
55	0x2b44e084	6.9944766e-13
56	0x2afb2795	4.4614022e-13
57	0x2ba6502a	1.1817259e-12
58	0x2ba0c07b	1.1422108e-12
59	0x2b1cddcd	5.5730144e-13
60	0x2b9fb0ff	1.1346756e-12
61	0x2af30857	4.3171258e-13
62	0x2bf08359	1.7089482e-12
63	0x2b800eb8	9.099032e-13
64	0x2f81e307	2.3626276e-10
65	0x2f43c9c3	1.7806827e-10
66	0x2ee6ac61	1.048981e-10
67	0x2f231953	1.483376e-10
68	0x2f77f8b7	2.255288e-10
69	0x2ec0aa8d	8.761445e-11
70	0x2f41a79b	1.7612793e-10
71	0x2fa42138	2.985503e-10
72	0x2f404dfe	1.7490007e-10
73	0x2edd407b	1.00613705e-10
74	0x2f3f40da	1.7394389e-10
75	0x2f816e26	2.3543228e-10
76	0x2e10fdc5	3.2967202e-11
77	0x2c75a2ff	3.4907075e-12
78	0x2f7b601b	2.286246e-10
79	0x2f0bc261	1.2711034e-10
80	0x2e0a7ffc	3.149124e-11
81	0x2f9aee55	2.8181782e-10
82	0x2f74c958	2.2263202e-10
83	0x2f584704	1.9670315e-10
84	0x2f4a5c76	1.8404642e-10
85	0x2f474df5	1.812664e-10
86	0x2f1179dc	1.3230966e-10
87	0x2f2f536d	1.5945796e-10
88	0x2f025cd1	1.1856406e-10
89	0x2f66a3d6	2.0976584e-10
90	0x2f66c567	2.098851e-10
91	0x2f1741ee	1.3756793e-10
92	0x2f6f5684	2.176766e-10
93	0x2ee5388f	1.0423761e-10
94	0x2f84eeb4	2.418027e-10
95	0x2f4fb9bd	1.8892528e-10
96	0x2eb16a0c	8.067866e-11
97	0x2e88d6be	6.22271e-11
98	0x2e3d9e52	4.311424e-11
99	0x2e498863	4.5823245e-11
100	0x2ea4d228	7.495188e-11
101	0x2ded1046	2.6951007e-11
102	0x2e82dc88	5.95089e-11
103	0x2ee15801	1.0247448e-10
104	0x2e89a48a	6.259267e-11
105	0x2e2126e7	3.6641714e-11
106	0x2e888474	6.2080924e-11
107	0x2eb18fa1	8.074542e-11
108	0x2d74f686	1.3924533e-11
109	0x2bf37d7f	1.7301021e-12
110	0x2ea9fdb0	7.730294e-11
111	0x2e66071c	5.230226e-11
112	0x2d361f4c	1.03524515e-11
113	0x2ed8a484	9.8517666e-11
114	0x2eb54e99	8.244889e-11
115	0x2e9449bd	6.743359e-11
116	0x2e8dac7c	6.442577e-11
117	0x2e8b7a0b	6.3426674e-11
118	0x2e4164de	4.3972707e-11
119	0x2e7f3c47	5.8033824e-11
120	0x2e3aefbb	4.2504427e-11
121	0x2ea3ffae	7.4578e-11
122	0x2e930901	6.6863855e-11
123	0x2e53bda7	4.814429e-11
124	0x2eacf6d9	7.8655034e-11
125	0x2e196294	3.4875727e-11
126	0x2ec1b644	8.809001e-11
127	0x2e8c65c9	6.3845436e-11
128	0x2cc034a7	5.462814e-12
129	0x2c15537e	2.122052e-12
130	0x2bf70843	1.7552699e-12
131	0x2c104b7d	2.0505535e-12
132	0x2ccf1350	5.885438e-12
133	0x2b750a07	8.70554e-13
134	0x2c6ed4a3	3.3939871e-12
135	0x2d18914c	8.672462e-12
136	0x2c672408	3.2847076e-12
137	0x2bf35067	1.7288505e-12
138	0x2c437e39	2.7781234e-12
139	0x2c81e3d9	3.6916967e-12
140	0x2a821ac4	2.311121e-13
141	0x297f045a	5.662515e-14
142	0x2c9e1ba3	4.4936984e-12
143	0x2c6b4565	3.343403e-12
144	0x2a9ce516	2.7870127e-13
145	0x2cc570a5	5.611583e-12
146	0x2cb29ebe	5.076688e-12
147	0x2c80c456	3.6597765e-12
148	0x2c5270cd	2.9905412e-12
149	0x2c6ababf	3.3357065e-12
150	0x2c11f38d	2.0740937e-12
151	0x2c35641d	2.577722e-12
152	0x2bc30e0b	1.3859481e-12
153	0x2c91bd7e	4.1421857e-12
154	0x2c87f4af	3.864096e-12
155	0x2bfe6c96	1.8077924e-12
156	0x2c9e2462	4.4946694e-12
157	0x2bd3a344	1.5037767e-12
158	0x2d012894	7.341811e-12
159	0x2c3ba1fb	2.6664216e-12
160	0x2e931adb	6.6895565e-11
161	0x2e569af8	4.8795606e-11
162	0x2e1ba968	3.5393383e-11
163	0x2e4198a2	4.4018685e-11
164	0x2e8116e5	5.870308e-11
165	0x2da7b498	1.9065902e-11
166	0x2e5ba64f	4.9942547e-11
167	0x2eb35183	8.154457e-11
168	0x2e65de34	5.2265928e-11
169	0x2de3036d	2.5808434e-11
170	0x2e584229	4.9171476e-11
171	0x2e8b0947	6.322636e-11
172	0x2d270908	9.494856e-12
173	0x2b918fed	1.0342817e-12
174	0x2e86d9cc	6.132303e-11
175	0x2e2482e3	3.7405534e-11
176	0x2d2cd81b	9.825053e-12
177	0x2eaa3640	7.740342e-11
178	0x2e962fee	6.829724e-11
179	0x2e7c9eee	5.7439324e-11
180	0x2e6c732d	5.3762484e-11
181	0x2e6ea8ca	5.426485e-11
182	0x2e318e3e	4.0371477e-11
183	0x2e4bf9d3	4.6378745e-11
184	0x2e15620f	3.396577e-11
185	0x2e80ff2c	5.866094e-11
186	0x2e73de6d	5.5449357e-11
187	0x2e3753c4	4.168378e-11
188	0x2e8a4844	6.2883504e-11
189	0x2deb760f	2.6768835e-11
190	0x2e974af6	6.880001e-11
191	0x2e6989cf	5.3100465e-11
192	0x2e7f7918	5.808784e-11
193	0x2dfb1ae1	2.8547333e-11
194	0x2db99c4e	2.1101478e-11
195	0x2dd482fc	2.4159778e-11
196	0x2e8f597e	6.518784e-11
197	0x2d61ec5b	1.2842251e-11
198	0x2e0828d3	3.095908e-11
199	0x2ec3b70f	8.900091e-11
200	0x2e319791	4.037976e-11
201	0x2dc1849b	2.2000448e-11
202	0x2e187e1d	3.467281e-11
203	0x2e55dd1f	4.8626988e-11
204	0x2c7c361a	3.5841386e-12
205	0x2a960803	2.6650912e-13
206	0x2e6fc8ba	5.452059e-11
207	0x2e20eb04	3.6588524e-11
208	0x2c360165	2.586453e-12
209	0x2e8ede9b	6.496955e-11
210	0x2e68c200	5.2923e-11
211	0x2e2ab38c	3.8812994e-11
212	0x2e125f75	3.328134e-11
213	0x2e153e5f	3.3934074e-11
214	0x2db74716	2.083626e-11
215	0x2deffc42	2.728318e-11
216	0x2d81e9c1	1.476941e-11
217	0x2e450462	4.4796507e-11
218	0x2e5af13e	4.9781727e-11
219	0x2dafbcd9	1.9979062e-11
220	0x2e627aae	5.1495412e-11
221	0x2da9d9bd	1.930977e-11
222	0x2ea90842	7.686697e-11
223	0x2e2058fa	3.6458815e-11
224	0x2cb7df6d	5.225978e-12
225	0x2bd52d15	1.5147073e-12
226	0x2bf0da22	1.711357e-12
227	0x2c0f4ae5	2.0363097e-12
228	0x2ce3cce2	6.4744746e-12
229	0x2b89b0df	9.783527e-13
230	0x2c7a8e1f	3.560603e-12
231	0x2d075d83	7.694625e-12
232	0x2c426192	2.762322e-12
233	0x2c021d73	1.8490459e-12
234	0x2c3ae8f5	2.6561507e-12
235	0x2c7441c7	3.4711e-12
236	0x2aa82cea	2.987396e-13
237	0x2a001d2e	1.1378808e-13
238	0x2cba00e6	5.2865377e-12
239	0x2c70cbf8	3.4219277e-12
240	0x2a5a3c10	1.9383128e-13
241	0x2cc8cab3	5.706846e-12
242	0x2c9b9ab1	4.422539e-12
243	0x2c7d2c0f	3.597792e-12
244	0x2c3e7a03	2.7068354e-12
245	0x2c5a6556	3.1035916e-12
246	0x2c17ca29	2.1570612e-12
247	0x2c38d19c	2.626433e-12
248	0x2bb76e5f	1.3033566e-12
249	0x2cadb0d3	4.936587e-12
250	0x2c9818ba	4.322845e-12
251	0x2bfac04b	1.781694e-12
252	0x2c8f6961	4.076004e-12
253	0x2bf6ac4b	1.7527172e-12
254	0x2cf5ddf3	6.98796e-12
255	0x2c48a22a	2.8511729e-12

exp_avg f4 [128]
0	0xb47d2054	-2.3574222e-07
1	0xb41caeae	-1.459218e-07
2	0xb4ddd627	-4.1320274e-07
3	0xb4afe9ff	-3.2766545e-07
4	0xb444a2bb	-1.8313123e-07
5	0xb4c9d996	-3.7597482e-07
6	0xb4ca27f7	-3.765451e-07
7	0xb447fcba	-1.862526e-07
8	0xb4d9dee6	-4.058158e-07
9	0xb4f83bf9	-4.6237236e-07
10	0xb40b614a	-1.2980777e-07
11	0xb4e8f6d9	-4.3392973e-07
12	0xb51f9318	-5.9446165e-07
13	0xb4363fb6	-1.6973249e-07
14	0xb452eb8b	-1.9643464e-07
15	0xb4c93f18	-3.7485074e-07
16	0xb4f522f7	-4.5660246e-07
17	0xb476bcd3	-2.2979229e-07
18	0xb4423d34	-1.8089924e-07
19	0xb4b14fff	-3.3027024e-07
20	0xb4910113	-2.7009136e-07
21	0xb4eea0c4	-4.4447927e-07
22	0xb4ddb975	-4.1299396e-07
23	0xb4d8dffe	-4.039611e-07
24	0xb48e7f00	-2.6541966e-07
25	0xb494abd4	-2.769217e-07
26	0xb4aa86c8	-3.1763034e-07
27	0xb4f6411e	-4.586845e-07
28	0xb50ccf94	-5.245613e-07
29	0xb4e7c37f	-4.3169345e-07
30	0xb43d9d56	-1.7659235e-07
31	0xb453742c	-1.969317e-07
32	0xb196d028	-4.389239e-09
33	0xb120d5d2	-2.3404607e-09
34	0xb1d89872	-6.3037584e-09
35	0xb1dc1642	-6.405373e-09
36	0xb176ca20	-3.5912606e-09
37	0xb2057c7e	-7.769925e-09
38	0xb1951f17	-4.3400052e-09
39	0xb12635d2	-2.4186773e-09
40	0xb17cf291	-3.680871e-09
41	0xb1fe581b	-7.4023894e-09
42	0xb0ddd352	-1.6139927e-09
43	0xb1952adf	-4.3413446e-09
44	0xb199e241	-4.478608e-09
45	0xb1d17ad0	-6.0966627e-09
46	0xb18e9170	-4.1492783e-09
47	0xb1d3ec25	-6.1677548e-09
48	0xb21041d7	-8.396873e-09
49	0xb0d9bc95	-1.5842426e-09
50	0xb166f82f	-3.361048e-09
51	0xb18644fe	-3.907757e-09
52	0xb193541a	-4.2878243e-09
53	0xb146ebe2	-2.8946876e-09
54	0xb203a7c4	-7.663349e-09
55	0xb18cc930	-4.0974086e-09
56	0xb16dfd1c	-3.4631915e-09
57	0xb18850df	-3.967315e-09
58	0xb18a1b4d	-4.0194323e-09
59	0xb1851373	-3.8730206e-09
60	0xb1672cb5	-3.3640337e-09
61	0xb1e5efaf	-6.692026e-09
62	0xb13967f8	-2.6980143e-09
63	0xb1487165	-2.9168288e-09
64	0x344cf8b7	1.9089462e-07
65	0x3430f3c1	1.6479954e-07
66	0x34e139db	4.195161e-07
67	0xb485a69e	-2.489441e-07
68	0xb4942af9	-2.7598415e-07
69	0xb4ce2716	-3.839893e-07
70	0x34fd362d	4.716434e-07
71	0x34d4c783	3.963324e-07
72	0xb51b5bb1	-5.787543e-07
73	0xb512384c	-5.447116e-07
74	0xb49c7f21	-2.9149763e-07
75	0xb4cb5fe6	-3.7881472e-07
76	0x34a806d2	3.12974e-07
77	0x34260b54	1.5464076e-07
78	0xb489f902	-2.5699416e-07
79	0x35242135	6.1143083e-07
80	0x35024aeb	4.8537794e-07
81	0xb4085bf5	-1.2699441e-07
82	0x348012d6	2.3855563e-07
83	0x34921828	2.7212195e-07
84	0x348fd568	2.67911e-07
85	0x3522db9a	6.0669265e-07
86	0x34d72b7e	4.0078515e-07
87	0x34db3583	4.0830864e-07
88	0x34ce8d7a	3.8473428e-07
89	0x34b4df01	3.368987e-07
90	0x34e1d638	4.206538e-07
91	0x3520410e	5.969931e-07
92	0xb503e850	-4.913936e-07
93	0xb4ab3ec7	-3.189691e-07
94	0xb43c9860	-1.7564298e-07
95	0x3438e4b2	1.7219534e-07
96	0xb50f4c62	-5.3382803e-07
97	0xb4a2782c	-3.0262288e-07
98	0xb59896bc	-1.1368752e-06
99	0xb53961fc	-6.9060457e-07
100	0xb4b716ed	-3.4103087e-07
101	0xb59a7d6f	-1.15104e-06
102	0xb52d8d8c	-6.46535e-07
103	0xb51070d5	-5.380837e-07
104	0xb530b212	-6.5824236e-07
105	0xb5513bf2	-7.79458e-07
106	0xb4c1b1df	-3.607847e-07
107	0xb5039af6	-4.90268e-07
108	0xb557e195	-8.0422006e-07
109	0xb504b186	-4.943216e-07
110	0xb4fdbafc	-4.726097e-07
111	0xb5a1d2ad	-1.205675e-06
112	0xb576df5f	-9.196719e-07
113	0xb45160eb	-1.94999e-07
114	0xb5081ad1	-5.070297e-07
115	0xb5026b61	-4.858503e-07
116	0xb5098877	-5.123506e-07
117	0xb5341455	-6.708481e-07
118	0xb5815676	-9.636412e-07
119	0xb549e6ee	-7.521438e-07
120	0xb5170d89	-5.627158e-07
121	0xb50405ea	-4.918244e-07
122	0xb554a28f	-7.921271e-07
123	0xb5373877	-6.825498e-07
124	0xb52281e9	-6.0538747e-07
125	0xb57ddede	-9.457416e-07
126	0xb5215b79	-6.0110284e-07
127	0xb4b4eb80	-3.3698961e-07
