lightning_logs/version_36/checkpoints/epoch=229.ckpt (torch_old, 51520 bytes, 21 tensors)

exp_avg f4 [84, 36]
000000 e2 cf 5d 35 b1 7d 30 b3 0e ba 17 b4 f1 96 26 35
       8.2631425e-07 -4.109251e-08 -1.4130657e-07 6.205947e-07
000010 46 3c 37 35 49 be 99 35 e9 2d 0c 35 45 ef 85 b5
       6.826052e-07 1.1454769e-06 5.222087e-07 -9.978909e-07
000020 38 36 0b b5 6e 1f 8d b3 72 87 8f 33 16 1b 22 b5
       -5.1860434e-07 -6.571541e-08 6.683594e-08 -6.038912e-07
000030 37 ec 51 b5 23 ff 8d b5 a2 bc bb b5 82 62 a1 b4
       -7.8202305e-07 -1.0579573e-06 -1.3987485e-06 -3.006026e-07
000040 6b cc b4 34 34 cc df b5 9e 9d 06 b6 13 ef 45 33
       3.3676346e-07 -1.6674226e-06 -2.0059301e-06 4.6085074e-08
000050 7c 5a 32 35 17 2c ec 34 68 f3 31 b4 1c 41 b2 b5
       6.644184e-07 4.3990505e-07 -1.657296e-07 -1.3280983e-06
000060 0a bd 03 b4 7f 03 86 b5 39 d0 17 b5 b9 41 b9 b5
       -1.2269098e-07 -9.984795e-07 -5.655489e-07 -1.3802702e-06
000070 e8 87 ea b4 47 4f ad 34 91 ae fe 34 35 e1 b8 35
       -4.368478e-07 3.2281443e-07 4.74382e-07 1.3774612e-06
000080 d5 98 f6 34 68 de ae b5 25 7d 44 35 46 17 97 35
       4.593227e-07 -1.3028739e-06 7.31978e-07 1.125715e-06
000090 f7 f1 65 b5 9a 76 80 35 eb c0 3c b5 7e b8 99 b5
       -8.5661253e-07 9.571261e-07 -7.031619e-07 -1.1453083e-06
0000a0 b5 bd f2 b5 f9 76 3b b6 ae f6 86 b5 09 ad 32 36
       -1.8085617e-06 -2.7934423e-06 -1.0055571e-06 2.6624787e-06
0000b0 ba 2d 72 36 7f 21 6b 35 5c 11 ed 35 c1 b8 45 36
       3.6087426e-06 8.7593065e-07 1.7662928e-06 2.9462828e-06
0000c0 48 48 81 36 6b 6a 83 36 be ff 50 36 e8 d5 19 b6
       3.8529142e-06 3.916493e-06 3.1143277e-06 -2.2923286e-06
0000d0 3e 10 f9 b5 49 02 92 36 8c 80 c9 36 c5 cf 98 35
       -1.8556673e-06 4.351405e-06 6.0052316e-06 1.1385351e-06
0000e0 83 2c 22 b6 98 67 0d b6 e9 1f 2c b5 c8 85 89 36
       -2.416579e-06 -2.1070937e-06 -6.412143e-07 4.0984924e-06
0000f0 3b f4 63 b5 1d f1 7f 36 6f a8 14 b5 c6 77 8c 36
       -8.491949e-07 3.8138307e-06 -5.53794e-07 4.1862686e-06
000100 49 03 4f b5 ad 1c ac b5 73 6f c7 b5 3c 6a 8a b6
       -7.711829e-07 -1.2823344e-06 -1.4859091e-06 -4.125088e-06
000110 bd cf 33 b6 d3 c5 33 36 cf 4a e1 b5 d4 5e 88 b6
       -2.6793998e-06 2.6788227e-06 -1.6785579e-06 -4.0641553e-06
000120 f0 10 f6 b4 c3 b9 61 b5 61 b8 5e 34 c0 1f 9d 34
       -4.5833394e-07 -8.408935e-07 2.0742438e-07 2.926663e-07
000130 82 3a 0e b5 58 4d d0 34 74 b5 fe b4 ef 41 af 34
       -5.298426e-07 3.8799294e-07 -4.744321e-07 3.2644263e-07
000140 52 11 30 35 0b 97 50 b4 38 11 87 35 c1 24 5f 35
       6.5590314e-07 -1.9426459e-07 1.0063295e-06 8.312746e-07
000150 bb 4a d4 b5 1b b8 2d 35 a6 98 9e 35 85 13 3c b5
       -1.581698e-06 6.471543e-07 1.1816344e-06 -7.006386e-07
000160 a6 f2 70 35 d0 e2 ec b4 e5 b9 04 b5 78 57 2c b5
       8.9760067e-07 -4.4123453e-07 -4.9444344e-07 -6.4202277e-07
000170 42 10 4c 35 99 24 e8 35 1f 1c 92 b5 7b c3 67 35
       7.601958e-07 1.7295998e-06 -1.0886032e-06 8.633867e-07
000180 52 a7 06 b5 a6 be 09 36 d5 0c 02 b5 ed 73 50 35
       -5.0162373e-07 2.0525563e-06 -4.8447447e-07 7.765473e-07
000190 4a 0e 59 b5 9d dd 90 33 06 84 9d b4 ed a8 40 b4
       -8.085959e-07 6.745834e-08 -2.9339589e-07 -1.7942848e-07
0001a0 81 79 f3 b4 a3 f5 40 b5 3d 09 f7 34 c8 3e d3 35
       -4.5350683e-07 -7.188302e-07 4.6014057e-07 1.5738997e-06
0001b0 0e 25 e3 b4 57 c6 67 b4 80 87 02 36 e5 d9 83 b4
       -4.2309006e-07 -2.1585707e-07 1.945038e-06 -2.455919e-07
0001c0 f9 7d 69 35 e4 a8 4a 34 0d 66 86 b5 e4 9c 02 b4
       8.698258e-07 1.8874158e-07 -1.0013479e-06 -1.216427e-07
0001d0 81 38 9c b5 8b 3a e7 b5 2b 83 3f b5 74 17 8c b5
       -1.163935e-06 -1.7227879e-06 -7.134392e-07 -1.0437639e-06
0001e0 36 8d 37 b4 48 97 80 35 66 13 9e 35 29 ad e4 35
       -1.7094575e-07 9.580772e-07 1.1777563e-06 1.703772e-06
0001f0 0d 3b cb 35 7f 97 f1 33 05 08 45 34 e0 68 97 b5
       1.5141865e-06 1.1249994e-07 1.8349972e-07 -1.1280899e-06
000200 81 27 a5 b4 7d c9 a7 b5 39 de 61 b5 c2 2e 74 b5
       -3.0762388e-07 -1.250111e-06 -8.414241e-07 -9.0965125e-07
000210 28 51 b9 35 3e 36 18 b5 76 f6 9f 35 98 ab b0 b5
       1.3807194e-06 -5.6703345e-07 1.1918153e-06 -1.3162962e-06
000220 1c eb 30 33 67 bd 99 35 5b 21 7c 35 f8 4a 91 b5
       4.1192024e-08 1.1454512e-06 9.3925854e-07 -1.0825161e-06
000230 9c 78 56 b5 97 8e 6d b4 d1 65 1b b5 a5 9d a5 b3
       -7.989672e-07 -2.2124219e-07 -5.789016e-07 -7.7120866e-08
000240 00 00 00 00 00 00 00 00 00 00 00 00 00 00 00 00
       0.0 0.0 0.0 0.0
000250 00 00 00 00 00 00 00 00 00 00 00 00 00 00 00 00
       0.0 0.0 0.0 0.0
000260 00 00 00 00 00 00 00 00 00 00 00 00 00 00 00 00
       0.0 0.0 0.0 0.0
000270 00 00 00 00 00 00 00 00 00 00 00 00 00 00 00 00
       0.0 0.0 0.0 0.0
000280 00 00 00 00 00 00 00 00 00 00 00 00 00 00 00 00
       0.0 0.0 0.0 0.0
000290 00 00 00 00 00 00 00 00 00 00 00 00 00 00 00 00
       0.0 0.0 0.0 0.0
0002a0 00 00 00 00 00 00 00 00 00 00 00 00 00 00 00 00
       0.0 0.0 0.0 0.0
0002b0 00 00 00 00 00 00 00 00 00 00 00 00 00 00 00 00
       0.0 0.0 0.0 0.0
0002c0 00 00 00 00 00 00 00 00 00 00 00 00 00 00 00 00
       0.0 0.0 0.0 0.0
0002d0 39 85 58 b5 10 14 a3 b4 ad ca ac b4 f4 5f 74 b3
       -8.0660135e-07 -3.0375713e-07 -3.2184963e-07 -5.6897946e-08
0002e0 f1 e0 4f b4 dc 8b 39 b5 dc f2 98 b4 8b 46 be 35
       -1.936021e-07 -6.912139e-07 -2.848891e-07 1.4176634e-06
0002f0 11 1f 9f 35 07 19 e6 34 ae e5 9a 35 6a 7e 8c 35
       1.1855465e-06 4.2859048e-07 1.154074e-06 1.0467604e-06
000300 ed a6 7d 34 77 3d 8a 35 f8 28 ab 35 f2 52 cf b4
       2.3623188e-07 1.029969e-06 1.2752416e-06 -3.8617105e-07
000310 f5 16 38 34 82 59 a8 35 d2 3f e6 35 a8 c8 94 b4
       1.7144687e-07 1.2543026e-06 1.715491e-06 -2.7713145e-07
000320 80 2d 49 b4 4c 6a 23 33 50 86 f0 b4 df 1f 71 35
       -1.8736137e-07 3.804807e-08 -4.480121e-07 8.9825875e-07
000330 46 e1 a9 34 65 b6 d9 35 4e 1c 10 b5 a9 64 da 35
       3.164261e-07 1.6220844e-06 -5.368537e-07 1.6271562e-06
000340 e6 f7 39 b4 a2 1d 37 b5 a4 d7 e3 b4 18 f2 6c b5
       -1.7319653e-07 -6.8215934e-07 -4.2438944e-07 -8.8269144e-07
000350 09 6f 28 b4 82 1d 6f 34 7e b1 58 b3 46 5a ab b5
       -1.5686614e-07 2.2269344e-07 -5.0452847e-08 -1.2766766e-06
000360 00 00 00 00 00 00 00 00 00 00 00 00 00 00 00 00
       0.0 0.0 0.0 0.0
000370 00 00 00 00 00 00 00 00 00 00 00 00 00 00 00 00
       0.0 0.0 0.0 0.0
000380 00 00 00 00 00 00 00 00 00 00 00 00 00 00 00 00
       0.0 0.0 0.0 0.0
000390 00 00 00 00 00 00 00 00 00 00 00 00 00 00 00 00
       0.0 0.0 0.0 0.0
0003a0 00 00 00 00 00 00 00 00 00 00 00 00 00 00 00 00
       0.0 0.0 0.0 0.0
0003b0 00 00 00 00 00 00 00 00 00 00 00 00 00 00 00 00
       0.0 0.0 0.0 0.0
0003c0 00 00 00 00 00 00 00 00 00 00 00 00 00 00 00 00
       0.0 0.0 0.0 0.0
0003d0 00 00 00 00 00 00 00 00 00 00 00 00 00 00 00 00
       0.0 0.0 0.0 0.0
0003e0 00 00 00 00 00 00 00 00 00 00 00 00 00 00 00 00
       0.0 0.0 0.0 0.0
0003f0 47 98 ad b6 55 d2 f5 36 b8 ff 01 b7 15 83 70 35
       -5.173529e-06 7.326055e-06 -7.748538e-06 8.9597717e-07

exp_avg_sq f4 [84, 36]
000000 44 5f 95 2e 3a 7a 40 2f d4 4b 4c 2e f0 36 82 2f
       6.792658e-11 1.7505722e-10 4.645158e-11 2.3685898e-10
000010 69 5c 1a 30 38 c2 22 2f d8 31 9f 2d 2b 66 8f 2d
       5.6156196e-10 1.4802815e-10 1.8098342e-11 1.630259e-11
000020 9f b5 98 2d 98 d8 32 2f 3f d6 43 2f 97 b6 2a 2f
       1.7361055e-11 1.6265955e-10 1.7811262e-10 1.5526279e-10
000030 cb fa d6 2d 31 e4 86 2f e7 2e b1 2e 9a 1a 09 30
       2.4440358e-11 2.4536598e-10 8.0573596e-11 4.987811e-10
000040 43 f4 9a 2e b4 54 2f 2f e5 ad 24 2f a1 c0 05 2e
       7.046499e-11 1.594625e-10 1.4977493e-10 3.0411788e-11
000050 81 5c 76 2f 87 77 14 2f 33 ec 3f 2f 80 12 ba 2f
       2.2406434e-10 1.3502986e-10 1.7455264e-10 3.3846348e-10
000060 9a 08 fd 2f 7c 7a c8 2f 59 e8 57 30 10 db 60 2f
       4.6026544e-10 3.6466818e-10 7.854673e-10 2.0450508e-10
000070 cd 58 6c 2f ef 13 2d 2f 80 a3 b8 2e 34 d9 8e 2f
       2.1495623e-10 1.574134e-10 8.396395e-11 2.5983982e-10
000080 5b f9 aa 2e ee d4 e6 2e 68 8d 88 2f 04 ee 5f 2f
       7.7749994e-11 1.0497013e-10 2.483873e-10 2.0366292e-10
000090 ea 7e 83 30 f2 0c 00 30 15 d2 06 30 e1 81 76 30
       9.567576e-10 4.6584525e-10 4.904746e-10 8.967885e-10
0000a0 a3 ec 8b 30 af 90 3b 31 1d 71 07 30 c0 6c 27 2f
       1.0180837e-09 2.7294325e-09 4.927346e-10 1.5227197e-10
0000b0 03 66 6f 31 00 c9 85 30 9e 8f 49 31 81 81 18 30
       3.4837064e-09 9.734151e-10 2.9330987e-09 5.5481314e-10
0000c0 8e 16 be 30 b7 d6 ea 30 ed 77 02 31 fb 56 10 30
       1.383073e-09 1.7086766e-09 1.898566e-09 5.25105e-10
0000d0 79 7e 00 31 ef 0a 74 30 bc 36 1c 31 1a 30 8f 30
       1.8698343e-09 8.878222e-10 2.27321e-09 1.0418291e-09
0000e0 c5 70 50 30 47 a8 36 31 f2 96 b9 30 29 c7 21 31
       7.5830214e-10 2.658014e-09 1.3503423e-09 2.3541793e-09
0000f0 20 f5 c8 31 60 ac c4 30 cc f2 39 30 46 8d 92 30
       5.8486336e-09 1.4309869e-09 6.7647643e-10 1.066305e-09
000100 92 97 54 31 1d c2 dc 30 4a b2 82 30 d2 cc 27 30
       3.0936218e-09 1.6062277e-09 9.509418e-10 6.1045313e-10
000110 61 05 aa 31 6d 94 66 30 17 60 44 31 c3 92 d0 2f
       4.9482627e-09 8.388444e-10 2.8576375e-09 3.793926e-10
000120 dd 6d 23 30 fa 8d 30 2f bf b6 4c 2f db 32 8b 2e
       5.945518e-10 1.6057547e-10 1.8618616e-10 6.330022e-11
000130 b5 65 cd 2f e3 60 72 30 45 f1 f8 2f 2d 9a fb 2f
       3.736155e-10 8.817677e-10 4.528237e-10 4.5766183e-10
000140 94 ba 8e 30 59 6d 7c 2f c1 30 62 30 21 ed 4f 2d
       1.0384889e-09 2.2958115e-10 8.2287605e-10 1.1819241e-11
000150 21 e6 5a 2f 5d 05 f1 2f 46 dc 00 2f 8e c8 b9 2f
       1.9908743e-10 4.3841455e-10 1.1719789e-10 3.3793807e-10
000160 f7 f4 eb 2f 7e 5d d2 2f 72 06 94 2f f8 d4 2a 2e
       4.292031e-10 3.8265208e-10 2.6925623e-10 3.884268e-11
000170 bb 1c f0 2e 75 15 ec 2f c8 4f 98 2f 92 07 d4 30
       1.091904e-10 4.2943396e-10 2.7705327e-10 1.5427182e-09
000180 8a 2c d9 30 44 52 e9 30 72 24 a9 2f a1 82 1d 30
       1.5801487e-09 1.6976363e-09 3.0766817e-10 5.73019e-10
000190 6c 4f db 30 b3 40 43 2f 5a 5f 13 30 61 2a 09 30
       1.595692e-09 1.7758132e-10 5.361379e-10 4.9900534e-10
0001a0 9c 42 d4 30 73 73 1a 2f 95 de d5 2f 16 10 4f 2f
       1.5443962e-09 1.4047234e-10 3.8902628e-10 1.8832255e-10
0001b0 17 0e 97 2e 14 a3 96 2f ef 16 95 2f 50 6a a3 2f
       6.869188e-11 2.7400715e-10 2.7119237e-10 2.9725067e-10
0001c0 21 45 b1 2e af fb 4c 2f fe 27 e4 2e 24 ed f3 2e
       8.061308e-11 1.8643108e-10 1.03753436e-10 1.1092485e-10
0001d0 93 fd 6f 2f ae fd b9 2f 94 61 83 2f 51 77 9b 2f
       2.1827011e-10 3.3831554e-10 2.3898095e-10 2.8279115e-10
0001e0 8f 2a 12 2f 37 25 3c 2e ac b0 30 2f 7b a6 8d 30
       1.3293742e-10 4.2779304e-11 1.6069873e-10 1.0306417e-09
0001f0 17 f3 68 2f e2 bd b0 2e 36 03 9f 2e d5 82 c2 2f
       2.118664e-10 8.037283e-11 7.231053e-11 3.5381356e-10
000200 e0 ba 85 2e 24 bc 60 30 5e 9b d5 2e 79 5b 73 2f
       6.0813354e-11 8.175809e-10 9.713717e-11 2.2133219e-10
000210 2d 4d 92 2f 93 cb 01 2f 94 14 73 2f 8c d0 56 30
       2.6612082e-10 1.1804806e-10 2.2108032e-10 7.814911e-10
000220 51 f7 b9 2f 6d 4d 7d 2f 7c 86 6c 2f 83 04 66 2f
       3.3827033e-10 2.3037723e-10 2.1511853e-10 2.0919981e-10
000230 c8 25 69 2f 21 9b 28 2f b4 74 30 30 6f cf 1d 2e
       2.1204649e-10 1.5334624e-10 6.419427e-10 3.5881905e-11
000240 00 00 00 00 00 00 00 00 00 00 00 00 00 00 00 00
       0.0 0.0 0.0 0.0
000250 00 00 00 00 00 00 00 00 00 00 00 00 00 00 00 00
       0.0 0.0 0.0 0.0
000260 00 00 00 00 00 00 00 00 00 00 00 00 00 00 00 00
       0.0 0.0 0.0 0.0
000270 00 00 00 00 00 00 00 00 00 00 00 00 00 00 00 00
       0.0 0.0 0.0 0.0
000280 00 00 00 00 00 00 00 00 00 00 00 00 00 00 00 00
       0.0 0.0 0.0 0.0
000290 00 00 00 00 00 00 00 00 00 00 00 00 00 00 00 00
       0.0 0.0 0.0 0.0
0002a0 00 00 00 00 00 00 00 00 00 00 00 00 00 00 00 00
       0.0 0.0 0.0 0.0
0002b0 00 00 00 00 00 00 00 00 00 00 00 00 00 00 00 00
       0.0 0.0 0.0 0.0
0002c0 00 00 00 00 00 00 00 00 00 00 00 00 00 00 00 00
       0.0 0.0 0.0 0.0
0002d0 2e 10 66 2e 79 4c 7a 2d 30 b5 7b 2d e3 d4 96 2d
       5.2310316e-11 1.4227835e-11 1.430793e-11 1.7147566e-11
0002e0 51 21 1d 2e 58 76 51 2e fb 2b 55 2d 4c 20 1f 2e
       3.5727258e-11 4.762621e-11 1.2117414e-11 3.61811e-11
0002f0 b6 10 6e 2e 72 21 cc 2d ab b5 8a 2e ad 66 60 2c
       5.4129777e-11 2.3206968e-11 6.307784e-11 3.188931e-12
000300 3e c7 f3 2d c5 85 16 2e 01 71 80 2d 0e cc 85 2e
       2.7714383e-11 3.4224863e-11 1.4602099e-11 6.084387e-11
000310 4d 62 5e 2d 05 f6 71 2e 2c b6 70 2d 90 42 cf 2d
       1.2641066e-11 5.5015565e-11 1.3682871e-11 2.3562735e-11
000320 8d 24 a6 2d 33 18 b1 2e 76 c0 48 2e 69 e7 00 2e
       1.8888247e-11 8.053327e-11 4.5645675e-11 2.9309364e-11
000330 4e bc 49 2d 2d 27 06 2e 1f f1 7d 2e e2 b4 6d 2e
       1.1467339e-11 3.0502868e-11 5.77397e-11 5.4048217e-11
000340 69 ef c8 2e 2d c0 aa 2d d6 3d 94 2d 5a 38 85 2d
       9.137475e-11 1.9412106e-11 1.6853113e-11 1.5145375e-11
000350 d9 dc ac 2e 18 ea 0a 2f d1 60 98 2d c6 3f d0 2d
       7.860885e-11 1.2634194e-10 1.7323394e-11 2.3675183e-11
000360 00 00 00 00 00 00 00 00 00 00 00 00 00 00 00 00
       0.0 0.0 0.0 0.0
000370 00 00 00 00 00 00 00 00 00 00 00 00 00 00 00 00
       0.0 0.0 0.0 0.0
000380 00 00 00 00 00 00 00 00 00 00 00 00 00 00 00 00
       0.0 0.0 0.0 0.0
000390 00 00 00 00 00 00 00 00 00 00 00 00 00 00 00 00
       0.0 0.0 0.0 0.0
0003a0 00 00 00 00 00 00 00 00 00 00 00 00 00 00 00 00
       0.0 0.0 0.0 0.0
0003b0 00 00 00 00 00 00 00 00 00 00 00 00 00 00 00 00
       0.0 0.0 0.0 0.0
0003c0 00 00 00 00 00 00 00 00 00 00 00 00 00 00 00 00
       0.0 0.0 0.0 0.0
0003d0 00 00 00 00 00 00 00 00 00 00 00 00 00 00 00 00
       0.0 0.0 0.0 0.0
0003e0 00 00 00 00 00 00 00 00 00 00 00 00 00 00 00 00
       0.0 0.0 0.0 0.0
0003f0 fb b2 b6 2d 15 84 8f 2d 6e cf d3 2c a1 b8 63 2d
       2.0770488e-11 1.6315874e-11 6.02001e-12 1.2944452e-11

exp_avg f4 [11, 36]
000000 08 f1 bd 34 c0 29 e0 b5 a1 1f 09 b6 b8 31 92 36
       3.5379367e-07 -1.6701451e-06 -2.0433001e-06 4.356927e-06
000010 22 50 01 35 ab 3d 1e 35 92 28 0b b6 f6 bc e5 35
       4.8172853e-07 5.8949325e-07 -2.073623e-06 1.7116824e-06
000020 2f 34 45 b6 fd 9e dc b5 89 86 c4 b5 0e 82 b4 36
       -2.9385662e-06 -1.6437549e-06 -1.4642293e-06 5.3795584e-06
000030 2c 75 6d b6 8d 0f 00 35 1b 11 bd 36 d1 f6 2d 36
       -3.5383955e-06 4.7706345e-07 5.6346303e-06 2.5922675e-06
000040 6b ed 9a 36 8c b4 be b4 25 01 ea b4 6b 27 53 b6
       4.6171967e-06 -3.5521623e-07 -4.358673e-07 -3.1464394e-06
000050 d0 76 81 35 37 47 81 32 49 44 85 b6 c6 6c 2f 35
       9.645828e-07 1.5049961e-08 -3.9716583e-06 6.5350866e-07
000060 69 ac a5 36 c0 e1 27 36 5b 63 c1 33 c0 b3 46 36
       4.9374544e-06 2.5016343e-06 9.0053355e-08 2.9608927e-06
000070 00 1b 09 35 94 e9 90 b5 f7 de fe b5 1f 4a 18 35
       5.107577e-07 -1.0796816e-06 -1.8989366e-06 5.6732273e-07
000080 b6 17 0b b6 15 90 25 36 b6 9b 7b 35 c5 45 78 b6
       -2.0726416e-06 2.4670783e-06 9.3731376e-07 -3.699549e-06
000090 b8 5e b9 36 66 6e 2c 36 93 85 c6 b3 fc e6 b3 35
       5.5244564e-06 2.5694258e-06 -9.2443905e-08 1.3403765e-06
0000a0 1d d6 1d b6 ac a1 c3 35 b5 ee fb 34 81 af a0 b6
       -2.3519453e-06 1.4575685e-06 4.6926075e-07 -4.788803e-06
0000b0 97 71 99 36 77 5d b7 36 93 6c da 36 7e f6 bc 36
       4.572979e-06 5.4647057e-06 6.509546e-06 5.631532e-06
0000c0 9a d5 0b b5 03 08 ba b6 f7 a9 09 36 f1 b3 1d b6
       -5.2092366e-07 -5.5441647e-06 2.0513523e-06 -2.3499563e-06
0000d0 f5 30 2a 36 0d 07 71 b6 ec e2 b6 b5 d1 96 fb 36
       2.536047e-06 -3.5915903e-06 -1.36261e-06 7.4979403e-06
0000e0 ca 47 53 b6 43 62 4e b6 7b eb 02 b7 d7 bc b1 36
       -3.1483237e-06 -3.0753588e-06 -7.803431e-06 5.296995e-06
0000f0 d4 5d 66 b6 c6 d1 10 37 8b ac f7 b4 8f e6 5a 36
       -3.4327286e-06 8.6319105e-06 -4.6132877e-07 3.2618734e-06
000100 1d 17 de b6 3d d4 60 36 cd 24 96 b4 53 6c d3 35
       -6.6188063e-06 3.350214e-06 -2.7966453e-07 1.5752252e-06
000110 b2 e9 02 b7 47 5f 81 b7 42 53 52 36 a5 8d 57 36
       -7.803015e-06 -1.5422365e-05 3.13409e-06 3.2119945e-06
000120 82 46 8e b6 21 2f c7 35 2f 73 ad 35 d4 c2 0a b5
       -4.240138e-06 1.4840372e-06 1.2923027e-06 -5.169252e-07
000130 9e 20 d3 36 6d fc 15 36 11 83 08 37 56 00 43 b7
       6.292087e-06 2.2349661e-06 8.136748e-06 -1.1622984e-05
000140 ab e2 27 b5 32 fc f6 36 02 3c 6a 37 a5 04 03 b7
       -6.2542193e-07 7.3607307e-06 1.39614585e-05 -7.80929e-06
000150 8e 85 47 b6 90 c2 db 35 1c 49 6e 36 86 e3 0b 36
       -2.973105e-06 1.6373397e-06 3.550732e-06 2.084505e-06
000160 a7 fc f1 36 ae 35 4a b6 a6 1a e8 b6 39 d4 da 36
       7.2117723e-06 -3.0131591e-06 -6.917241e-06 6.5216122e-06
000170 39 c2 9a b6 2c 19 dc b5 58 04 c1 b5 cf 55 11 b4
       -4.612168e-06 -1.6398603e-06 -1.4380885e-06 -1.3535394e-07
000180 30 ee d2 b6 45 36 9b 37 84 58 66 36 ac 61 2e 36
       -6.2862164e-06 1.8502711e-05 3.4324194e-06 2.5984873e-06
000190 57 08 19 b7 f2 f2 02 37 c3 68 e8 36 99 eb c1 b6
       -9.121452e-06 7.805169e-06 6.9263347e-06 -5.7792754e-06
0001a0 93 e6 06 35 77 48 bf b7 f4 e4 ca 36 06 6d 1f 37
       5.025442e-07 -2.2802718e-05 6.046723e-06 9.5025225e-06
0001b0 9c 12 68 b8 13 5e c8 b7 83 fa c3 37 7e 4e 2a b7
       -5.533044e-05 -2.3885665e-05 2.3362465e-05 -1.0151065e-05
0001c0 ef 8c 09 b8 59 ac 95 35 66 6a 51 b8 94 96 03 b8
       -3.27946e-05 1.1151525e-06 -4.9928574e-05 -3.137307e-05
0001d0 87 81 73 37 43 27 d9 37 81 7c fe b7 48 43 02 38
       1.4514087e-05 2.5886698e-05 -3.0337136e-05 3.1057076e-05
0001e0 5f 42 9e b7 d7 6f 57 38 c7 b4 19 b6 42 fc eb b7
       -1.8865974e-05 5.1364153e-05 -2.2904003e-06 -2.813165e-05
0001f0 d6 99 8e b7 b6 60 3a 38 4c 6d 5d b6 37 1a 6c 37
       -1.6999355e-05 4.4435925e-05 -3.2995185e-06 1.40728e-05
000200 6e 7e 48 37 fa fb 68 38 1f 4e 6b b4 85 09 a9 36
       1.1950366e-05 5.554778e-05 -2.1914501e-07 5.0377007e-06
000210 f1 0c 8e 38 1c f1 ae 37 0a 34 0b b8 f1 e0 7b 38
       6.773498e-05 2.0854692e-05 -3.3188648e-05 6.0052556e-05
000220 30 43 16 38 7f f2 a2 38 54 e4 40 b7 8f f4 b3 b7
       3.582536e-05 7.7699304e-05 -1.1497254e-05 -2.1452344e-05
000230 2f 16 23 b6 b3 69 d5 38 68 1b 82 b8 28 29 6d 37
       -2.4301805e-06 0.000101763195 -6.203988e-05 1.4135883e-05
000240 6b 12 c2 36 28 82 87 b5 3b c3 57 37 7e 93 38 b7
       5.7837947e-06 -1.0096164e-06 1.2860454e-05 -1.1001595e-05
000250 f8 01 a4 37 8a 27 66 37 3f 39 19 b7 22 32 11 b7
       1.955124e-05 1.3718274e-05 -9.132839e-06 -8.654346e-06
000260 40 a4 9e 36 7e 23 85 37 1d 17 85 37 88 77 93 b7
       4.727888e-06 1.5871363e-05 1.5865598e-05 -1.7579427e-05
000270 d1 09 be b7 b3 c6 6b 36 89 f4 80 b7 e6 1e 6c 37
       -2.2654336e-05 3.5133387e-06 -1.537266e-05 1.407389e-05
000280 e7 c5 fd 36 e4 a5 ea b7 bb cc 4e b7 7d 5f 45 37
       7.5630264e-06 -2.7972223e-05 -1.2326224e-05 1.1764348e-05
000290 70 f7 a7 37 60 04 26 37 21 bf ca b6 2d ac 3c 35
       2.0023173e-05 9.89539e-06 -6.0423195e-06 7.0286006e-07
0002a0 3e 05 75 37 0b 57 a4 36 80 09 fe b6 32 8f 4f b6
       1.46043585e-05 4.897714e-06 -7.570896e-06 -3.0928754e-06
0002b0 d6 8a 23 36 19 d2 ab 37 32 12 81 36 cf ca b1 37
       2.4369706e-06 2.0482623e-05 3.846618e-06 2.1194484e-05
0002c0 84 1c 96 36 a6 bd e9 b7 2e 88 2a 37 6f 54 ee 36
       4.473668e-06 -2.7864076e-05 1.0164496e-05 7.102782e-06
0002d0 64 ce 0c 36 56 72 94 36 db e8 bc b5 36 93 0b 35
       2.098176e-06 4.424054e-06 -1.4074861e-06 5.1995755e-07
0002e0 6a cc c8 b4 af 4d 88 36 32 f6 88 36 c0 f7 73 b6
       -3.7401634e-07 4.0621594e-06 4.0817768e-06 -3.6354031e-06
0002f0 94 05 5e b6 87 80 8b 35 25 c4 06 36 bb 6e 0f b5
       -3.3083825e-06 1.0393713e-06 2.0081727e-06 -5.3432785e-07
000300 58 a3 d4 b5 dc 49 fd 34 76 82 3a 36 83 d3 10 36
       -1.584277e-06 4.7178662e-07 2.7792098e-06 2.1580788e-06
000310 16 bc 39 b6 16 ba 8c b6 30 6e 82 b6 cb 14 4b 36
       -2.7676629e-06 -4.1939884e-06 -3.8871294e-06 3.026146e-06
000320 4a 42 b7 35 cf 55 28 36 a9 59 12 b6 9d 57 b1 34
       1.3653855e-06 2.5083898e-06 -2.1807884e-06 3.3032566e-07
000330 ba 2e 35 b6 f8 bc 28 36 61 ea 3e 36 7a ac 33 b5
       -2.69983e-06 2.5143945e-06 2.8448633e-06 -6.693368e-07
000340 b1 d4 3f b4 32 b1 23 36 ee e1 83 35 25 7d 8e b6
       -1.7865638e-07 2.4392034e-06 9.826015e-07 -4.2464985e-06
000350 5c 31 92 b5 e9 f2 e1 b5 5a a6 1c b6 cf 3c c5 36
       -1.0892213e-06 -1.6834503e-06 -2.334264e-06 5.8781366e-06
000360 db b1 8b 36 2a 30 06 37 d3 b8 40 b6 6c e3 5f b5
       4.163228e-06 7.9982365e-06 -2.8717811e-06 -8.3404916e-07
000370 86 31 ce 36 52 ae dc 36 18 0f 79 b5 ba bf 18 b6
       6.1450437e-06 6.5768045e-06 -9.278169e-07 -2.2761365e-06
000380 9b 4f 04 37 7d 24 89 36 44 04 96 37 8d 16 f8 33
       7.886348e-06 4.087166e-06 1.788338e-05 1.1552502e-07
000390 f5 30 45 b5 f9 c5 10 37 93 0e 6c 37 50 e1 c8 37
       -7.345946e-07 8.629163e-06 1.40700895e-05 2.3946777e-05
0003a0 3d be 4f 36 10 4f c2 36 51 73 89 b6 ee b2 05 37
       3.0956137e-06 5.7908546e-06 -4.0963428e-06 7.969078e-06
0003b0 d9 b6 3a 37 8d 4e a5 35 88 f7 45 b7 4b 2c d3 36
       1.11290365e-05 1.2316319e-06 -1.1799748e-05 6.2934464e-06
0003c0 6c a5 e3 36 44 86 04 36 20 39 91 34 af 53 8e 32
       6.784385e-06 1.9747686e-06 2.7049919e-07 1.656903e-08
0003d0 2e 19 f0 36 70 64 ba 36 1e 91 c0 36 d7 03 a1 35
       7.1554887e-06 5.5549244e-06 5.7389398e-06 1.1996552e-06
0003e0 c7 46 cf b6 c7 a3 9d b7 84 4f e9 36 ba 0e 3d b6
       -6.1773203e-06 -1.8792123e-05 6.953198e-06 -2.8171767e-06
0003f0 06 50 8d 35 ac 13 be 36 1c ce e4 33 23 8d 19 b5
       1.0528609e-06 5.6647314e-06 1.06545684e-07 -5.720232e-07

exp_avg_sq f4 [11, 36]
000000 09 b8 55 31 6f b5 0a 32 aa c5 86 31 41 aa 17 32
       3.1100191e-09 8.07391e-09 3.922385e-09 8.828068e-09
000010 46 3d 06 33 fa 56 e7 31 0f 69 a2 31 02 a2 12 32
       3.1255034e-08 6.732873e-09 4.7267643e-09 8.535155e-09
000020 a0 ee 8b 32 03 e8 48 32 fe 6d 04 32 47 0c 39 31
       1.6290244e-08 1.16942855e-08 7.708421e-09 2.6928022e-09
000030 15 b1 e6 31 dd f5 23 32 74 57 21 32 84 71 fc 31
       6.714013e-09 9.543752e-09 9.391318e-09 7.3470705e-09
000040 e0 52 94 32 52 72 bb 32 0d 52 45 32 a3 2b 4d 32
       1.7267155e-08 2.1821652e-08 1.1485565e-08 1.1942492e-08
000050 8a 21 3f 32 09 f3 e6 31 96 77 21 32 0c 0a c1 31
       1.1125289e-08 6.721511e-09 9.398624e-09 5.6181815e-09
000060 6a 4e 3f 32 d3 f9 88 32 d3 27 75 32 94 36 d3 31
       1.11354925e-08 1.594609e-08 1.4269932e-08 6.147113e-09
000070 f4 0e fa 31 00 f8 b3 31 aa 0d 36 32 43 b7 ea 31
       7.2776576e-09 5.23778e-09 1.0596901e-08 6.8311308e-09
000080 80 84 b3 31 8a c7 e7 31 6d df e9 31 2c b3 fd 31
       5.224649e-09 6.74567e-09 6.806593e-09 7.3836386e-09
000090 ac 12 5b 32 93 17 a6 31 0d 5a c2 30 70 48 7f 31
       1.2751723e-08 4.833916e-09 1.4140952e-09 3.714856e-09
0000a0 52 3a df 32 e4 9c ea 31 0c aa bc 31 60 e1 db 31
       2.5987138e-08 6.8281327e-09 5.490852e-09 6.399361e-09
0000b0 45 cc 97 32 c9 52 f2 31 c5 3b 91 32 8b cb 00 32
       1.7671605e-08 7.0525386e-09 1.6907402e-08 7.496861e-09
0000c0 cd fc e7 30 e7 e7 af 32 06 63 6f 31 55 70 61 31
       1.6879312e-09 2.0478138e-08 3.4835366e-09 3.2805663e-09
0000d0 fe 2f ad 30 b8 47 31 32 74 8c 0a 32 1e 70 80 32
       1.2601047e-09 1.0319063e-08 8.0645925e-09 1.4952146e-08
0000e0 51 03 e7 31 e0 25 0c 32 a7 8e 0e 32 98 f3 d3 31
       6.723362e-09 8.157684e-09 8.297923e-09 6.1686016e-09
0000f0 cb c7 ec 31 81 04 9d 31 a5 6a 85 30 dc 0a b2 31
       6.891218e-09 4.5698134e-09 9.707334e-10 5.1817164e-09
000100 2c a7 c0 31 7a 09 bd 31 6f 3c 94 32 d8 e0 21 32
       5.6069407e-09 5.5017013e-09 1.725695e-08 9.422557e-09
000110 e3 8a af 32 44 27 28 33 f1 17 d2 30 bc 94 e4 30
       2.043584e-08 3.915126e-08 1.5286316e-09 1.6631456e-09
000120 4a fd 02 32 b7 60 95 33 00 31 0b 32 83 f3 24 33
       7.624587e-09 6.9559455e-08 8.102006e-09 3.8405698e-08
000130 4e d4 fc 32 6b f3 2d 32 2e 73 fb 32 94 7c c2 31
       2.9433206e-08 1.0125272e-08 2.9272623e-08 5.660306e-09
000140 7c 91 1e 33 d1 de e3 32 99 4d 6a 33 85 43 1f 33
       3.691956e-08 2.6527603e-08 5.4552945e-08 3.708148e-08
000150 6b 01 b0 32 e8 99 9c 33 7e a7 7c 33 79 e7 aa 31
       2.0489741e-08 7.2923115e-08 5.8825655e-08 4.9739666e-09
000160 0a 98 14 32 19 99 57 32 28 15 b5 31 15 94 aa 32
       8.6493035e-09 1.25494575e-08 5.2701985e-09 1.9857945e-08
000170 eb 2d 13 33 80 86 f4 32 64 ef 45 32 d6 0a 0b 33
       3.4267867e-08 2.8466502e-08 1.152134e-08 3.2373315e-08
000180 3c c5 0b 33 3f 5b 23 33 10 5b 6e 32 45 2e 3b 32
       3.2542843e-08 3.8034383e-08 1.38741285e-08 1.0895353e-08
000190 50 76 db 32 c4 b5 7c 31 2f b9 36 33 bc b8 81 32
       2.5548758e-08 3.6774148e-09 4.25436e-08 1.5101584e-08
0001a0 70 fc 5b 32 92 c9 a9 32 fc c0 0a 32 81 b9 6e 32
       1.2804875e-08 1.9765853e-08 8.076537e-09 1.3895602e-08
0001b0 5e 81 73 31 4d 23 ed 31 da 72 6b 31 b7 c5 19 32
       3.543469e-09 6.901621e-09 3.4262286e-09 8.950727e-09
0001c0 ee bc 41 33 0b 7c a2 32 f9 fd ea 32 ee b2 4d 32
       4.5108145e-08 1.891569e-08 2.7356679e-08 1.1973254e-08
0001d0 f8 5d 94 32 95 29 11 32 45 c8 5d 32 2b 70 00 32
       1.72722e-08 8.4495655e-09 1.2909429e-08 7.476085e-09
0001e0 10 19 78 32 8c 6b dc 31 d8 8f 53 32 69 40 d5 32
       1.44411985e-08 6.4150694e-09 1.2314523e-08 2.4825754e-08
0001f0 28 71 bb 32 db bc 5e 31 d8 10 94 32 e9 30 2c 32
       2.1821123e-08 3.2412604e-09 1.7237127e-08 1.0022839e-08
000200 9e bd 4e 32 47 26 e0 32 eb 6f d3 31 fa 19 82 32
       1.2033892e-08 2.6094439e-08 6.153632e-09 1.5145805e-08
000210 f4 2c f3 32 5a 94 03 33 84 65 bf 32 d0 ea bd 31
       2.8309366e-08 3.063574e-08 2.228149e-08 5.527319e-09
000220 5a b6 5e 32 00 87 fc 32 66 75 a4 32 83 7d a6 32
       1.2963563e-08 2.9398052e-08 1.91455e-08 1.938202e-08
000230 9f c9 01 32 51 51 37 32 a3 2b 95 31 c3 59 11 32
       7.554632e-09 1.0670491e-08 4.3414317e-09 8.46052e-09
000240 98 3d 1c 32 5b 81 28 33 17 41 bd 32 22 2b 7d 33
       9.0944e-09 3.9233196e-08 2.2032095e-08 5.8945382e-08
000250 da 46 7c 33 d1 64 2f 33 be 42 c7 32 75 fa c6 31
       5.873776e-08 4.0837055e-08 2.3197e-08 5.791032e-09
000260 52 2d 9f 32 cc f6 63 33 21 85 e1 33 eb a3 56 33
       1.8530645e-08 5.3077017e-08 1.0501595e-07 4.997484e-08
000270 ae 22 82 32 ec e5 c7 32 58 e0 22 34 eb 53 32 32
       1.5149762e-08 2.3271205e-08 1.5169041e-07 1.0380044e-08
000280 fb be d4 32 03 09 e9 32 cc 48 11 32 74 4d 44 33
       2.4766896e-08 2.7128868e-08 8.456663e-09 4.570525e-08
000290 5a 47 cb 32 27 ba ef 32 eb 5b f7 32 72 92 c0 32
       2.3664757e-08 2.7907914e-08 2.8796384e-08 2.2418337e-08
0002a0 08 5d 6f 33 d6 dc 55 32 be 88 c3 32 98 5c bf 32
       5.5731135e-08 1.2448444e-08 2.2763171e-08 2.2277433e-08
0002b0 9d 58 59 33 bd 51 ad 32 02 f5 87 32 da cc 37 33
       5.0604843e-08 2.0177021e-08 1.5827485e-08 4.279432e-08
0002c0 7d c5 77 32 26 7b 40 33 ea b2 83 32 f3 6a 07 33
       1.4422196e-08 4.4815486e-08 1.5331768e-08 3.1529407e-08
0002d0 53 32 b7 32 42 c8 04 33 df a4 b7 31 66 05 af 32
       2.1326889e-08 3.091578e-08 5.3447446e-09 2.0375136e-08
0002e0 62 1a cd 32 a6 1a 31 32 df ba a8 33 36 5e 2a 32
       2.3877138e-08 1.0308815e-08 7.857101e-08 9.916723e-09
0002f0 54 c0 2a 34 3e 64 3e 33 72 70 21 32 5a 1c b8 32
       1.5902452e-07 4.4328992e-08 9.3970005e-09 2.1433312e-08
000300 73 9c 06 33 db 09 95 32 1e 10 9d 32 ef 85 e1 31
       3.1341596e-08 1.7350365e-08 1.8284535e-08 6.5635883e-09
000310 f2 ca 8f 32 b8 2c 3c 32 e0 84 5c 32 71 a3 2c 33
       1.673968e-08 1.0953208e-08 1.2835898e-08 4.019552e-08
000320 c3 50 b0 32 78 1f 28 33 28 73 ee 32 ee 97 5c 32
       2.0525823e-08 3.914417e-08 2.7759214e-08 1.284023e-08
000330 ac 9e 04 33 81 c7 79 33 24 58 6f 33 ca c9 17 32
       3.0877956e-08 5.8156278e-08 5.5726687e-08 8.835238e-09
000340 c9 13 09 33 ae a2 4c 32 7c bc 06 33 c1 6c 53 33
       3.1915793e-08 1.1911352e-08 3.1370732e-08 4.9226177e-08
000350 17 23 c9 33 9f 88 bb 31 fa 01 23 32 a3 b4 30 32
       9.366175e-08 5.4579483e-09 9.488298e-09 1.028562e-08
000360 40 1b 13 32 49 e6 16 32 77 6c a3 32 e2 8d 51 32
       8.562722e-09 8.78351e-09 1.9025022e-08 1.21976615e-08
000370 12 e1 09 32 b2 64 f0 31 97 56 81 33 ba 5c 21 32
       8.025625e-09 6.996367e-09 6.022781e-08 9.392517e-09
000380 b7 d9 fc 33 b2 fc f0 32 ee 8b b4 31 34 f6 96 31
       1.17742665e-07 2.805459e-08 5.2545976e-09 4.3935646e-09
000390 fb f4 f5 32 b5 0b ea 31 e5 d8 ab 32 d9 8b b9 32
       2.8633158e-08 6.8116273e-09 2.0005652e-08 2.160043e-08
0003a0 e6 8e bf 32 eb d3 08 32 ea 49 ce 31 2a 6a 36 31
       2.230031e-08 7.9644265e-09 6.003792e-09 2.6544833e-09
0003b0 a8 3e d8 32 d4 52 0a 33 9e 08 98 31 0d 51 16 33
       2.5174202e-08 3.220596e-08 4.424762e-09 3.4998312e-08
0003c0 cc 8e 06 34 bb d9 08 32 38 4c f1 32 ba c7 7c 33
       1.2531672e-07 7.965748e-09 2.8090753e-08 5.8854972e-08
0003d0 b1 0e 08 33 ad 4e 8b 33 e0 2f 61 32 34 6b cb 31
       3.167833e-08 6.487003e-08 1.3107609e-08 5.920265e-09
0003e0 72 65 0f 32 e4 9b fe 32 e0 23 da 32 04 a2 9e 32
       8.3467615e-09 2.9640383e-08 2.5394854e-08 1.8467297e-08
0003f0 fa 17 d1 31 ac 46 f0 32 04 28 34 32 17 94 c4 32
       6.0854264e-09 2.7971815e-08 1.04864775e-08 2.2884747e-08

exp_avg f4 [11, 11]
000000 74 22 f5 b5 47 e8 93 35 5c b3 06 36 94 24 18 35
       -1.826395e-06 1.1019955e-06 2.0071957e-06 5.667764e-07
000010 37 9b 16 b4 62 6a 3a 36 ad 53 1a b6 1c 4e 9f 36
       -1.4026305e-07 2.7778083e-06 -2.2996494e-06 4.7476624e-06
000020 20 0a dc 35 74 a6 e2 b4 bd 85 49 b6 20 6e 94 b6
       1.6394224e-06 -4.221689e-07 -3.002918e-06 -4.423564e-06
000030 12 aa ae b6 e0 fe 18 b6 ea 90 98 36 90 f6 8a 35
       -5.205403e-06 -2.2798122e-06 4.546823e-06 1.035356e-06
000040 e2 3d 77 b6 87 0b 32 b7 d1 aa cb 36 4d 87 8c b4
       -3.6841889e-06 -1.0612311e-05 6.069757e-06 -2.6175476e-07
000050 53 0e 3b 37 df a6 4b b7 5b 72 6a b5 98 a3 e3 35
       1.1149404e-05 -1.2138596e-05 -8.73382e-07 1.696043e-06
000060 bd 65 ce b6 45 f2 46 36 f4 1e 7c b6 34 38 ac 36
       -6.1511223e-06 2.9645319e-06 -3.7568943e-06 5.1325424e-06
000070 21 f4 4b b6 3c de 8d 36 7c 0f b1 36 79 41 ab 36
       -3.039146e-06 4.227999e-06 5.2768137e-06 5.103819e-06
000080 8a 46 e6 b6 da e1 1f 37 21 8f cb b7 65 74 74 37
       -6.862746e-06 9.529724e-06 -2.4266135e-05 1.45706335e-05
000090 c0 5c 94 b7 f9 3a 2b b7 ec f3 cf b7 37 28 99 37
       -1.7686165e-05 -1.0206125e-05 -2.4789908e-05 1.8257748e-05
0000a0 0f bf ed b7 f0 51 7a b7 ff 19 a3 b7 15 9f 9c 36
       -2.834157e-05 -1.4920239e-05 -1.944322e-05 4.667682e-06
0000b0 31 80 2f 37 c6 df c4 37 fc a1 05 36 6b 5d d6 37
       1.046066e-05 2.3469223e-05 1.9912832e-06 2.555429e-05
0000c0 83 9c c2 36 13 55 bb 37 af 39 e7 b7 43 46 9e 37
       5.799871e-06 2.2331753e-05 -2.7564207e-05 1.8867786e-05
0000d0 85 63 f9 37 e9 4c f4 37 e1 5b 8e b6 04 b2 8c 34
       2.9729455e-05 2.912288e-05 -4.242626e-06 2.6206556e-07
0000e0 a0 85 a1 34 3a 98 b8 b3 65 12 d6 b4 b9 7f 70 34
       3.0085812e-07 -8.5958575e-08 -3.987399e-07 2.2398207e-07
0000f0 16 d7 24 35 f3 de bd b4 80 68 9c b5 f5 02 16 b5
       6.140775e-07 -3.536621e-07 -1.1653319e-06 -5.588366e-07
000100 5b ba 74 34 37 7e 1f b6 5d d4 c3 35 86 4d 0e 36
       2.2792067e-07 -2.3766313e-06 1.4590438e-06 2.1204773e-06
000110 89 a1 fe b3 7f eb 1e 36 cf 11 50 b5 25 ed ec 35
       -1.185718e-07 2.3680911e-06 -7.7511953e-07 1.7652388e-06
000120 e1 b0 26 35 95 21 55 b4 ca 6a 8d 36 95 a0 7f b5
       6.209721e-07 -1.9849388e-07 4.2145593e-06 -9.522858e-07
000130 17 b0 95 35 54 9a fa b5 44 c4 85 36 5d 82 b8 b6
       1.1152614e-06 -1.8671367e-06 3.986557e-06 -5.4988036e-06
000140 ca 00 a7 b5 51 b8 cc 35 89 9b 5a 36 07 5f 7f b6
       -1.2442699e-06 1.5252828e-06 3.2575065e-06 -3.8053274e-06
000150 72 1f 4d 36 b9 8a 3e b4 d0 45 5f 36 78 99 fe b6
       3.0565684e-06 -1.7745596e-07 3.3270226e-06 -7.587656e-06
000160 bb 08 d3 b6 48 dc 3e 37 2c e4 54 b7 fa 2c 12 36
       -6.2893064e-06 1.1376171e-05 -1.268931e-05 2.1781875e-06
000170 a8 54 a0 36 1a a0 b4 36 4d ae 55 b7 74 53 73 37
       4.778227e-06 5.3830563e-06 -1.2736372e-05 1.4503359e-05
000180 15 d0 2d 35 43 1a 9f 36 89 cf 64 b7 18 f8 0a 36
       6.475032e-07 4.7416265e-06 -1.363818e-05 2.0708012e-06
000190 d8 d3 56 b7 82 44 45 37 0e 1c 0f b7 6c 48 d1 35
       -1.2804718e-05 1.1758066e-05 -8.529996e-06 1.5592791e-06
0001a0 64 10 43 b7 b0 79 12 37 2d c9 4e b7 a4 66 eb b6
       -1.1626722e-05 8.730611e-06 -1.2325397e-05 -7.0154947e-06
0001b0 7f 40 e4 b6 31 64 e2 36 39 2d e6 35 0c 2c 00 b7
       -6.802438e-06 6.7469887e-06 1.7149497e-06 -7.63965e-06
0001c0 88 b1 f6 34 10 07 a5 b4 4f 1d 1b b7 b6 33 00 35
       4.5950242e-07 -3.0738784e-07 -9.245544e-06 4.7758965e-07
0001d0 8c 88 8c b4 d4 dc f8 35 ad 15 67 36 75 b8 05 35
       -2.6176383e-07 1.8541709e-06 3.44343e-06 4.981478e-07
0001e0 14 f6 0a b7
       -8.2827355e-06

exp_avg_sq f4 [11, 11]
000000 8b 26 c0 31 cb 89 bb 31 82 5e af 31 0a c3 00 32
       5.5923173e-09 5.4580815e-09 5.1039146e-09 7.494927e-09
000010 12 f9 25 32 5f 39 a7 31 36 c8 d5 31 64 17 0d 32
       9.660896e-09 4.866862e-09 6.2218772e-09 8.212599e-09
000020 de 27 90 31 73 9f 3e 32 8e 24 0c 32 c0 f3 86 31
       4.195484e-09 1.109571e-08 8.157384e-09 3.9276244e-09
000030 c9 af 57 31 ae cc 72 31 64 97 7e 31 57 a1 8f 31
       3.138654e-09 3.5331982e-09 3.704792e-09 4.18019e-09
000040 2f 3b 7a 31 6c 1e 79 31 d3 68 b7 31 fe 7f 3a 31
       3.641343e-09 3.6251562e-09 5.337918e-09 2.7139317e-09
000050 85 16 6c 31 9c 15 5b 31 a8 68 09 33 7c 5b 06 33
       3.435532e-09 3.1880978e-09 3.1992982e-08 3.128251e-08
000060 b6 86 f1 32 d9 85 83 33 2b bc 3b 33 67 98 20 33
       2.8117352e-08 6.1245096e-08 4.3710468e-08 3.7391512e-08
000070 01 e5 14 33 07 09 18 33 24 b9 55 33 58 66 0f 33
       3.4667213e-08 3.5398468e-08 4.976131e-08 3.3387863e-08
000080 d4 78 5a 33 97 66 31 32 3c b0 9b 31 5e bd d0 31
       5.0866973e-08 1.0326082e-08 4.5311292e-09 6.0751253e-09
000090 3a 91 15 32 80 e3 63 32 52 c5 2e 32 42 59 34 32
       8.705962e-09 1.32648665e-08 1.0172998e-08 1.0497674e-08
0000a0 d2 74 54 32 c9 26 1c 32 39 89 85 32 a9 c3 e9 31
       1.2366586e-08 9.089214e-09 1.554564e-08 6.8034365e-09
0000b0 bd 17 af 33 b4 4c 5c 33 97 19 d3 33 55 63 61 33
       8.1533905e-08 5.1292503e-08 9.830108e-08 5.2477237e-08
0000c0 6e 6e a3 33 c4 53 7f 33 a4 c6 68 33 06 37 38 33
       7.610366e-08 5.9448e-08 5.4197372e-08 4.2890882e-08
0000d0 92 2a 77 33 c7 95 5d 33 a6 6d b4 33 c6 03 09 32
       5.7547886e-08 5.1591794e-08 8.401848e-08 7.9753075e-09
0000e0 4d a1 16 32 1c f9 a1 31 9e a2 09 32 8a 72 90 31
       8.767825e-09 4.714037e-09 8.011424e-09 4.203973e-09
0000f0 89 a7 29 32 00 6e 3c 32 98 17 4f 32 40 06 83 31
       9.875188e-09 1.0968051e-08 1.205435e-08 3.8133123e-09
000100 c9 1c b8 31 89 10 1a 32 fa 72 19 32 d9 65 9d 31
       5.3583773e-09 8.967739e-09 8.931915e-09 4.58088e-09
000110 4c bf 08 31 20 d1 06 32 6f c0 83 31 2c cc bb 31
       1.9899344e-09 7.847376e-09 3.834479e-09 5.465628e-09
000120 d6 0b 2d 32 52 ac 86 32 25 e2 61 31 b6 30 04 32
       1.00726165e-08 1.5678015e-08 3.2870358e-09 7.694487e-09
000130 f1 47 f3 31 f2 58 10 32 ac 11 d5 31 7f 87 59 31
       7.0804096e-09 8.402127e-09 6.201125e-09 3.1654677e-09
000140 95 7b 0b 32 34 7e 05 32 0b b8 cf 31 7a cd 30 32
       8.118964e-09 7.770314e-09 6.045416e-09 1.0291268e-08
000150 24 b9 2e 32 02 31 df 31 0f d5 1e 32 fc b7 ee 31
       1.0170229e-08 6.4957257e-09 9.245254e-09 6.9476283e-09
000160 40 0b 93 32 7a 89 43 32 7e 30 86 31 24 37 4c 32
       1.7118168e-08 1.1381752e-08 3.905426e-09 1.18869e-08
000170 06 ab 5d 32 ae f4 56 32 70 c4 a2 32 0e 1a 06 33
       1.2902779e-08 1.2512073e-08 1.8948612e-08 3.1223003e-08
000180 92 8c 1c 32 17 c1 9b 32 d7 e6 8c 32 ce 4d c6 31
       9.112357e-09 1.8132182e-08 1.6403119e-08 5.771404e-09
000190 1f 1c 88 31 3e 31 9e 31 9f b1 ad 31 64 d2 8e 31
       3.961318e-09 4.6040034e-09 5.055156e-09 4.1566626e-09
0001a0 44 fb 39 31 09 5b 84 31 32 b4 bb 31 14 ed 47 31
       2.7063871e-09 3.852055e-09 5.462902e-09 2.9093075e-09
0001b0 dc 33 75 31 d1 01 3f 31 f3 ac a8 32 b3 dc 91 32
       3.568167e-09 2.779519e-09 1.9636422e-08 1.6980584e-08
0001c0 2f 8d 8b 32 20 cf ac 32 ae 29 82 32 eb ad 9d 32
       1.6245933e-08 2.0117625e-08 1.5152946e-08 1.8356294e-08
0001d0 a8 f9 7b 32 8c d3 85 32 86 52 b2 32 bc 21 8b 32
       1.4666888e-08 1.5579438e-08 2.0759455e-08 1.619707e-08
0001e0 1a 9a a1 32
       1.8812944e-08

exp_avg f4 [11]
000000 72 38 79 36 ba 6c 12 36 92 88 8f 34 b7 52 3a b8
       3.7136747e-06 2.1818983e-06 2.6735194e-07 -4.442289e-05
000010 2d 24 91 36 86 93 ed b5 66 6e 84 36 4a 9d da 35
       4.325548e-06 -1.7700811e-06 3.9467586e-06 1.6288043e-06
000020 32 6e 6f 37 59 37 5b b7 6c 64 2a b7
       1.4271167e-05 -1.3066304e-05 -1.0156171e-05

exp_avg_sq f4 [11]
000000 f8 4c 16 32 96 c8 eb 31 d2 72 61 32 e4 55 42 33
       8.74865e-09 6.862204e-09 1.3122831e-08 4.5247262e-08
000010 59 ad eb 32 9a 43 85 32 0a 44 d3 32 a5 1f e7 32
       2.743643e-08 1.551398e-08 2.4594573e-08 2.690633e-08
000020 38 13 7a 33 64 d5 28 32 3c 20 2b 32
       5.822514e-08 9.8274064e-09 9.960839e-09

exp_avg f4 [11]
000000 72 38 79 36 ba 6c 12 36 92 88 8f 34 b7 52 3a b8
       3.7136747e-06 2.1818983e-06 2.6735194e-07 -4.442289e-05
000010 2d 24 91 36 86 93 ed b5 66 6e 84 36 4a 9d da 35
       4.325548e-06 -1.7700811e-06 3.9467586e-06 1.6288043e-06
000020 32 6e 6f 37 59 37 5b b7 6c 64 2a b7
       1.4271167e-05 -1.3066304e-05 -1.0156171e-05

exp_avg_sq f4 [11]
000000 f8 4c 16 32 96 c8 eb 31 d2 72 61 32 e4 55 42 33
       8.74865e-09 6.862204e-09 1.3122831e-08 4.5247262e-08
000010 59 ad eb 32 9a 43 85 32 0a 44 d3 32 a5 1f e7 32
       2.743643e-08 1.551398e-08 2.4594573e-08 2.690633e-08
000020 38 13 7a 33 64 d5 28 32 3c 20 2b 32
       5.822514e-08 9.8274064e-09 9.960839e-09

exp_avg f4 [36, 11]
000000 46 87 85 b8 85 50 98 b8 23 dc e9 b8 58 b3 07 38
       -6.367131e-05 -7.262923e-05 -0.000111513094 3.2353535e-05
000010 b3 31 f0 b7 64 2c 2e b8 c6 75 97 b8 5e 47 19 39
       -2.8633372e-05 -4.1526175e-05 -7.222178e-05 0.00014617803
000020 cd c8 54 38 ba bb af 38 ee 63 83 38 73 db c7 b9
       5.073175e-05 8.379617e-05 6.26518e-05 -0.0003811974
000030 38 1f 7c b9 3c ce 98 b9 cc c3 48 b9 9c 43 a3 b9
       -0.00024044223 -0.00029145356 -0.00019146426 -0.00031140156
000040 4e ee 8e b9 81 fb 4c 39 4f d0 4b b9 43 51 6b b9
       -0.000272619 0.00019548649 -0.0001943719 -0.00022441619
000050 cd 3a 73 b9 d2 64 86 b9 83 67 73 b6 a1 0e 9d 35
       -0.00023196191 -0.0002563359 -3.6270073e-06 1.1701669e-06
000060 7d df 09 b6 99 b6 e0 35 3e 1e 46 b5 b3 16 a2 b5
       -2.0544678e-06 1.6742443e-06 -7.3804756e-07 -1.2076547e-06
000070 fc 90 f9 b5 8b 7f d3 35 93 e1 0c b6 b3 cb 88 35
       -1.8594142e-06 1.5757845e-06 -2.0992927e-06 1.0192074e-06
000080 68 7c 86 36 1c e5 92 b7 85 b6 d1 38 a6 16 b4 37
       4.007994e-06 -1.7511244e-05 9.9998935e-05 2.1468219e-05
000090 0d 67 8f 38 91 c9 52 b7 ee 6e 4e 35 a8 9d 8c b8
       6.837966e-05 -1.2563906e-05 7.6902404e-07 -6.705086e-05
0000a0 c8 64 79 b7 4c 90 86 38 0c db f7 b7 ac 34 d5 37
       -1.48650215e-05 6.416495e-05 -2.9546696e-05 2.5416106e-05
0000b0 98 31 cc b6 6c 58 3e b5 ec 86 c9 b6 c0 ad ce 36
       -6.0854472e-06 -7.0909186e-07 -6.005974e-06 6.1595056e-06
0000c0 8c 17 66 b6 7f 15 b5 b6 85 aa bc b6 a8 e2 55 b6
       -3.4286377e-06 -5.396723e-06 -5.6226877e-06 -3.1871405e-06
0000d0 35 59 92 b6 da 36 41 36 68 54 d6 36 f2 1e 61 b8
       -4.361524e-06 2.879117e-06 6.387523e-06 -5.3673e-05
0000e0 db 34 d6 37 65 c6 ac b7 31 c4 00 37 b1 06 f9 b6
       2.55354e-05 -2.0596382e-05 7.675074e-06 -7.4215573e-06
0000f0 e8 08 20 38 ae 11 af b7 a2 4b 64 38 38 cd cc b7
       3.8155267e-05 -2.0869858e-05 5.4429875e-05 -2.4414257e-05
000100 1c 1f 62 36 33 32 9d 37 81 1e 43 b6 f5 d4 93 b4
       3.3694732e-06 1.8739234e-05 -2.907502e-06 -2.753583e-07
000110 20 2b e4 b5 71 66 db 35 8c 66 11 35 60 cf 23 b6
       -1.6999875e-06 1.6346586e-06 5.4165935e-07 -2.44096e-06
000120 77 85 09 b6 5d 05 07 36 7e 4c 3a b5 33 dc 59 34
       -2.0492278e-06 2.011969e-06 -6.940171e-07 2.0289808e-07
000130 5b 5d 3d 36 13 31 91 b6 7a 44 47 b5 54 e3 56 b6
       2.8217535e-06 -4.3270497e-06 -7.4232923e-07 -3.2020807e-06
000140 10 c4 60 36 54 ab bf b5 2c 1d 6c b6 a4 ac 4a b6
       3.3492724e-06 -1.4280472e-06 -3.518372e-06 -3.0200836e-06
000150 86 a7 ad b5 63 42 08 b6 39 7f 01 36 61 55 91 36
       -1.293826e-06 -2.0304221e-06 1.9296551e-06 4.331276e-06
000160 c4 61 90 b8 6e 55 2b b8 42 82 43 38 81 0b 57 37
       -6.884665e-05 -4.084914e-05 4.6612935e-05 1.2817677e-05
000170 fa 62 c3 b7 fd 4e 33 b7 d3 1e a4 36 fa fa 86 b8
       -2.3291901e-05 -1.0687622e-05 4.8911693e-06 -6.436366e-05
000180 4f b2 08 b8 f7 54 b1 38 b1 ae bb b8 14 34 57 b6
       -3.259099e-05 8.4558436e-05 -8.949394e-05 -3.206781e-06
000190 fa 15 19 b6 00 a7 79 b6 72 7f 8f 36 30 0c 48 35
       -2.2811569e-06 -3.7201098e-06 4.2765687e-06 7.452354e-07
0001a0 63 33 59 b6 7d 4d a6 b6 a3 ac 69 36 60 6d 32 b6
       -3.236543e-06 -4.9562063e-06 3.4820193e-06 -2.6587732e-06
0001b0 bf c8 2e 36 1f 94 bf 36 16 6d 95 39 b2 47 90 38
       2.604487e-06 5.709487e-06 0.0002850077 6.8798094e-05
0001c0 ba 50 94 39 44 05 8a b9 20 e1 9e 39 59 f2 97 39
       0.00028288906 -0.00026325334 0.0003030384 0.00028981527
0001d0 f2 82 9a 39 d4 ec a2 39 b8 72 87 39 fc ac 46 b9
       0.0002947073 0.000310755 0.0002583468 -0.00018947193
0001e0 82 10 8d b9 cd d8 8b b6 dc c8 00 34 ce 02 87 b6
       -0.00026905915 -4.1677617e-06 1.1994001e-07 -4.02364e-06
0001f0 71 f1 49 36 9d 1a 1d b6 b5 e7 7c b6 7d f2 65 b6
       3.0091871e-06 -2.3410314e-06 -3.7685797e-06 -3.4264806e-06
000200 e6 af fd 35 94 7e 29 b6 3c 71 3f 35 af 64 a3 36
       1.8901162e-06 -2.525664e-06 7.131782e-07 4.8694997e-06
000210 d1 08 72 b6 87 bb 89 b5 00 02 8c b6 79 99 84 36
       -3.6065942e-06 -1.0261873e-06 -4.172558e-06 3.951773e-06
000220 4f 04 e9 33 cc da 76 b6 21 85 91 b6 b4 27 f5 34
       1.0850692e-07 -3.6784213e-06 -4.336835e-06 4.5663694e-07
000230 6d e5 27 b6 d1 57 1b 36 43 0b a5 36 98 b5 af b8
       -2.5018483e-06 2.3147916e-06 4.9186942e-06 -8.378475e-05
000240 a6 a4 10 b8 6a e9 94 37 6c cf 3a 38 e7 6d e9 37
       -3.4485616e-05 1.7751667e-05 4.4539032e-05 2.7826942e-05
000250 a0 44 90 37 8a 09 50 38 52 be 08 b8 d6 e9 a4 36
       1.7198094e-05 4.959995e-05 -3.2602176e-05 4.914803e-06
000260 25 d8 2f 37 c9 c3 24 38 c1 82 c4 36 0d 80 3b 38
       1.0481138e-05 3.9282986e-05 5.856477e-06 4.470353e-05
000270 43 a9 5e 38 7c 78 5a b8 71 bb b6 37 dc c2 d1 b7
       5.3086562e-05 -5.208746e-05 2.1783375e-05 -2.500548e-05
000280 fe c3 4c b8 92 f1 aa 38 09 62 39 b8 a5 a6 5c 38
       -4.8819922e-05 8.151228e-05 -4.419874e-05 5.2607287e-05
000290 3f 4b 1d 38 99 db f5 b6 a4 5a ac b5 e3 e2 d4 b6
       3.7501795e-05 -7.3271335e-06 -1.2841379e-06 -6.3445054e-06
0002a0 fc e9 77 36 e4 93 a6 b6 3d 4b cd b6 d6 c5 5e b6
       3.6942065e-06 -4.9644023e-06 -6.118235e-06 -3.3195734e-06
0002b0 ed d6 68 b2 0a 42 d2 b6 45 cf 11 35 3b 8c 15 37
       -1.3553046e-08 -6.2661757e-06 5.4318326e-07 8.913742e-06
0002c0 47 40 25 38 f6 a6 26 38 56 b2 af b8 74 66 00 39
       3.939893e-05 3.973298e-05 -8.377868e-05 0.00012245198
0002d0 10 13 d9 37 b5 99 34 b8 49 10 36 b9 85 8c a7 b8
       2.5877293e-05 -4.3058495e-05 -0.00017362939 -7.989354e-05
0002e0 c3 81 41 b9 71 9b c9 37 19 9c f5 37 82 0e 92 b8
       -0.00018454254 2.403345e-05 2.9278965e-05 -6.964525e-05
0002f0 0c 31 82 b9 3c 08 99 39 a2 e9 1a b9 7c 34 9b 38
       -0.00024832075 0.0002918857 -0.0001477362 7.400752e-05
000300 d6 a9 7d b9 0a 05 2c 39 18 1f 31 b9 a0 26 3b b9
       -0.00024191229 0.00016405075 -0.00016891619 -0.00017848099
000310 00 78 38 b9 89 31 cc 39 fc 3f 69 38 0e 09 28 b8
       -0.00017592311 0.0003894682 5.561112e-05 -4.0062754e-05
000320 ec 91 03 b7 26 5e cc 38 3e 13 00 39 88 2f ce b7
       -7.842184e-06 9.7450145e-05 0.000122142 -2.4579247e-05
000330 0a 72 58 b8 68 b5 5d b8 1d 00 0e 38 ed e1 8c b8
       -5.160462e-05 -5.2859454e-05 3.3855544e-05 -6.717802e-05
000340 53 2a 7a b8 8e e9 4f b6 6d aa 6e 35 83 c5 16 b6
       -5.9644062e-05 -3.098135e-06 8.890991e-07 -2.2466709e-06
000350 58 78 33 36 6d 46 88 b5 b2 d1 21 b6 f2 b8 44 b6
       2.6743128e-06 -1.0153286e-06 -2.4112928e-06 -2.9313928e-06
000360 23 dc 3f 35 5c 84 0b b6 a1 20 30 b2 b4 10 69 36
       7.1473386e-07 -2.0789657e-06 -1.0251967e-08 3.4729428e-06
000370 23 8e db 38 a2 de cb 38 35 24 ba b8 67 23 21 b8
       0.00010469209 9.721263e-05 -8.875915e-05 -3.8418362e-05
000380 fd 28 05 39 13 e9 11 b9 e1 b8 44 39 5a b0 49 b8
       0.00012699138 -0.00013915105 0.0001876089 -4.8086375e-05
000390 9e cc 5c 39 28 2d 8e 38 29 c7 f9 38 f8 bf 63 b6
       0.00021057061 6.779499e-05 0.00011910342 -3.3937376e-06
0003a0 31 45 f8 34 91 02 14 b6 14 56 1c 36 90 8c 37 b4
       4.6243943e-07 -2.2055212e-06 2.3295916e-06 -1.709434e-07
0003b0 12 27 03 b6 ea ab 0f b6 7b 4d fe 34 14 ec df b5
       -1.9543263e-06 -2.1408728e-06 4.736756e-07 -1.6683503e-06
0003c0 b5 e0 a8 34 94 78 43 36 d7 e3 93 b6 12 75 55 b5
       3.1455934e-07 2.912745e-06 -4.4074654e-06 -7.9519043e-07
0003d0 79 21 9f b6 36 2f 5c 36 af b8 b1 b5 99 7d 92 b6
       -4.742466e-06 3.2810035e-06 -1.3241278e-06 -4.3657606e-06
0003e0 a6 c9 95 b6 5a 09 64 35 9a 80 2e b6 7d bc 1e 36
       -4.464021e-06 8.4950227e-07 -2.6002876e-06 2.365355e-06
0003f0 31 82 a4 36 48 0d 5e 38 ac b0 2d b8 8d 7d d6 38
       4.902737e-06 5.2941294e-05 -4.1410953e-05 0.00010227701
