lightning_logs/version_76/checkpoints/epoch=4.ckpt (torch_old, 211901 bytes, 18 tensors)

exp_avg f4 [128, 81]
000000 01 da 01 b4 20 2e 83 b5 1c cf b7 b1 6b 72 62 b3
       -1.209337e-07 -9.773685e-07 -5.3495466e-09 -5.2723788e-08
000010 00 00 00 00 00 00 00 00 bb 46 26 b2 ad 42 11 b1
       0.0 0.0 -9.678554e-09 -2.1138178e-09
000020 6a 9a 5f b1 8c 98 d9 2f 70 d3 e8 b3 e6 75 45 b2
       -3.2538545e-09 3.958046e-10 -1.0841802e-07 -1.1493716e-08
000030 6e be 3b b3 00 00 00 00 48 bf 13 ab 35 d2 9e 2f
       -4.3712525e-08 0.0 -5.2490347e-13 2.8889394e-10
000040 a4 95 9d 2e 6b 16 79 a9 e1 62 25 a7 28 0d 19 2d
       7.166115e-11 -5.530855e-14 -2.2951952e-15 8.699964e-12
000050 2e 30 41 aa 3a 40 ba a9 28 c8 83 ac 3d 0d 00 a9
       -1.7158559e-13 -8.271201e-14 -3.7454657e-12 -2.8433192e-14
000060 03 ad 33 b1 e9 ad a0 b1 00 00 00 00 52 12 50 b2
       -2.6146274e-09 -4.676384e-09 0.0 -1.2111359e-08
000070 00 00 00 00 a1 4a 47 b2 17 27 e3 b1 0b 59 17 ae
       0.0 -1.1600293e-08 -6.6110135e-09 -3.441251e-11
000080 b1 97 35 2f fd fe aa b0 12 92 cf af b8 19 9e b1
       1.6515746e-10 -1.24416e-09 -3.775687e-10 -4.601329e-09
000090 62 22 08 b2 58 f6 81 b1 62 e4 0d b2 b7 72 57 b0
       -7.92406e-09 -3.7824e-09 -8.259208e-09 -7.8379564e-10
0000a0 f5 4b 35 30 b8 66 f1 b0 65 61 2d b2 5d 8f 10 b0
       6.595536e-10 -1.7564252e-09 -1.009207e-08 -5.2590626e-10
0000b0 eb 81 6b b2 b7 7a d6 2d 3b ca 94 b2 8b 4f c2 b1
       -1.370834e-08 2.438348e-11 -1.7321431e-08 -5.655186e-09
0000c0 c3 4f 3c b2 3f fe ca 2f fb 8c 99 b1 2e af f8 b1
       -1.0961176e-08 3.692424e-10 -4.4689137e-09 -7.2376656e-09
0000d0 60 a3 b0 2d 09 e3 fe b1 db d8 42 b1 9e a9 da b4
       2.0081437e-11 -7.418184e-09 -2.8353984e-09 -4.0729077e-07
0000e0 79 60 7d b3 a5 2c fe b3 b6 f0 9c b4 01 e7 1b b5
       -5.8993894e-08 -1.18359175e-07 -2.9232405e-07 -5.8078155e-07
0000f0 20 26 01 b4 a0 aa f8 b3 41 4f a2 b4 ac 40 b4 b4
       -1.2027931e-07 -1.15794364e-07 -3.0232516e-07 -3.3574668e-07
000100 f4 d6 89 b1 56 c9 a8 b2 d2 d5 41 b4 9b b8 ca b3
       -4.011662e-09 -1.9649331e-08 -1.8052313e-07 -9.4399375e-08
000110 f0 b9 dd b4 33 11 bb b4 81 e6 67 b3 88 ca 4f 31
       -4.1299745e-07 -3.4843978e-07 -5.399352e-08 3.023759e-09
000120 20 a1 87 b4 29 99 f0 b4 61 e6 04 b5 5e 20 2d b4
       -2.5262943e-07 -4.4814922e-07 -4.950908e-07 -1.6123656e-07
000130 ed d6 90 b3 3c af ce b3 e0 b8 b6 b1 36 43 a3 b3
       -6.744617e-08 -9.6244975e-08 -5.317915e-09 -7.6025046e-08
000140 f4 c6 03 b2 44 4d 2a b4 5d 4f ab b5 f4 38 b9 b1
       -7.67044e-09 -1.5860593e-07 -1.2763591e-06 -5.3906835e-09
000150 9e 8e 8d b3 00 00 00 00 00 00 00 00 cb 72 71 b2
       -6.591766e-08 0.0 0.0 -1.4054147e-08
000160 db 37 4f b1 e3 d0 92 b1 cf 4f 73 2f 08 4a 08 b4
       -3.0154215e-09 -4.272907e-09 2.2129075e-10 -1.269292e-07
000170 20 66 7a b2 71 39 5c b3 00 00 00 00 d0 dc 67 aa
       -1.4575136e-08 -5.1274984e-08 0.0 -2.0593531e-13
000180 76 b4 bd 2f 73 59 f0 2e 12 17 8c a8 79 78 c9 a7
       3.4507125e-10 1.0929826e-10 -1.5553127e-14 -5.5919324e-15
000190 6c de c2 2e 18 b8 d1 a9 a2 dc d1 a9 7f f8 57 ac
       8.861609e-11 -9.3133997e-14 -9.319738e-14 -3.069128e-12
0001a0 8e d6 80 a8 5f a0 34 b1 ff 27 e8 b1 00 00 00 00
       -1.4303903e-14 -2.6284608e-09 -6.7566357e-09 0.0
0001b0 09 81 97 b2 00 00 00 00 aa ae 7b b2 84 92 0f b2
       -1.7637392e-08 0.0 -1.4649837e-08 -8.357009e-09
0001c0 47 a0 aa 2f a5 3c 1c 2f 99 a0 f2 b0 2c 3d 4d b0
       3.1036704e-10 1.4209663e-10 -1.7653462e-09 -7.4665496e-10
0001d0 e1 d8 c0 b1 e6 db 2d b2 83 40 8a b1 80 56 2f b2
       -5.6125917e-09 -1.01199245e-08 -4.0236627e-09 -1.02060085e-08
0001e0 ea 3a 81 b0 11 68 66 30 ef 96 0c b1 60 93 62 b2
       -9.40273e-10 8.38214e-10 -2.0458477e-09 -1.3188441e-08
0001f0 83 a6 11 b0 cc 4b 88 b2 0f a1 4c 2e 9b 31 ba b2
       -5.298732e-10 -1.5866952e-08 4.652728e-11 -2.1675808e-08
000200 00 5a da b1 0d 14 5d b2 44 e5 00 30 ef 4b a8 b1
       -6.354867e-09 -1.2868452e-08 4.6891935e-10 -4.898076e-09
000210 3f 7b 11 b2 51 43 89 2e b7 15 2c b2 2c c8 6a b1
       -8.468134e-09 6.2419965e-11 -1.0016655e-08 -3.4165266e-09
000220 d4 4f 0f b5 64 d7 95 b3 ad c7 12 b4 02 e0 c5 b4
       -5.3387816e-07 -6.9775325e-08 -1.3669951e-07 -3.6857097e-07
000230 d4 02 4e b5 17 cc 06 b4 11 d1 0e b4 a1 84 c8 b4
       -7.6745096e-07 -1.255397e-07 -1.3300838e-07 -3.7349403e-07
000240 6d 66 e1 b4 d3 55 c3 b1 c8 32 de b2 03 6d 86 b4
       -4.198404e-07 -5.685004e-09 -2.5867294e-08 -2.5038761e-07
000250 db 14 e3 b3 4d d3 09 b5 54 d9 d6 b4 82 e1 86 b3
       -1.0574305e-07 -5.134396e-07 -4.0018733e-07 -6.280881e-08
000260 48 e6 85 31 ca 36 b2 b4 2c 17 03 b5 66 22 20 b5
       3.8969894e-09 -3.3194948e-07 -4.883502e-07 -5.96547e-07
000270 f1 26 61 b4 01 0e ba b3 77 34 ee b3 4e f9 e5 b1
       -2.0968925e-07 -8.663847e-08 -1.1092282e-07 -6.69312e-09
000280 41 64 c4 b3 b6 d1 10 b2 61 c6 0f b4 0e 9d 6a b5
       -9.145197e-08 -8.429586e-09 -1.3390083e-07 -8.740034e-07
000290 45 b4 95 b1 01 a2 5c b3 00 00 00 00 00 00 00 00
       -4.356965e-09 -5.1370083e-08 0.0 0.0
0002a0 33 b4 2e b2 eb 5a 1a b1 e5 96 61 b1 7e 63 73 2f
       -1.0169106e-08 -2.246163e-09 -3.2827583e-09 2.2136068e-10
0002b0 55 44 d8 b3 a9 ef 35 b2 20 fb 15 b3 00 00 00 00
       -1.0070713e-07 -1.0590079e-08 -3.4920163e-08 0.0
0002c0 dc 81 19 aa 9d 41 de 2f f6 eb 8a 2e ee 6f 40 28
       -1.3634184e-13 4.0428186e-10 6.3174285e-11 1.0682412e-14
0002d0 b3 36 8c 29 3a 35 82 2e 78 73 a5 a9 45 73 43 29
       6.226738e-14 5.9211705e-11 -7.3475026e-14 4.339868e-14
0002e0 3a e1 40 ac 8e ad bc a9 9e 40 06 b1 0e a2 b6 b1
       -2.7409867e-12 -8.378984e-14 -1.9536297e-09 -5.3153206e-09
0002f0 00 00 00 00 9d fc 81 b2 00 00 00 00 70 32 3f b2
       0.0 -1.5132452e-08 0.0 -1.1129131e-08
000300 0e 7f fe b1 2f de e2 2f 45 3b 9f 2f 4f 48 b2 b0
       -7.4068174e-09 4.1267031e-10 2.8964045e-10 -1.2971756e-09
000310 38 8b 13 b0 ad 72 b1 b1 2d 87 04 b2 42 3c 41 b1
       -5.367613e-10 -5.164415e-09 -7.714147e-09 -2.811945e-09
000320 44 ef 00 b2 5e 86 51 b0 d6 a7 4d 30 2c 0c bf b0
       -7.504983e-09 -7.6224704e-10 7.4817075e-10 -1.3900538e-09
000330 79 17 1b b2 ee d5 cb af c1 31 4e b2 d2 ee 7c 2e
       -9.0275245e-09 -3.707749e-10 -1.2002091e-08 5.751028e-11
000340 1a f6 87 b2 67 d2 ac b1 ef c3 27 b2 19 a3 e2 2f
       -1.5827982e-08 -5.029779e-09 -9.7652295e-09 4.1225048e-10
000350 8d af 88 b1 4b 94 01 b2 27 e7 7e 2e 4c 81 0e b2
       -3.9780788e-09 -7.542506e-09 5.7958218e-11 -8.2948866e-09
000360 06 14 34 b1 1a ca c5 b4 92 70 76 b3 25 7e d9 b3
       -2.620483e-09 -3.6841158e-07 -5.737872e-08 -1.01277955e-07
000370 0d 59 98 b4 5c 3d 1a b5 2b a4 d2 b3 8e a3 c7 b3
       -2.8377e-07 -5.745876e-07 -9.808749e-08 -9.29641e-08
000380 56 9d a7 b4 ac 6d b3 b4 3e cb 94 b1 3f 89 aa b2
       -3.122065e-07 -3.3421145e-07 -4.330473e-09 -1.9853017e-08
000390 7f 1f 4e b4 e3 91 bd b3 7f f4 bc b4 d3 06 c0 b4
       -1.9196703e-07 -8.827535e-08 -3.5195623e-07 -3.5767752e-07
0003a0 94 68 42 b3 75 6a 7e 31 ef 3e 7a b4 f1 09 ca b4
       -4.5264258e-08 3.7022378e-09 -2.330596e-07 -3.7632665e-07
0003b0 a6 02 d7 b4 85 ff 1c b4 fa 5b 83 b3 a9 8a b2 b3
       -4.0048798e-07 -1.462159e-07 -6.116893e-08 -8.313993e-08
0003c0 70 d7 b8 b1 ff da ad b3 19 78 08 b2 50 c9 0c b4
       -5.379597e-09 -8.0957754e-08 -7.943549e-09 -1.3111753e-07
0003d0 c5 98 7d b5 f6 f1 8e b1 ab 72 5c b3 00 00 00 00
       -9.4472153e-07 -4.1602517e-09 -5.132703e-08 0.0
0003e0 00 00 00 00 10 f4 3c b2 0e 8c 0d b1 30 6f 2d b1
       0.0 -1.0998534e-08 -2.0597812e-09 -2.5238016e-09
0003f0 f5 59 04 30 c7 13 bc b3 3b cb 52 b2 0c b7 28 b3
       4.8149157e-10 -8.75803e-08 -1.2269818e-08 -3.928203e-08

exp_avg_sq f4 [128, 81]
000000 c9 6c 4a 2a fb 13 53 2d b9 cf b7 26 0f 5c a6 28
       1.7978947e-13 1.1998398e-11 1.2754479e-15 1.8469626e-14
000010 00 00 00 00 00 00 00 00 28 d2 2b 27 b3 2e b3 23
       0.0 0.0 2.3844943e-15 1.9426997e-17
000020 e1 d7 34 24 e6 fc 2d 22 04 03 c0 29 45 23 04 27
       3.9214135e-17 2.3579755e-18 8.527036e-14 1.83378e-15
000030 4f 49 62 29 00 00 00 00 ac 44 d4 22 79 2a af 22
       5.0245666e-14 0.0 5.7535424e-18 4.7478815e-18
000040 4f 92 fd 20 8f 07 08 20 f4 c7 d3 1b fe 65 85 20
       4.2956686e-19 1.1522149e-19 3.5036239e-22 2.259857e-19
000050 42 dd 64 21 da 1e 9e 20 9f 1f d9 21 50 7f c5 1e
       7.7542237e-19 2.6786657e-19 1.4712862e-18 2.0910842e-20
000060 47 ca c2 24 ab fc bc 24 00 00 00 00 7e 81 e6 25
       8.447676e-17 8.196004e-17 0.0 3.9986387e-16
000070 00 00 00 00 2e ea 05 27 ac 17 80 26 4e 5d 4f 25
       0.0 1.8584407e-15 8.8882e-16 1.7986001e-16
000080 6a a6 5d 25 89 43 5c 25 f3 3f 44 25 53 67 01 25
       1.9225078e-16 1.910484e-16 1.7021957e-16 1.1223974e-16
000090 be 96 87 26 3f 39 67 27 20 63 91 23 cb 18 c4 24
       9.408366e-16 3.2088723e-15 1.5762913e-17 8.504345e-17
0000a0 9c 71 c0 23 fa 49 50 26 dc d1 6c 26 e8 a7 38 25
       2.0864797e-17 7.2264754e-16 8.216336e-16 1.6016345e-16
0000b0 0b 66 17 27 4a f8 54 20 f4 ff 09 26 36 cc 4b 26
       2.1010777e-15 1.803925e-19 4.7878304e-16 7.070653e-16
0000c0 da 5d 1b 27 02 c0 3a 23 17 8a f3 24 f7 c8 20 26
       2.1561448e-15 1.01237394e-17 1.05618384e-16 5.578351e-16
0000d0 2c 6c 2b 23 5e 16 12 25 b0 d9 a1 23 d2 8c d8 2b
       9.292835e-18 1.267106e-16 1.754785e-17 1.5386809e-12
0000e0 e0 5f 59 29 09 6e 45 2a e2 a0 1a 2b c6 19 6a 2c
       4.8266838e-14 1.7535291e-13 5.493506e-13 3.3267707e-12
0000f0 d7 e6 39 2a 6e 37 16 2a 75 f4 a3 2b 34 47 83 2b
       1.651139e-13 1.3341907e-13 1.1649697e-12 9.327873e-13
000100 12 11 c9 25 e2 16 b1 28 ec c5 d3 2a e1 79 3f 2a
       3.487951e-16 1.9660871e-14 3.7618465e-13 1.7006493e-13
000110 d4 f9 e9 2b d1 4e b5 2b f4 e5 b1 29 f1 06 82 25
       1.6624987e-12 1.28827e-12 7.9002695e-14 2.255611e-16
000120 00 fd 90 2b fb e5 c2 2b f1 4b 3c 2c 87 f5 57 2a
       1.0302037e-12 1.3848361e-12 2.6758563e-12 1.918102e-13
000130 5f b3 02 29 2f c0 42 2a 48 65 3c 26 b5 63 be 29
       2.9021378e-14 1.7297338e-13 6.5362864e-16 8.4549914e-14
000140 20 25 d5 25 f6 08 27 2a c9 d0 32 2d 62 93 72 26
       3.6974767e-16 1.4835689e-13 1.0164488e-11 8.4160357e-16
000150 df 9b 41 28 00 00 00 00 00 00 00 00 a6 9e 0a 27
       1.0747451e-14 0.0 0.0 1.923735e-15
000160 01 ea c6 23 7d 2e 53 24 70 0b a6 21 20 7f 92 29
       2.1566308e-17 4.579271e-17 1.1251625e-18 6.505755e-14
000170 63 f3 d0 26 23 06 0c 29 00 00 00 00 82 e4 fa 21
       1.4498869e-15 3.1091567e-14 0.0 1.7001144e-18
000180 74 10 47 23 fb 13 42 20 12 39 14 1e 67 af 0e 1d
       1.0791296e-17 1.643905e-19 7.846857e-21 1.8884224e-21
000190 cb 59 fe 1f 8e b0 b1 20 10 2e b0 20 13 73 18 22
       1.07721734e-19 3.01018e-19 2.9846041e-19 2.0660761e-18
0001a0 bf 8a 08 1e e4 6b 82 24 dd 3e f4 24 00 00 00 00
       7.228472e-21 5.656129e-17 1.05924627e-16 0.0
0001b0 b2 f7 1a 26 00 00 00 00 c9 e0 ac 26 23 93 39 26
       5.3765173e-16 0.0 1.1995826e-15 6.4384176e-16
0001c0 90 aa 26 25 89 f2 8e 25 84 b0 e8 24 71 ef 29 25
       1.4455994e-16 2.4797422e-16 1.0091299e-16 1.4739539e-16
0001d0 06 fb e5 24 79 2c 6d 26 41 ab e1 26 fb 1d 95 23
       9.973817e-17 8.2286164e-16 1.565893e-15 1.616731e-17
0001e0 48 53 85 24 f2 79 92 23 6c d4 04 26 e2 ae 46 26
       5.782064e-17 1.5880998e-17 4.6084585e-16 6.893206e-16
0001f0 c1 a5 18 25 fb d4 cb 26 8e 49 c0 20 fb ad eb 25
       1.3240058e-16 1.4143683e-15 3.257474e-19 4.0883895e-16
000200 d5 8f 00 26 33 ec b8 26 b6 cd 3b 23 f0 41 9d 24
       4.460385e-16 1.2831587e-15 1.0180851e-17 6.81996e-17
000210 f0 41 a8 25 42 cd c5 22 d5 86 0a 25 7d b9 fb 23
       2.9188035e-16 5.3614282e-18 1.2015275e-16 2.7292032e-17
000220 98 16 ac 2b 4f eb e9 28 3a a9 0c 2a 26 65 16 2b
       1.2227606e-12 2.5970245e-14 1.249321e-13 5.3431077e-13
000230 87 65 32 2c 49 51 9a 29 84 ca b9 29 a7 37 70 2b
       2.535168e-12 6.8530746e-14 8.250781e-14 8.534236e-13
000240 ce 80 28 2b a7 55 ce 25 37 fa 53 28 bd c6 a5 2a
       5.986434e-13 3.5793344e-16 1.176711e-14 2.944779e-13
000250 d3 08 06 2a aa f9 50 2b 9c 28 48 2b 6b 70 63 29
       1.1904652e-13 7.4242923e-13 7.111063e-13 5.0501632e-14
000260 81 c5 83 25 da 19 20 2b 3e 49 5c 2b 80 f4 0f 2c
       2.2858711e-16 5.6879295e-13 7.8261345e-13 2.0457247e-12
000270 76 7f 25 2a cc a9 d8 28 ce 01 f9 29 5f 29 09 26
       1.4699166e-13 2.4054455e-14 1.10581344e-13 4.758749e-16
000280 55 7f 57 29 14 e1 50 25 83 b0 16 29 de e8 e1 2b
       4.7850033e-14 1.8117384e-16 3.345979e-14 1.6051845e-12
000290 45 02 c4 25 33 05 3d 27 00 00 00 00 00 00 00 00
       3.4002118e-16 2.6231837e-15 0.0 0.0
0002a0 70 08 46 26 77 17 3f 23 ab 72 b5 23 f8 e3 0a 22
       6.8706485e-16 1.03591e-17 1.9672623e-17 1.8823173e-18
0002b0 f8 1f 28 28 33 ba 98 25 06 76 ee 27 00 00 00 00
       9.3328055e-15 2.649397e-16 6.618623e-15 0.0
0002c0 2e b1 c6 20 a3 ea 31 22 ac 1d 64 20 e5 0a d6 1f
       3.3659752e-19 2.4112189e-18 1.9322169e-19 9.065055e-20
0002d0 77 da 54 1f 5e a2 64 20 98 42 e1 1f 50 23 de 1f
       4.5073456e-20 1.9366074e-19 9.5401377e-20 9.407908e-20
0002e0 76 6f e9 21 1c 97 09 20 26 d8 07 24 33 5b 8d 24
       1.5818198e-18 1.1654349e-19 2.9456544e-17 6.13035e-17
0002f0 00 00 00 00 99 f7 7d 25 00 00 00 00 59 e5 ca 25
       0.0 2.2028141e-16 0.0 3.5196826e-16
000300 e8 75 6d 25 4c fd 24 24 21 e1 fa 24 91 0c 85 24
       2.0596421e-16 3.5776382e-17 1.088016e-16 5.7700844e-17
000310 63 f1 f0 24 d2 35 9a 24 a9 0c 9e 25 22 24 47 26
       1.04492334e-16 6.687803e-17 2.741721e-16 6.9090963e-16
000320 ff 55 21 23 9f 7b c9 23 01 ae 6f 23 79 79 db 24
       8.746038e-18 2.184482e-17 1.2993063e-17 9.518189e-17
000330 f8 1d 8b 25 45 e6 b5 24 6c 68 1c 26 ed 6f 3f 20
       2.4132964e-16 7.888633e-17 5.426489e-16 1.6215362e-19
000340 86 3e 24 25 e9 b4 9d 25 67 51 09 26 cb aa ec 22
       1.4245916e-16 2.7357748e-16 4.7641744e-16 6.4148762e-18
000350 4a 26 59 24 35 d1 3a 25 78 55 27 22 aa 52 83 24
       4.7086806e-17 1.620381e-16 2.2677967e-18 5.695223e-17
000360 b5 80 43 23 41 0e 8f 2a 55 43 06 28 dc 4e c5 28
       1.0598226e-17 2.5411793e-13 7.4530946e-15 2.1905593e-14
000370 f1 f0 b5 29 1b 97 0d 2b 92 ca 8f 28 61 49 80 28
       8.0798114e-14 5.0302964e-13 1.596404e-14 1.4242678e-14
000380 27 c9 66 2a 5b 39 22 2a 13 38 48 25 34 14 4e 27
       2.0497892e-13 1.440839e-13 1.7366233e-16 2.8599195e-15
000390 1c c5 54 29 9f 08 a8 28 09 13 44 2a 2d 8e 61 2a
       4.724442e-14 1.8655486e-14 1.7414901e-13 2.0033342e-13
0003a0 46 45 0a 28 bd 9b 00 25 c3 cf 10 2a b3 99 39 2a
       7.67556e-15 1.1154996e-16 1.2861851e-13 1.6484626e-13
0003b0 46 e8 96 2a b8 1e ce 28 a1 2f 86 27 db 80 aa 28
       2.6806525e-13 2.2883916e-14 3.724411e-15 1.8929674e-14
0003c0 de 3d 16 25 1b 5a 85 28 3c 5e ec 24 01 86 df 28
       1.3031387e-16 1.4805043e-14 1.02508324e-16 2.4816088e-14
0003d0 dc 62 d6 2b 13 f8 fb 24 e7 0c 63 27 00 00 00 00
       1.5233054e-12 1.0927415e-16 3.1509573e-15 0.0
0003e0 00 00 00 00 57 78 04 26 98 1f 54 23 ab 26 96 23
       0.0 4.595979e-16 1.1499233e-17 1.6279409e-17
0003f0 9b 93 0d 21 f8 b6 0f 28 32 b7 c1 25 2d 47 db 27
       4.796801e-19 7.97777e-15 3.36043e-16 6.086188e-15

exp_avg f4 [128, 32]
000000 8d e7 a8 b1 08 32 c9 b1 f3 59 54 b1 9e 8f 06 31
       -4.915768e-09 -5.855558e-09 -3.090119e-09 1.9581203e-09
000010 1b 50 e9 b1 3e 23 db 31 6e 44 54 b1 ef b3 d0 b1
       -6.7902994e-09 6.3777454e-09 -3.0888958e-09 -6.074053e-09
000020 db 18 cf b1 cf cf cb 31 a0 98 b4 31 14 00 58 31
       -6.0273186e-09 5.9317027e-09 5.256041e-09 3.1432181e-09
000030 2c f2 ca b1 71 cc 70 b1 22 43 54 b1 ef c5 d0 b1
       -5.9065055e-09 -3.5040808e-09 -3.088822e-09 -6.076099e-09
000040 54 c5 9d b1 3d f8 9d b1 df 00 c5 b1 bd 3c 5b 30
       -4.591735e-09 -4.597523e-09 -5.7335536e-09 7.975805e-10
000050 12 70 98 b1 b7 f8 79 b1 56 2b 49 b1 fe 10 d4 b1
       -4.436523e-09 -3.6375647e-09 -2.9273983e-09 -6.171944e-09
000060 f0 bb e8 31 7e c1 c6 31 2a 84 d0 31 76 90 81 31
       6.7734547e-09 5.784556e-09 6.068622e-09 3.7708174e-09
000070 f5 bd 71 b1 b8 e4 d3 b1 1a 21 69 b1 6c 72 da b1
       -3.5178094e-09 -6.1669105e-09 -3.3924779e-09 -6.3576433e-09
000080 89 de 4a b1 a4 f2 76 b1 43 2b 17 b1 d4 8b ca 30
       -2.9521365e-09 -3.5935637e-09 -2.1997983e-09 1.4737176e-09
000090 62 d8 95 b1 58 01 8a 31 9c 97 fa b0 3a d6 75 b1
       -4.3610706e-09 4.0164814e-09 -1.8232984e-09 -3.5773966e-09
0000a0 62 c5 79 b1 fb f1 83 31 43 a2 61 31 f9 09 03 31
       -3.6346468e-09 3.840112e-09 3.2834044e-09 1.9068678e-09
0000b0 55 76 6a b1 6f d2 0b b1 9a 8c d0 b0 e0 6b 79 b1
       -3.4118746e-09 -2.034678e-09 -1.5173953e-09 -3.6295589e-09
0000c0 5e cd 44 b1 88 9d 3d b1 4c ea 5e b1 a5 34 23 30
       -2.8638492e-09 -2.7592666e-09 -3.2438434e-09 5.9373867e-10
0000d0 d3 ca 2b b1 b8 fe 1f b1 86 b1 e4 b0 b5 95 79 b1
       -2.4999067e-09 -2.3282336e-09 -1.6639639e-09 -3.6319368e-09
0000e0 ea ba 93 31 8f 8a 68 31 4f 69 80 31 de 1f 1a 31
       4.2995127e-09 3.3839205e-09 3.7372625e-09 2.2428064e-09
0000f0 d6 af 08 b1 80 2d 8a b1 7b 9f 00 b1 e3 f8 86 b1
       -1.9890556e-09 -4.0215014e-09 -1.8717106e-09 -3.9282084e-09
000100 fe fa 97 b1 8e 1e 9f b1 da 62 50 b1 06 fb d2 30
       -4.423213e-09 -4.6309827e-09 -3.0324174e-09 1.5350856e-09
000110 59 f0 a9 b1 d3 b0 a4 31 78 ea 7d b1 b0 62 a3 b1
       -4.9458717e-09 4.793131e-09 -3.6949626e-09 -4.755144e-09
000120 47 4b a1 b1 99 4a 9d 31 d8 c6 91 31 48 72 24 31
       -4.6942747e-09 4.577782e-09 4.2426613e-09 2.3930102e-09
000130 22 96 a3 b1 28 c6 82 b1 4d 7c 71 b1 5a c8 a3 b1
       -4.7609925e-09 -3.8060257e-09 -3.5140773e-09 -4.7667017e-09
000140 6c 68 86 b1 0e a0 8e b1 cf 22 9f b1 bb 45 d9 2f
       -3.9117847e-09 -4.15094e-09 -4.6314663e-09 3.9521617e-10
000150 b1 62 8c b1 0b 5d 81 b1 8c fb 70 b1 d7 e0 a3 b1
       -4.085756e-09 -3.764972e-09 -3.5067584e-09 -4.7694857e-09
000160 d3 31 ac 31 33 2a 9f 31 8c dd a2 31 9d 60 86 31
       5.011523e-09 4.6323065e-09 4.7400075e-09 3.910897e-09
000170 f4 8f 84 b1 6e 79 a4 b1 40 59 7d b1 3e 9e a8 b1
       -3.858071e-09 -4.786833e-09 -3.6867078e-09 -4.9074336e-09
000180 cc 33 be b1 62 4e c3 b1 73 ff 9c b1 15 a2 33 31
       -5.5356164e-09 -5.684158e-09 -4.5692388e-09 2.6140061e-09
000190 c0 65 cf b1 3e 2d cb 31 6a 51 a7 b1 d8 e9 c4 b1
       -6.0360605e-09 5.913221e-09 -4.8695954e-09 -5.7309357e-09
0001a0 b3 c5 c4 b1 44 84 c3 31 94 ee bb 31 72 99 50 31
       -5.7268266e-09 5.690284e-09 5.4695395e-09 3.0355207e-09
0001b0 3d 5d c6 b1 b4 9a a8 b1 01 37 91 b1 fa 9a c6 b1
       -5.7731584e-09 -4.9070312e-09 -4.2263086e-09 -5.7801772e-09
0001c0 63 ef ab b1 88 b0 ba b1 a2 32 be b1 4d 04 20 30
       -5.00397e-09 -5.4333817e-09 -5.535484e-09 5.821377e-10
0001d0 35 0e a8 b1 29 12 b1 b1 69 9f 9f b1 e7 bf c7 b1
       -4.8910587e-09 -5.1534426e-09 -4.645632e-09 -5.813479e-09
0001e0 aa 53 d1 31 c3 3c c0 31 4b 3f c7 31 65 f7 b0 31
       6.092212e-09 5.5948433e-09 5.798858e-09 5.1503997e-09
0001f0 ad c2 a9 b1 b5 7e cb b1 4c d5 a1 b1 64 32 cd b1
       -4.9406794e-09 -5.9224825e-09 -4.7099658e-09 -5.972014e-09
000200 32 19 9a b0 1a 86 bf b0 da 84 73 b0 41 64 19 30
       -1.1212136e-09 -1.3935193e-09 -8.859168e-10 5.5803545e-10
000210 56 97 eb b0 ef 0b d3 30 12 fe 42 b0 f9 d0 b3 b0
       -1.7141513e-09 1.5355662e-09 -7.0937844e-10 -1.3083358e-09
000220 ff 16 ba b0 59 c2 d3 30 a7 f7 a7 30 27 2b 42 30
       -1.3539817e-09 1.5407507e-09 1.2221236e-09 7.063811e-10
000230 b4 83 aa b0 02 8d 5c b0 13 1d 0e b0 da a4 ba b0
       -1.240656e-09 -8.023592e-10 -5.1700616e-10 -1.3580135e-09
000240 f8 07 98 b0 ef ee 8d b0 ba 84 9d b0 b1 29 85 2f
       -1.106172e-09 -1.0327009e-09 -1.1460977e-09 2.4222183e-10
000250 65 df 80 b0 41 00 79 b0 0f 79 28 b0 ae a7 b2 b0
       -9.376718e-10 -9.0586033e-10 -6.129008e-10 -1.2998862e-09
000260 79 03 e9 30 85 eb a9 30 d7 56 c6 30 c2 32 68 30
       1.6953968e-09 1.2363307e-09 1.4431077e-09 8.447324e-10
000270 5c bc 57 b0 71 eb e2 b0 0f 78 43 b0 dc ca d0 b0
       -7.848422e-10 -1.6510581e-09 -7.11112e-10 -1.5191648e-09
000280 fd 29 b0 b0 20 ee d5 b0 39 b9 91 b0 ac 80 31 30
       -1.2817619e-09 -1.5565469e-09 -1.0602782e-09 6.457508e-10
000290 13 26 02 b1 34 8c e9 30 97 20 64 b0 1c 58 c9 b0
       -1.8939132e-09 1.6992829e-09 -8.299223e-10 -1.4649717e-09
0002a0 7b 4d cf b0 db a3 eb 30 0a c5 be 30 70 95 65 30
       -1.5083254e-09 1.7145071e-09 1.3880321e-09 8.352208e-10
0002b0 f5 11 c0 b0 b6 7c 82 b0 ae 69 24 b0 00 35 d1 b0
       -1.3974942e-09 -9.49419e-10 -5.981303e-10 -1.5221815e-09
0002c0 4b d6 ac b0 96 ff a6 b0 5e 9c b0 b0 23 3b 99 2f
       -1.2575553e-09 -1.2150732e-09 -1.2850128e-09 2.7872557e-10
0002d0 5c 04 93 b0 23 dc 93 b0 11 46 4a b0 82 c7 c9 b0
       -1.0696897e-09 -1.0758224e-09 -7.358674e-10 -1.4681378e-09
0002e0 5b ae 00 31 e7 d9 be 30 b0 60 dd 30 71 5c 89 30
       1.872556e-09 1.3886251e-09 1.6107347e-09 9.994335e-10
0002f0 74 99 7e b0 26 21 fc b0 58 f4 67 b0 95 81 e9 b0
       -9.262273e-10 -1.8344835e-09 -8.4384544e-10 -1.6989811e-09
000300 71 09 91 b1 a6 37 a5 b1 09 f4 4a b1 ae ac f9 30
       -4.221129e-09 -4.8084585e-09 -2.9533587e-09 1.8166213e-09
000310 13 9c ba b1 81 c9 b1 31 23 d8 43 b1 2f 91 aa b1
       -5.431056e-09 5.1742863e-09 -2.8499094e-09 -4.9641566e-09
000320 8b c6 a9 b1 1b 7d a5 31 3d b5 98 31 87 b2 4b 31
       -4.941119e-09 4.816355e-09 4.4443866e-09 2.964187e-09
000330 35 5b a9 b1 b1 2d 5f b1 10 39 3e b1 b0 6f ab b1
       -4.9289164e-09 -3.2476744e-09 -2.7681075e-09 -4.9894524e-09
000340 a6 32 86 b1 28 65 8e b1 54 07 a2 b1 a8 16 4b 30
       -3.9056713e-09 -4.144244e-09 -4.7156536e-09 7.3883166e-10
000350 34 4e 81 b1 80 4b 69 b1 3b 5a 40 b1 d0 0a af b1
       -3.763285e-09 -3.394888e-09 -2.7990967e-09 -5.0943996e-09
000360 70 1a bb 31 8a dc a2 31 c2 a1 aa 31 0c e7 6d 31
       5.445422e-09 4.739893e-09 4.966041e-09 3.4619374e-09
000370 30 1f 5f b1 2a ad ac b1 c9 6a 59 b1 cc 85 b2 b1
       -3.24685e-09 -5.0255453e-09 -3.1638356e-09 -5.1956928e-09
000380 2b 83 25 b1 1a 34 48 b1 fc ac 06 b1 26 a9 b5 30
       -2.408522e-09 -2.9133447e-09 -1.9597897e-09 1.3217558e-09
000390 7c f4 73 b1 1d b7 60 31 51 a9 d1 b0 06 9d 42 b1
       -3.5500127e-09 3.2700378e-09 -1.5254874e-09 -2.8319973e-09
0003a0 1a 63 48 b1 fe f8 58 31 bc 10 39 31 88 f8 dd 30
       -2.9160163e-09 3.1573673e-09 2.6930556e-09 1.6150503e-09
0003b0 05 e9 3a b1 11 30 ea b0 3e 3d a1 b0 0f 7f 47 b1
       -2.7199019e-09 -1.7039402e-09 -1.1731698e-09 -2.9030536e-09
0003c0 4f 6f 22 b1 6b 37 1d b1 33 8e 2e b1 57 3c 0f 30
       -2.3637374e-09 -2.2878008e-09 -2.5401163e-09 5.2108845e-10
0003d0 a0 ef 07 b1 45 ab 09 b1 ee b0 bf b0 36 2c 46 b1
       -1.9781297e-09 -2.003348e-09 -1.3947365e-09 -2.8837923e-09
0003e0 1d 75 70 31 bf e8 37 31 cb 9d 4f 31 6b f3 00 31
       3.4991168e-09 2.6762306e-09 3.021216e-09 1.8764819e-09
0003f0 f1 05 e2 b0 90 1f 64 b1 f0 e9 d3 b0 ba fc 59 b1
       -1.6445353e-09 -3.3196308e-09 -1.541876e-09 -3.1721314e-09

exp_avg_sq f4 [128, 32]
000000 dd 63 af 2e 81 eb 13 2f b8 68 6e 2c 6b 59 9e 2b
       7.975818e-11 1.345324e-10 3.3879965e-12 1.1251394e-12
000010 cd ad 4c 2f 38 27 2f 2f 5e 6e a6 2d 48 df 38 2f
       1.8615438e-10 1.593009e-10 1.8921028e-11 1.6814028e-10
000020 8a 73 27 2f 2b 42 09 2f e6 dd bc 2e d3 ac 8e 2d
       1.5229609e-10 1.2483585e-10 8.588667e-11 1.622028e-11
000030 db 9f 24 2f f1 53 f4 2d f9 5b 3d 2e 7c 55 2e 2f
       1.4972505e-10 2.7776866e-11 4.3055313e-11 1.5855578e-10
000040 1e 46 8a 2e 8d d3 5c 2e e0 4c 31 2f 92 28 93 2a
       6.287969e-11 5.0210103e-11 1.6125368e-10 2.6140597e-13
000050 82 25 bb 2e 06 31 93 2d cc 24 8b 2d 4d 73 36 2f
       8.510438e-11 1.6733736e-11 1.5818812e-11 1.6593767e-10
000060 75 2f 4b 2f 79 70 28 2f 93 8f 20 2f 5d c5 02 2e
       1.8479603e-10 1.5319469e-10 1.4602923e-10 2.973387e-11
000070 47 88 0b 2e 8a a8 0e 2f bf 9b 06 2e 2d 40 31 2f
       3.172598e-11 1.2974702e-10 3.0606403e-11 1.6120856e-10
000080 b6 97 db 2d d5 9d 5c 2e 7f d0 ee 2a 90 6b 79 2b
       2.496479e-11 5.016239e-11 4.2421966e-13 8.8611844e-13
000090 da 74 ba 2e 43 d2 99 2e 45 c0 63 2c 2a 35 83 2e
       8.479058e-11 6.9949845e-11 3.2365371e-12 5.966634e-11
0000a0 bd 32 7b 2e b2 06 6f 2e 17 82 0a 2e de ba 33 2c
       5.7115857e-11 5.4348255e-11 3.149311e-11 2.5541162e-12
0000b0 5a e4 55 2e 02 bf 8a 2c 76 44 15 2d ef c4 76 2e
       4.863341e-11 3.943402e-12 8.484871e-12 5.6108836e-11
0000c0 57 53 bd 2d 84 76 33 2d ce c0 69 2e 93 e6 b6 29
       2.1523823e-11 1.0201288e-11 5.314931e-11 8.122422e-14
0000d0 6f 0d cd 2d 40 55 57 2c a6 d6 fb 2b 2f bd 77 2e
       2.3311767e-11 3.060066e-12 1.78942e-12 5.6329327e-11
0000e0 a8 70 b1 2e 1e 50 69 2e d3 f1 74 2e ad 5a c7 2c
       8.06904e-11 5.3049225e-11 5.569396e-11 5.665987e-12
0000f0 96 9e 99 2c cc fe 77 2e f9 3e 86 2c 36 3c 86 2e
       4.366128e-12 5.6387603e-11 3.8155004e-12 6.10431e-11
000100 fc ad 02 2e b7 38 0a 2e c8 bd 24 2d d6 f2 03 2c
       2.9713107e-11 3.142794e-11 9.364461e-12 1.875102e-12
000110 3d ae 16 2e c5 df 10 2e 84 1f c6 2d bd 9c 1b 2e
       3.4260806e-11 3.2940557e-11 2.252399e-11 3.538213e-11
000120 29 a2 12 2e 63 68 fb 2d 94 2c d7 2d e1 13 05 2d
       3.3340584e-11 2.8581753e-11 2.4462467e-11 7.564589e-12
000130 c6 36 1d 2e 73 11 c2 2d 9f d6 d4 2d f8 10 18 2e
       3.5746316e-11 2.2062996e-11 2.419692e-11 3.457587e-11
000140 a2 3d bc 2d ec 94 ca 2d b1 29 1c 2e 79 fa 9d 29
       2.1400496e-11 2.3030876e-11 3.5507323e-11 7.015651e-14
000150 a2 91 f7 2d 0a 68 a5 2d ca 30 b2 2d 01 a7 17 2e
       2.8145323e-11 1.880453e-11 2.0257924e-11 3.4481754e-11
000160 a1 ce 1d 2e 86 28 15 2e be 0c 11 2e 2b bb c6 2d
       3.588119e-11 3.391467e-11 3.29805e-11 2.2593113e-11
000170 43 4f cd 2d db 76 08 2e 66 20 be 2d ae 52 19 2e
       2.3341001e-11 3.1028385e-11 2.1614887e-11 3.4861607e-11
000180 5f a3 15 2e d6 c8 16 2e fa 76 82 2d 94 69 88 2c
       3.402378e-11 3.428443e-11 1.4832125e-11 3.877074e-12
000190 bc d0 1f 2e ce 89 1c 2e 6f 8a 00 2e ce f0 23 2e
       3.6337808e-11 3.559269e-11 2.9226784e-11 3.7275787e-11
0001a0 9d cc 1c 2e 4c 7c 0c 2e 27 07 fb 2d 26 ad ed 2c
       3.5652026e-11 3.1942712e-11 2.8538573e-11 6.7551685e-12
0001b0 a6 d8 25 2e 17 4d ed 2d 78 c6 f0 2d 55 76 21 2e
       3.770908e-11 2.6978015e-11 2.7372979e-11 3.671226e-11
0001c0 0c fa dd 2d 92 72 f1 2d 9e 5b 24 2e e4 85 7b 29
       2.5235834e-11 2.7449407e-11 3.7370655e-11 5.5849327e-14
0001d0 76 c6 06 2e 69 22 da 2d 40 55 e3 2d 39 2f 20 2e
       3.064434e-11 2.4799012e-11 2.584477e-11 3.642173e-11
0001e0 ab 72 26 2e 48 79 1f 2e 32 2b 1c 2e 3d aa f8 2d
       3.7845876e-11 3.6260134e-11 3.550866e-11 2.8269937e-11
0001f0 b4 42 f9 2d 98 6a 16 2e fc 9c e3 2d 7e 87 22 2e
       2.8337645e-11 3.4200726e-11 2.5876627e-11 3.6954877e-11
000200 99 8d 52 2c 7f 5b f6 2c a5 ca c1 28 4b 8e 4a 2a
       2.9921397e-12 7.0018986e-12 2.1515187e-14 1.7990572e-13
000210 e3 d8 6e 2d b2 d2 38 2d 89 5b cb 2a b1 28 f2 2c
       1.3576892e-11 1.0505973e-11 3.612356e-13 6.8825713e-12
000220 ae 67 fe 2c 19 02 1a 2d 8a 62 88 2c df fe 36 2a
       7.230625e-12 8.754352e-12 3.8762925e-12 1.6253273e-13
000230 71 4d c1 2c e1 00 ad 2a 4f 71 34 2b 09 08 f2 2c
       5.4939876e-12 3.0731583e-13 6.4106093e-13 6.8789458e-12
000240 78 45 47 2c 43 d4 57 2b 9a ba c3 2c 60 df e8 28
       2.8318164e-12 7.6677916e-13 5.5629503e-12 2.5854048e-14
000250 a3 b5 31 2c f0 69 8c 2a 79 88 ae 29 d4 25 cc 2c
       2.5254041e-12 2.4942505e-13 7.7508265e-14 5.8022285e-12
000260 86 80 63 2d 98 e9 d5 2c 53 71 09 2d e8 bf eb 2a
       1.2931994e-11 6.0797582e-12 7.812711e-12 4.1877547e-13
000270 da 0e e5 2a 01 50 2e 2d 04 d1 7c 2a 24 61 16 2d
       4.0688877e-13 9.908519e-12 2.2454613e-13 8.548082e-12
000280 1b 8d 35 2c 95 28 d0 2c 6b 5d f1 28 fb f2 27 2a
       2.5799976e-12 5.916221e-12 2.6796888e-14 1.491688e-13
000290 e3 23 49 2d 21 67 1c 2d e2 26 b0 2a 0c a8 cf 2c
       1.1433496e-11 8.8904726e-12 3.129086e-13 5.901951e-12
0002a0 8a d4 d7 2c 6d 5d 01 2d fd 00 6a 2c 71 03 2b 2a
       6.134264e-12 7.353546e-12 3.3253949e-12 1.5189045e-13
0002b0 71 20 a6 2c 32 0e 9e 2a 7d f1 1e 2b 71 95 ce 2c
       4.7216055e-12 2.8076288e-13 5.646801e-13 5.8714635e-12
0002c0 f7 83 29 2c 25 5a 42 2b c4 a8 a8 2c 77 36 bd 28
       2.40896e-12 6.9047746e-13 4.793584e-12 2.1006836e-14
0002d0 a7 20 1a 2c 58 4d 82 2a a8 94 b0 29 d7 66 b0 2c
       2.1902842e-12 2.3146307e-13 7.841758e-14 5.0136384e-12
0002e0 74 61 3f 2d 1f c6 b7 2c 9b cf e8 2c ae 7e d6 2a
       1.0878732e-11 5.2231687e-12 6.6168854e-12 3.8101938e-13
0002f0 65 4a cc 2a 77 84 11 2d de 4d 6f 2a 6c 04 ff 2c
       3.62893e-13 8.271709e-12 2.125448e-13 7.248027e-12
000300 d2 b5 52 2e 11 78 9a 2e da 1c 59 2c ca 19 d3 2a
       4.790996e-11 7.024437e-11 3.085357e-12 3.7499024e-13
000310 b8 54 be 2e 8b 6c a8 2e e2 57 8c 2d d8 41 c0 2e
       8.655249e-11 7.6590366e-11 1.5955185e-11 8.742845e-11
000320 e5 80 ac 2e d2 1c 85 2e 35 a9 47 2e 96 18 69 2d
       7.844551e-11 6.053259e-11 4.5397647e-11 1.3249976e-11
000330 20 92 b7 2e 10 50 cc 2d 68 37 0d 2e 98 5c b7 2e
       8.3478335e-11 2.322767e-11 3.21089e-11 8.3383245e-11
000340 79 e9 1b 2e d2 ad 18 2e 94 6d bf 2e bf 87 5e 2a
       3.5450285e-11 3.4715182e-11 8.7051394e-11 1.9764657e-13
000350 9c 10 68 2e 86 b8 6f 2d 1a b3 80 2d cb bf be 2e
       5.2765445e-11 1.36265495e-11 1.4631452e-11 8.674269e-11
000360 72 b6 c3 2e 06 15 b2 2e 2d c2 a5 2e cd 57 c7 2d
       8.899982e-11 8.0982374e-11 7.537824e-11 2.2662672e-11
000370 bf f3 eb 2d a7 30 8e 2e a5 3e e2 2d 62 52 b7 2e
       2.6824652e-11 6.466055e-11 2.5721045e-11 8.3365106e-11
000380 0c 05 7f 2d 33 d0 05 2e aa 49 40 2a f9 62 3b 2b
       1.44961924e-11 3.0425617e-11 1.7078583e-13 6.65731e-13
000390 6a 96 6f 2e 04 25 45 2e d7 18 e2 2b 08 5a 19 2e
       5.4475903e-11 4.482549e-11 1.606516e-12 3.4868136e-11
0003a0 ce ac 17 2e 6e 06 18 2e 70 07 a7 2d 40 f5 a6 2b
       3.4486906e-11 3.456651e-11 1.8989005e-11 1.186308e-12
0003b0 ab 02 f8 2d 12 53 f9 2b 97 39 97 2c 2b 0c 11 2e
       2.819552e-11 1.7715571e-12 4.298072e-12 3.297999e-11
0003c0 00 40 62 2d 56 3c b0 2c 8d aa 05 2e 14 96 52 29
       1.28608235e-11 5.0089195e-12 3.039218e-11 4.675954e-14
0003d0 84 61 61 2d 24 87 d9 2b 81 15 48 2b 4a 97 0d 2e
       1.2811422e-11 1.5456286e-12 7.1084116e-13 3.219406e-11
0003e0 b1 48 62 2e 3c 9b 07 2e e9 53 15 2e 7b 19 46 2c
       5.1451014e-11 3.0833322e-11 3.3953205e-11 2.8151637e-12
0003f0 52 1a 0d 2c f2 f3 1e 2e bb d4 dc 2b 62 32 23 2e
       2.0051916e-12 3.6141708e-11 1.5690985e-12 3.7106658e-11

exp_avg f4 [128]
000000 68 30 db b6 cd 39 08 b7 2c 9f ca b6 a8 91 d1 b6
       -6.532344e-06 -8.1196895e-06 -6.038599e-06 -6.245642e-06
000010 04 73 da b6 05 8b d0 b6 d5 ce bf b6 ad 6a f9 b6
       -6.510296e-06 -6.215067e-06 -5.716322e-06 -7.433197e-06
000020 2b 76 99 b6 cf c3 9c b6 10 7e ce b6 13 59 a8 b6
       -4.573512e-06 -4.6719574e-06 -6.153954e-06 -5.0171598e-06
000030 0a 02 fc b6 1e 38 a6 b6 d5 11 06 b6 51 b4 15 b7
       -7.5104226e-06 -4.9537184e-06 -1.9977936e-06 -8.923075e-06
000040 de 3f c8 b6 1f 37 cd b6 96 7d b1 b6 58 26 23 b6
       -5.9678996e-06 -6.115893e-06 -5.289631e-06 -2.4311212e-06
000050 08 f6 44 b6 af ac 17 b7 6e ce 83 b6 79 80 fe b6
       -2.9349485e-06 -9.040507e-06 -3.928136e-06 -7.584746e-06
000060 24 2d f1 b6 51 94 f1 b6 c0 64 c8 b6 3a b6 a7 b6
       -7.1876148e-06 -7.199626e-06 -5.9721933e-06 -4.998202e-06
000070 68 ad b7 b6 bb b2 14 b7 01 10 7d b6 f8 28 10 b7
       -5.474012e-06 -8.863101e-06 -3.7709253e-06 -8.592608e-06
000080 9f dc 3c b2 f1 4c 26 b2 d8 94 23 b2 58 c1 02 b2
       -1.0993204e-08 -9.679966e-09 -9.521692e-09 -7.610957e-09
000090 f7 cb d0 b1 27 7c c9 b1 f6 ae df b1 f9 c7 0f b2
       -6.076785e-09 -5.8639844e-09 -6.510045e-09 -8.369164e-09
0000a0 9e 31 99 b1 2a b1 ab b1 02 67 eb b1 20 57 d8 b3
       -4.458527e-09 -4.9968962e-09 -6.851111e-09 -1.0074132e-07
0000b0 cd f9 47 b2 b3 72 e5 b1 50 3b 1d b1 31 fa 1d b2
       -1.1640123e-08 -6.677817e-09 -2.2880222e-09 -9.19549e-09
0000c0 f3 e4 d7 b1 b5 bb 1f b2 7e 3e fc b1 57 d9 df ad
       -6.283352e-09 -9.297698e-09 -7.34127e-09 -2.5448683e-11
0000d0 19 d5 80 b1 0e 50 13 b2 08 d9 80 b1 67 45 01 b2
       -3.7495167e-09 -8.5747285e-09 -3.749964e-09 -7.5245685e-09
0000e0 8c 52 ea b1 44 f7 21 b2 f2 05 02 b2 1d ca de b1
       -6.819681e-09 -9.427655e-09 -7.568348e-09 -6.484028e-09
0000f0 81 29 f9 b1 6f 63 30 b2 d2 79 62 b1 ca 8c 3f b2
       -7.2515722e-09 -1.0267157e-08 -3.2956575e-09 -1.1149675e-08
000100 b4 32 65 b7 6a c6 61 b7 41 5a 2d b7 70 34 79 37
       -1.3661269e-05 -1.3457242e-05 -1.0332617e-05 1.4853766e-05
000110 26 71 43 b7 3a f8 6a 37 46 25 82 b7 f6 d9 8c b7
       -1.164925e-05 1.4005282e-05 -1.5514564e-05 -1.6790797e-05
000120 ff 9c 4b b7 27 b7 21 37 92 f8 5b 37 67 11 00 37
       -1.2136296e-05 9.638991e-06 1.3111292e-05 7.633446e-06
000130 44 73 a0 b7 60 56 8f b7 31 51 de b6 87 14 9e b7
       -1.9127161e-05 -1.708715e-05 -6.6255675e-06 -1.8844627e-05
000140 42 2c 4a b7 77 6e c6 b7 b5 01 71 b7 75 dd 06 37
       -1.2050443e-05 -2.3654879e-05 -1.4365117e-05 8.038584e-06
000150 4d 59 fe b6 f6 ba 5b b7 4d 7b 52 b7 0f 8e 9b b7
       -7.580186e-06 -1.3096947e-05 -1.2545684e-05 -1.8543591e-05
000160 bb eb 32 37 8b ef 85 37 12 1f 65 37 3b 2a 63 37
       1.0664512e-05 1.5966381e-05 1.3656698e-05 1.3540087e-05
000170 6d 15 86 b7 94 7c 34 b7 08 fa 3a b7 da 2e 90 b7
       -1.5984022e-05 -1.0757842e-05 -1.1144679e-05 -1.7187955e-05
000180 c1 8b f4 b6 e5 c8 1c b7 8f ce 3f b7 d3 1c fc b6
       -7.288036e-06 -9.345099e-06 -1.143258e-05 -7.513541e-06
000190 24 5e 22 b7 ed 41 37 b7 26 d5 c2 b6 89 8f 21 b7
       -9.677871e-06 -1.09229995e-05 -5.8064643e-06 -9.629767e-06
0001a0 7d 87 ed b6 4a ea 02 b7 28 95 30 b7 33 02 cb b6
       -7.0789233e-06 -7.8031535e-06 -1.0525146e-05 -6.0501275e-06
0001b0 f7 c0 ed b6 a0 c9 cb b6 d2 a8 7a b6 1c 7c 24 b7
       -7.0856145e-06 -6.0733437e-06 -3.735117e-06 -9.804058e-06
0001c0 5d 46 0c b7 23 f2 15 b7 1d f3 ef b6 7b 70 10 b6
       -8.361033e-06 -8.937469e-06 -7.151057e-06 -2.1523144e-06
0001d0 08 a1 aa b6 5d dc 1c b7 e8 f5 de b6 88 32 09 b7
       -5.0851413e-06 -9.349632e-06 -6.644743e-06 -8.177602e-06
0001e0 8d bf 3e b7 70 23 17 b7 76 10 11 b7 03 6a 01 b7
       -1.1369481e-05 -9.008552e-06 -8.646506e-06 -7.713682e-06
0001f0 4f 6b cf b6 da 0f 51 b7 c0 27 d5 b6 24 6a 3a b7
       -6.181573e-06 -1.24610615e-05 -6.352522e-06 -1.1111177e-05

exp_avg_sq f4 [128]
000000 c6 57 fc 2f 9d 49 ae 2f a0 98 80 2e 0f 80 5b 2e
       4.59009e-10 3.170272e-10 5.847878e-11 4.9908574e-11
000010 e4 8a d3 2e 33 4a ac 2e b6 c0 3b 2f ac 6e 74 2f
       9.619841e-11 7.834835e-11 1.7076016e-10 2.2230989e-10
000020 ab 14 45 2e da 36 99 2e 59 9f b9 2e dd 41 f7 2d
       4.481097e-11 6.967378e-11 8.441132e-11 2.8109898e-11
000030 ce 6f f5 2f 7a 87 09 2f 15 10 90 2e 9d 5a aa 2f
       4.4644682e-10 1.2508208e-10 6.5512186e-11 3.0987204e-10
000040 8f b5 0d 2f 32 90 af 2e ca 5b 81 2f 84 ba 67 2c
       1.2888378e-10 7.983693e-11 2.3530183e-10 3.2930611e-12
000050 e1 96 bb 2e 60 21 35 2f 8f 30 dc 2d 96 e0 21 2f
       8.530577e-11 1.6473711e-10 2.5032669e-11 1.4722654e-10
000060 b4 73 2f 2f 13 03 a6 2f 2d 3c 3c 2f 36 c6 b8 2e
       1.5957263e-10 3.0197408e-10 1.7119879e-10 8.4025606e-11
000070 de 73 27 2f 74 ed 9c 2f e0 a7 27 2e 01 8e fb 2f
       1.5229726e-10 2.8544955e-10 3.8120507e-11 4.5757534e-10
000080 19 29 06 30 f6 f4 15 30 72 71 9d 2e 6e 06 6d 2e
       4.880732e-10 5.4553995e-10 7.159685e-11 5.3893272e-11
000090 48 e7 7b 2f 16 ca 2a 2f 46 e5 01 2f dd 18 08 30
       2.2910485e-10 1.5533205e-10 1.1813936e-10 4.9511845e-10
0000a0 66 10 2e 2f 83 84 55 2f 55 27 29 2f 86 47 8a 2d
       1.5831034e-10 1.9419315e-10 1.5384434e-10 1.5720546e-11
0000b0 e7 b3 47 30 42 09 53 2f 2b 35 9b 2e 0c 0f 2e 30
       7.2651435e-10 1.9193627e-10 7.0580285e-11 6.3322214e-10
0000c0 13 d0 29 2f e2 35 83 2f 21 3c e4 2f 96 14 a8 2b
       1.5444383e-10 2.3867047e-10 4.1515683e-10 1.1942832e-12
0000d0 d6 5b 2d 2f 79 30 d9 2e d6 52 98 2d 8b 69 b0 2f
       1.5766885e-10 9.876628e-11 1.7317186e-11 3.2089206e-10
0000e0 d9 ec 98 2f 3f ad 2b 30 86 bb c5 2f f1 8b 03 2f
       2.781693e-10 6.2455635e-10 3.5967335e-10 1.1964098e-10
0000f0 6b f3 b7 2f 99 72 11 30 73 f6 91 2e 1b 8d 6b 30
       3.3460465e-10 5.2913546e-10 6.637615e-11 8.5693025e-10
000100 be da 07 31 9b 44 12 31 7a 0a ed 2f c5 e3 1c 30
       1.9769426e-09 2.1284794e-09 4.3117493e-10 5.707615e-10
000110 88 23 ad 30 f4 1c be 30 e3 e4 17 31 a1 98 89 31
       1.2597505e-09 1.3832548e-09 2.21035e-09 4.0045767e-09
000120 74 5f f0 30 67 81 98 30 9e d5 80 30 35 fb 66 2f
       1.7489428e-09 1.1096234e-09 9.373939e-10 2.1007625e-10
000130 a8 4b 8c 31 85 38 0a 32 dd f0 50 30 48 99 ae 31
       4.0831374e-09 8.045508e-09 7.6012246e-10 5.0814926e-09
000140 60 78 9a 30 6f 51 ab 31 0b 47 55 31 b6 8e 8c 2f
       1.1239187e-09 4.986013e-09 3.1035963e-09 2.5567254e-10
000150 2c a4 f2 30 51 78 73 30 b9 14 95 30 79 8b 81 31
       1.7654478e-09 8.8573865e-10 1.0847067e-09 3.7702503e-09
000160 cc 54 7f 30 04 da 93 31 5b f2 1b 31 86 b5 ca 30
       9.2888963e-10 4.3030486e-09 2.2693232e-09 1.4749026e-09
000170 bc 07 50 32 59 07 ae 30 89 cb 01 31 60 b5 88 31
       1.2108952e-08 1.2662255e-09 1.8887667e-09 3.978741e-09
000180 bc 67 10 30 08 df c9 30 b4 27 5c 30 92 47 57 30
       5.253431e-10 1.4688064e-09 8.0091955e-10 7.831825e-10
000190 85 1c a5 30 d0 66 dd 30 3d 50 12 2f c8 da a3 30
       1.2013436e-09 1.6109087e-09 1.3307129e-10 1.1921992e-09
0001a0 d7 ff 22 30 f8 19 aa 30 8d 96 e0 30 c0 7f 75 2e
       5.9298827e-10 1.2376509e-09 1.6340934e-09 5.5820015e-11
0001b0 86 bf 4c 30 b5 d8 c9 2f f4 46 ca 30 9d 97 eb 30
       7.448694e-10 3.6715667e-10 1.47176e-09 1.7141591e-09
0001c0 e7 94 2c 30 1e 4a ab 30 fe 1c 41 30 f0 4a 4a 2c
       6.278484e-10 1.2462953e-09 7.025419e-10 2.8747525e-12
0001d0 d2 c2 a9 30 5b fa 15 30 85 69 86 2e 65 81 22 30
       1.235174e-09 5.456166e-10 6.1123585e-11 5.911914e-10
0001e0 0c 56 cc 30 42 f4 dd 30 51 82 97 30 0b 5a b8 2f
       1.486741e-09 1.6149289e-09 1.1023734e-09 3.3533384e-10
0001f0 47 93 19 30 f2 50 95 31 db 07 6d 2f 1b 47 19 31
       5.587037e-10 4.345673e-09 2.1557815e-10 2.230485e-09

exp_avg f4 [128]
000000 68 30 db b6 cd 39 08 b7 2c 9f ca b6 a8 91 d1 b6
       -6.532344e-06 -8.1196895e-06 -6.038599e-06 -6.245642e-06
000010 04 73 da b6 05 8b d0 b6 d5 ce bf b6 ad 6a f9 b6
       -6.510296e-06 -6.215067e-06 -5.716322e-06 -7.433197e-06
000020 2b 76 99 b6 cf c3 9c b6 10 7e ce b6 13 59 a8 b6
       -4.573512e-06 -4.6719574e-06 -6.153954e-06 -5.0171598e-06
000030 0a 02 fc b6 1e 38 a6 b6 d5 11 06 b6 51 b4 15 b7
       -7.5104226e-06 -4.9537184e-06 -1.9977936e-06 -8.923075e-06
000040 de 3f c8 b6 1f 37 cd b6 96 7d b1 b6 58 26 23 b6
       -5.9678996e-06 -6.115893e-06 -5.289631e-06 -2.4311212e-06
000050 08 f6 44 b6 af ac 17 b7 6e ce 83 b6 79 80 fe b6
       -2.9349485e-06 -9.040507e-06 -3.928136e-06 -7.584746e-06
000060 24 2d f1 b6 51 94 f1 b6 c0 64 c8 b6 3a b6 a7 b6
       -7.1876148e-06 -7.199626e-06 -5.9721933e-06 -4.998202e-06
000070 68 ad b7 b6 bb b2 14 b7 01 10 7d b6 f8 28 10 b7
       -5.474012e-06 -8.863101e-06 -3.7709253e-06 -8.592608e-06
000080 9f dc 3c b2 f1 4c 26 b2 d8 94 23 b2 58 c1 02 b2
       -1.0993204e-08 -9.679966e-09 -9.521692e-09 -7.610957e-09
000090 f7 cb d0 b1 27 7c c9 b1 f6 ae df b1 f9 c7 0f b2
       -6.076785e-09 -5.8639844e-09 -6.510045e-09 -8.369164e-09
0000a0 9e 31 99 b1 2a b1 ab b1 02 67 eb b1 20 57 d8 b3
       -4.458527e-09 -4.9968962e-09 -6.851111e-09 -1.0074132e-07
0000b0 cd f9 47 b2 b3 72 e5 b1 50 3b 1d b1 31 fa 1d b2
       -1.1640123e-08 -6.677817e-09 -2.2880222e-09 -9.19549e-09
0000c0 f3 e4 d7 b1 b5 bb 1f b2 7e 3e fc b1 57 d9 df ad
       -6.283352e-09 -9.297698e-09 -7.34127e-09 -2.5448683e-11
0000d0 19 d5 80 b1 0e 50 13 b2 08 d9 80 b1 67 45 01 b2
       -3.7495167e-09 -8.5747285e-09 -3.749964e-09 -7.5245685e-09
0000e0 8c 52 ea b1 44 f7 21 b2 f2 05 02 b2 1d ca de b1
       -6.819681e-09 -9.427655e-09 -7.568348e-09 -6.484028e-09
0000f0 81 29 f9 b1 6f 63 30 b2 d2 79 62 b1 ca 8c 3f b2
       -7.2515722e-09 -1.0267157e-08 -3.2956575e-09 -1.1149675e-08
000100 b4 32 65 b7 6a c6 61 b7 41 5a 2d b7 70 34 79 37
       -1.3661269e-05 -1.3457242e-05 -1.0332617e-05 1.4853766e-05
000110 26 71 43 b7 3a f8 6a 37 46 25 82 b7 f6 d9 8c b7
       -1.164925e-05 1.4005282e-05 -1.5514564e-05 -1.6790797e-05
000120 ff 9c 4b b7 27 b7 21 37 92 f8 5b 37 67 11 00 37
       -1.2136296e-05 9.638991e-06 1.3111292e-05 7.633446e-06
000130 44 73 a0 b7 60 56 8f b7 31 51 de b6 87 14 9e b7
       -1.9127161e-05 -1.708715e-05 -6.6255675e-06 -1.8844627e-05
000140 42 2c 4a b7 77 6e c6 b7 b5 01 71 b7 75 dd 06 37
       -1.2050443e-05 -2.3654879e-05 -1.4365117e-05 8.038584e-06
000150 4d 59 fe b6 f6 ba 5b b7 4d 7b 52 b7 0f 8e 9b b7
       -7.580186e-06 -1.3096947e-05 -1.2545684e-05 -1.8543591e-05
000160 bb eb 32 37 8b ef 85 37 12 1f 65 37 3b 2a 63 37
       1.0664512e-05 1.5966381e-05 1.3656698e-05 1.3540087e-05
000170 6d 15 86 b7 94 7c 34 b7 08 fa 3a b7 da 2e 90 b7
       -1.5984022e-05 -1.0757842e-05 -1.1144679e-05 -1.7187955e-05
000180 c1 8b f4 b6 e5 c8 1c b7 8f ce 3f b7 d3 1c fc b6
       -7.288036e-06 -9.345099e-06 -1.143258e-05 -7.513541e-06
000190 24 5e 22 b7 ed 41 37 b7 26 d5 c2 b6 89 8f 21 b7
       -9.677871e-06 -1.09229995e-05 -5.8064643e-06 -9.629767e-06
0001a0 7d 87 ed b6 4a ea 02 b7 28 95 30 b7 33 02 cb b6
       -7.0789233e-06 -7.8031535e-06 -1.0525146e-05 -6.0501275e-06
0001b0 f7 c0 ed b6 a0 c9 cb b6 d2 a8 7a b6 1c 7c 24 b7
       -7.0856145e-06 -6.0733437e-06 -3.735117e-06 -9.804058e-06
0001c0 5d 46 0c b7 23 f2 15 b7 1d f3 ef b6 7b 70 10 b6
       -8.361033e-06 -8.937469e-06 -7.151057e-06 -2.1523144e-06
0001d0 08 a1 aa b6 5d dc 1c b7 e8 f5 de b6 88 32 09 b7
       -5.0851413e-06 -9.349632e-06 -6.644743e-06 -8.177602e-06
0001e0 8d bf 3e b7 70 23 17 b7 76 10 11 b7 03 6a 01 b7
       -1.1369481e-05 -9.008552e-06 -8.646506e-06 -7.713682e-06
0001f0 4f 6b cf b6 da 0f 51 b7 c0 27 d5 b6 24 6a 3a b7
       -6.181573e-06 -1.24610615e-05 -6.352522e-06 -1.1111177e-05

exp_avg_sq f4 [128]
000000 c6 57 fc 2f 9d 49 ae 2f a0 98 80 2e 0f 80 5b 2e
       4.59009e-10 3.170272e-10 5.847878e-11 4.9908574e-11
000010 e4 8a d3 2e 33 4a ac 2e b6 c0 3b 2f ac 6e 74 2f
       9.619841e-11 7.834835e-11 1.7076016e-10 2.2230989e-10
000020 ab 14 45 2e da 36 99 2e 59 9f b9 2e dd 41 f7 2d
       4.481097e-11 6.967378e-11 8.441132e-11 2.8109898e-11
000030 ce 6f f5 2f 7a 87 09 2f 15 10 90 2e 9d 5a aa 2f
       4.4644682e-10 1.2508208e-10 6.5512186e-11 3.0987204e-10
000040 8f b5 0d 2f 32 90 af 2e ca 5b 81 2f 84 ba 67 2c
       1.2888378e-10 7.983693e-11 2.3530183e-10 3.2930611e-12
000050 e1 96 bb 2e 60 21 35 2f 8f 30 dc 2d 96 e0 21 2f
       8.530577e-11 1.6473711e-10 2.5032669e-11 1.4722654e-10
000060 b4 73 2f 2f 13 03 a6 2f 2d 3c 3c 2f 36 c6 b8 2e
       1.5957263e-10 3.0197408e-10 1.7119879e-10 8.4025606e-11
000070 de 73 27 2f 74 ed 9c 2f e0 a7 27 2e 01 8e fb 2f
       1.5229726e-10 2.8544955e-10 3.8120507e-11 4.5757534e-10
000080 19 29 06 30 f6 f4 15 30 72 71 9d 2e 6e 06 6d 2e
       4.880732e-10 5.4553995e-10 7.159685e-11 5.3893272e-11
000090 48 e7 7b 2f 16 ca 2a 2f 46 e5 01 2f dd 18 08 30
       2.2910485e-10 1.5533205e-10 1.1813936e-10 4.9511845e-10
0000a0 66 10 2e 2f 83 84 55 2f 55 27 29 2f 86 47 8a 2d
       1.5831034e-10 1.9419315e-10 1.5384434e-10 1.5720546e-11
0000b0 e7 b3 47 30 42 09 53 2f 2b 35 9b 2e 0c 0f 2e 30
       7.2651435e-10 1.9193627e-10 7.0580285e-11 6.3322214e-10
0000c0 13 d0 29 2f e2 35 83 2f 21 3c e4 2f 96 14 a8 2b
       1.5444383e-10 2.3867047e-10 4.1515683e-10 1.1942832e-12
0000d0 d6 5b 2d 2f 79 30 d9 2e d6 52 98 2d 8b 69 b0 2f
       1.5766885e-10 9.876628e-11 1.7317186e-11 3.2089206e-10
0000e0 d9 ec 98 2f 3f ad 2b 30 86 bb c5 2f f1 8b 03 2f
       2.781693e-10 6.2455635e-10 3.5967335e-10 1.1964098e-10
0000f0 6b f3 b7 2f 99 72 11 30 73 f6 91 2e 1b 8d 6b 30
       3.3460465e-10 5.2913546e-10 6.637615e-11 8.5693025e-10
000100 be da 07 31 9b 44 12 31 7a 0a ed 2f c5 e3 1c 30
       1.9769426e-09 2.1284794e-09 4.3117493e-10 5.707615e-10
000110 88 23 ad 30 f4 1c be 30 e3 e4 17 31 a1 98 89 31
       1.2597505e-09 1.3832548e-09 2.21035e-09 4.0045767e-09
000120 74 5f f0 30 67 81 98 30 9e d5 80 30 35 fb 66 2f
       1.7489428e-09 1.1096234e-09 9.373939e-10 2.1007625e-10
000130 a8 4b 8c 31 85 38 0a 32 dd f0 50 30 48 99 ae 31
       4.0831374e-09 8.045508e-09 7.6012246e-10 5.0814926e-09
000140 60 78 9a 30 6f 51 ab 31 0b 47 55 31 b6 8e 8c 2f
       1.1239187e-09 4.986013e-09 3.1035963e-09 2.5567254e-10
000150 2c a4 f2 30 51 78 73 30 b9 14 95 30 79 8b 81 31
       1.7654478e-09 8.8573865e-10 1.0847067e-09 3.7702503e-09
000160 cc 54 7f 30 04 da 93 31 5b f2 1b 31 86 b5 ca 30
       9.2888963e-10 4.3030486e-09 2.2693232e-09 1.4749026e-09
000170 bc 07 50 32 59 07 ae 30 89 cb 01 31 60 b5 88 31
       1.2108952e-08 1.2662255e-09 1.8887667e-09 3.978741e-09
000180 bc 67 10 30 08 df c9 30 b4 27 5c 30 92 47 57 30
       5.253431e-10 1.4688064e-09 8.0091955e-10 7.831825e-10
000190 85 1c a5 30 d0 66 dd 30 3d 50 12 2f c8 da a3 30
       1.2013436e-09 1.6109087e-09 1.3307129e-10 1.1921992e-09
0001a0 d7 ff 22 30 f8 19 aa 30 8d 96 e0 30 c0 7f 75 2e
       5.9298827e-10 1.2376509e-09 1.6340934e-09 5.5820015e-11
0001b0 86 bf 4c 30 b5 d8 c9 2f f4 46 ca 30 9d 97 eb 30
       7.448694e-10 3.6715667e-10 1.47176e-09 1.7141591e-09
0001c0 e7 94 2c 30 1e 4a ab 30 fe 1c 41 30 f0 4a 4a 2c
       6.278484e-10 1.2462953e-09 7.025419e-10 2.8747525e-12
0001d0 d2 c2 a9 30 5b fa 15 30 85 69 86 2e 65 81 22 30
       1.235174e-09 5.456166e-10 6.1123585e-11 5.911914e-10
0001e0 0c 56 cc 30 42 f4 dd 30 51 82 97 30 0b 5a b8 2f
       1.486741e-09 1.6149289e-09 1.1023734e-09 3.3533384e-10
0001f0 47 93 19 30 f2 50 95 31 db 07 6d 2f 1b 47 19 31
       5.587037e-10 4.345673e-09 2.1557815e-10 2.230485e-09
