lightning_logs/version_81/checkpoints/epoch=9.ckpt (torch_old, 291029 bytes, 21 tensors)

exp_avg f4 [81, 81]
00000000: 660d dbb5 fcb5 9eb5 fb9a 12b6 d7cd 3d35
00000010: 2ecb 2436 3078 2735 df33 5fb5 3f73 a3b5
00000020: d3a5 c635 167a 0636 8a39 aa35 85f6 c035
00000030: 8d11 f0b5 b5ed 1336 cc43 2bb5 7959 1d36
00000040: ef57 cc35 8939 0236 668f e135 678c 0eb6
00000050: abfe dcb5 d938 6c34 3b2c 9f35 7a36 f335
00000060: 1bed b1b5 bdfa 1036 73b2 82b5 4b7e 5535
00000070: d070 c8b5 3eb2 0236 0e2b dcb5 f18d 6e35
00000080: 66c7 7b35 d58f feb5 fcc2 0536 2e27 74b5
00000090: 8d5f deb5 7915 2f35 9a4c c835 c48b 93b5
000000a0: 7ebd 5135 42d6 3835 f9d2 1536 b3d2 f435
000000b0: 15e2 20b6 7d1f d6b5 5c64 b8b5 9dcc 8735
000000c0: db32 e4b5 9793 0d36 2906 fc35 201e feb5
000000d0: 610a 8035 0a9e 8335 9928 cf35 6eaa 3136
000000e0: 854a 3b36 7c85 f9b5 acbe ee35 3667 67b5
000000f0: b731 b935 b057 c9b4 b787 7435 1d4d db35
00000100: 7909 84b4 73da 0035 189c 5b35 7e44 9235
00000110: 749f 35b5 add0 a1b5 b069 06b6 7aae 0db6
00000120: ce2e e435 f60b 0d36 a35c f6b5 515d 4335
00000130: 1c55 1836 93d4 2936 268c dbb5 40d2 3836
00000140: 2f77 8c35 5ab4 9fb5 282a 9db5 e4e1 fbb5
00000150: 42d8 aa34 6b97 d035 dc27 3135 b6ea 1eb5
00000160: d50a 8fb5 6d97 9235 4bd2 f335 5d63 b535
00000170: 9253 9e35 1a0e c2b5 dca3 ee35 bbfb 2333
00000180: 85e0 0136 223f a235 6f8a b535 ba15 d035
00000190: d65e d4b5 4d51 9db5 2efa fb33 6d2e 7f35
000001a0: 4fcf 0236 107c b8b5 7daf b835 a63f 86b5
000001b0: d8c1 5435 d207 b0b5 f0c0 0736 7af2 deb5
000001c0: b306 e234 7a32 1135 ca37 c3b5 b9b4 de35
000001d0: d755 6db5 831e 85b5 5cef 6c34 f18b d135
000001e0: 624a 75b5 3f47 cc34 4c74 4435 e8bb 0a36
000001f0: a6de ce35 880b dbb5 cd7d 9fb5 835b 8cb5
00000200: db82 bc34 d1ca c1b5 ec7c 0136 a89d c935
00000210: 5886 f9b5 baf6 3535 9127 9335 93c3 9a35
00000220: b637 1d36 0eaf 2e36 7206 02b5 3571 ba35
00000230: 9901 cdb4 dbf2 9635 5a19 deb4 41a3 7c35
00000240: e333 ed35 12d5 18b4 35fb 0235 eebd 9235
00000250: e89f 8d35 b2a1 49b4 43c9 a8b5 c4ee bdb5
00000260: 5d68 c2b5 dec5 8c35 eddd 2736 5d6a 0fb6
00000270: a4f8 af35 5979 f635 e5b7 0936 4dae a4b5
00000280: d358 3b36 06ec 8f35 cd9e ffb3 528e fbb3
00000290: 3dca 30b4 eddc a032 2506 0534 b8d6 7833
000002a0: e634 34b3 5b24 bdb3 a886 e333 59df 4734
000002b0: adc7 0b34 372c e333 c089 33b4 a75e 1234
000002c0: 179e 2cb3 3e19 4134 ebfa 1234 f8db 4834
000002d0: f2a5 ef33 f924 23b4 8a44 c3b3 d0e6 0c32
000002e0: e55b 7633 a329 3134 3288 f4b3 cda0 2c34
000002f0: 9845 9eb3 59b9 a033 d610 6db3 4ebf 4e34
00000300: 5ea5 1fb4 76fb 8b33 ebfc 6233 cf61 03b4
00000310: 8d99 3434 5120 16b3 d657 16b4 10e8 1c33
00000320: d756 3034 e93a aeb3 54c3 b533 3502 8533
00000330: 1cc7 4334 371c 0b34 8afa 52b4 2eb8 23b4
00000340: 3647 c2b3 1820 ae33 25b8 d1b3 34ea 3e34
00000350: ad50 2334 f24f 2eb4 6a46 9533 00e8 a233
00000360: 0d66 0234 b69a 4d34 16c2 8934 9e8d e9b3
00000370: afbe c533 9bd1 9db3 ffa1 1834 0956 07b3
00000380: 23de af33 cb38 1034 e066 b6b2 34af 8c33
00000390: f239 8a33 8fe3 a033 4c18 f6b2 6958 91b3
000003a0: 0c49 0fb4 410a 61b4 c089 c333 2510 2c34
000003b0: 8579 1cb4 46a5 9733 574c 3d34 fa38 6d34
000003c0: e1c1 e6b3 e442 8b34 0fc5 fb33 c9f6 03b5
000003d0: 38d9 f3b4 94c4 34b5 a6a8 3f34 705d 4135
000003e0: ce4e 3c34 d0d7 9ab3 30f5 99b4 4cf9 e234
000003f0: d2c5 1435 c984 af34 8374 ff34 3a90 32b5
-1.6320671e-06 -1.1824882e-06 -2.1845906e-06 7.0707523e-07 2.455617e-06 6.2387244e-07 -8.3149456e-07 -1.2177987e-06
1.4800411e-06 2.003862e-06 1.2682733e-06 1.4376861e-06 -1.7886501e-06 2.204307e-06 -6.380112e-07 2.3446903e-06
1.5224776e-06 1.9405e-06 1.6805541e-06 -2.1241374e-06 -1.6465395e-06 2.1999894e-07 1.1859296e-06 1.8120766e-06
-1.3256534e-06 2.160362e-06 -9.73769e-07 7.9532464e-07 -1.4933994e-06 1.947526e-06 -1.6403808e-06 8.886846e-07
9.379495e-07 -1.8966335e-06 1.993204e-06 -9.09541e-07 -1.6568098e-06 6.5223827e-07 1.4923455e-06 -1.0993031e-06
7.8134315e-07 6.885713e-07 2.2325532e-06 1.8240738e-06 -2.3973455e-06 -1.5953407e-06 -1.3738277e-06 1.0117834e-06
-1.7002125e-06 2.1096546e-06 1.8777256e-06 -1.8933242e-06 9.539764e-07 9.806256e-07 1.5434517e-06 2.6474258e-06
2.7908548e-06 -1.8590795e-06 1.7787875e-06 -8.62044e-07 1.3798043e-06 -3.7502969e-07 9.1094574e-07 1.6339214e-06
-2.4593808e-07 4.80016e-07 8.1811004e-07 1.0897782e-06 -6.765979e-07 -1.2056167e-06 -2.0029074e-06 -2.1112196e-06
1.7000946e-06 2.10176e-06 -1.8355389e-06 7.2778954e-07 2.2699305e-06 2.5306697e-06 -1.635756e-06 2.7540518e-06
1.04655e-06 -1.1898912e-06 -1.1709681e-06 -1.87667e-06 3.1822316e-07 1.5541276e-06 6.599564e-07 -5.9201136e-07
-1.0657483e-06 1.0921918e-06 1.8166114e-06 1.3514469e-06 1.179624e-06 -1.445823e-06 1.7780071e-06 3.8180342e-08
1.9353186e-06 1.2088315e-06 1.352584e-06 1.5503531e-06 -1.5822832e-06 -1.1721073e-06 1.1733606e-07 9.506246e-07
1.949218e-06 -1.3745175e-06 1.3760142e-06 -1.0002302e-06 7.9258234e-07 -1.3115298e-06 2.0228872e-06 -1.6610859e-06
4.2100655e-07 5.409016e-07 -1.4544869e-06 1.6592886e-06 -8.8414293e-07 -9.918152e-07 2.2066291e-07 1.5612442e-06
-9.1377854e-07 3.80498e-07 7.3184924e-07 2.0672978e-06 1.5412995e-06 -1.6320128e-06 -1.1883036e-06 -1.0457446e-06
3.511294e-07 -1.4438648e-06 1.9295212e-06 1.5021551e-06 -1.8591045e-06 6.778679e-07 1.0963869e-06 1.1530814e-06
2.342725e-06 2.6029916e-06 -4.8438153e-07 1.3891027e-06 -3.8185388e-07 1.1246551e-06 -4.1369168e-07 9.411488e-07
1.7672977e-06 -1.4233618e-07 4.879433e-07 1.0933124e-06 1.0551857e-06 -1.8778408e-07 -1.257555e-06 -1.4151087e-06
-1.44845e-06 1.04884e-06 2.5014117e-06 -2.1370572e-06 1.311088e-06 1.8363745e-06 2.0521632e-06 -1.226968e-06
2.7916874e-06 1.0723022e-06 -1.19032485e-07 -1.1713986e-07 -1.6464851e-07 1.8726917e-08 1.2388826e-07 5.7937285e-08
-4.1957627e-08 -8.807611e-08 1.0595005e-07 1.8614573e-07 1.3018025e-07 1.0578554e-07 -1.6720787e-07 1.3631744e-07
-4.0190653e-08 1.7983709e-07 1.3688593e-07 1.8706476e-07 1.115949e-07 -1.5194009e-07 -9.092862e-08 8.201553e-09
5.7359916e-08 1.6499557e-07 -1.1386909e-07 1.6077247e-07 -7.3701074e-08 7.484295e-08 -5.5196175e-08 1.9254841e-07
-1.4868189e-07 6.5184324e-08 5.2849753e-08 -1.2235908e-07 1.6819668e-07 -3.4953988e-08 -1.4001793e-07 3.653264e-08
1.642287e-07 -8.113222e-08 8.463999e-08 6.1936966e-08 1.8233226e-07 1.2955648e-07 -1.964892e-07 -1.5247562e-07
-9.046782e-08 8.108344e-08 -9.7658166e-08 1.7780332e-07 1.5209908e-07 -1.6234097e-07 6.9511614e-08 7.5859134e-08
1.214432e-07 1.9148396e-07 2.5659455e-07 -1.0875668e-07 9.2082125e-08 -7.349009e-08 1.4215037e-07 -3.1510385e-08
8.189479e-08 1.3431706e-07 -2.123437e-08 6.551127e-08 6.436666e-08 7.491973e-08 -2.8649218e-08 -6.7681704e-08
-1.3344487e-07 -2.0958488e-07 9.105452e-08 1.6024622e-07 -1.4572841e-07 7.0615485e-08 1.7629769e-07 2.2093073e-07
-1.0745476e-07 2.5939437e-07 1.1723943e-07 -4.916042e-07 -4.5420325e-07 -6.7341284e-07 1.7849615e-07 7.203407e-07
1.7537533e-07 -7.21044e-08 -2.8676868e-07 4.2277168e-07 5.5422163e-07 3.2692904e-07 4.7582225e-07 -6.6520045e-07

exp_avg_sq f4 [81, 81]
00000000: 41aa 062d 712b 2a2d 93f1 512d 6151 052d
00000010: 80dd c32d d47c 4c2c e068 462c 2465 152d
00000020: 1876 2a2d ff22 502d cc67 162c 2b8e 702c
00000030: 4104 f02c 286f 0d2d 698c 8f2b 2fcf 7f2d
00000040: 8c42 e12c 5d2c 832d 0d3e 5e2d 8d24 112d
00000050: 2185 612d 0f24 af2b 996e d72c cb38 942c
00000060: c541 742c 47dd 932d eb52 b02c c900 d32b
00000070: d799 032d 0551 5f2d 0f5e 482d 777b 4f2c
00000080: 7951 712c ab8e 0e2d e6d1 c72c c900 712c
00000090: fd13 4c2d 968f 362c e4da c42b 4cd5 582c
000000a0: c6d9 cc2c 9939 6b2c cdc2 7f2d 9339 432d
000000b0: 9e4e a42d d0e0 872d ae9a f62c d5ce eb2b
000000c0: a2da 882c 18be 9b2d 5aca 732d 69e2 972c
000000d0: 7ae3 dd2c f26a 5b2c b39c 0f2b 410f 0f2d
000000e0: a65d ef2d b970 ae2c 5b4c 5e2d 2eda ea2c
000000f0: c6bd ea2b ee18 f92b a0fb bd2c d260 ea2c
00000100: 26a4 672c bc57 1f2c 6836 232d df5f 362c
00000110: 6a47 f52b f8b2 652d d7b8 712c b3cb 002e
00000120: 862b 912b f9bb af2d 9ddd 062d 9bdf c42c
00000130: 621d 892d 78b4 992d 2c97 842c b3c8 cc2d
00000140: e69f 0f2c 38d5 902e 50bd ec2e 0688 812e
00000150: 5d35 bc2e 60f8 272e 5281 432d f916 e22d
00000160: 48bc d62d 9eff af2e f759 de2e a554 c52d
00000170: 2330 132f f6c3 db2d 9126 132e 1298 d02d
00000180: da49 332e 75ad 462d c8fe 212e 4aea 292f
00000190: f1b4 a62e 647c a62e 8c84 ef2b 170b 4e2e
000001a0: ede9 0f2e 4f2c 2a2d 849d 022f 94e3 f22e
000001b0: 4628 bd2e c148 aa2d 0a9e fc2e ab72 d32d
000001c0: b952 d52c 2a00 8c2e 5b19 cb2e 36e6 7a2e
000001d0: c279 6c2e be59 722e da3d b52d 5ad9 872d
000001e0: 1bbf c72d c9d6 452e 5e9b f52e 500c 472f
000001f0: 96ef 112f 4b96 1c2f 2225 e92e 0f48 cc2d
00000200: 4f6d ab2c fa5a ba2d c581 d42e 23bb bf2e
00000210: ef6e 2a2e 544e b32d 1708 332e db0e e32c
00000220: 6ce0 952e ab32 0b30 73a4 ed2d d61b c52e
00000230: c916 092e 29a3 9f2d 35cf 8b2e 2adc b12d
00000240: cebf 182e d220 702d b839 7a2e b0a8 142e
00000250: 9617 022e 3a51 252e 02da 842e df71 262d
00000260: 5e66 562f 7487 ab2c fa54 652f 98aa 802e
00000270: 4e00 9f2e 50bb 102f 6826 eb2e 667a be2d
00000280: 5f41 bf2f ede9 432e 16eb 9328 56d1 4129
00000290: 65a8 0a29 1aae 9228 1863 1a29 46dc 2128
000002a0: 169d 8d27 ab70 f628 21b1 1329 0abb 5229
000002b0: 1642 ff27 b496 4e28 d7e1 5a29 be40 a328
000002c0: 40dc 5f27 2af1 7929 bf39 ab28 4a6d 8229
000002d0: e968 0429 24af c628 794a 0e29 1a93 af27
000002e0: 4df2 4428 dd2e fd28 067d 2328 bb79 9b29
000002f0: c628 0528 de99 9528 981c 0b28 003b aa29
00000300: 97ec 2529 24bb b728 4d52 2228 7dea 8c28
00000310: a007 d428 2ec7 d028 4584 4429 a267 9f27
00000320: fee1 9928 e1e3 0128 03d0 8f28 3d47 1d28
00000330: fede 7f29 e546 3c29 6505 a329 73bc 9729
00000340: 3446 3928 a039 1a28 bbf8 4928 bfcb f628
00000350: f905 4c29 6256 b228 1d7e 5b28 3558 2e27
00000360: ec0f d628 7cc4 3029 5b24 2e2a c100 3a28
00000370: 9ee8 7f28 cc58 8428 6838 9928 2c84 b527
00000380: d5fa c827 a833 3628 0995 e727 6922 9c28
00000390: 6fc6 8127 0f42 8327 cae3 d627 efb6 6427
000003a0: 6d61 8128 bee0 332a 79d3 8a27 bfb9 8029
000003b0: 959a 8d28 4555 a728 c1eb c129 c872 fe29
000003c0: 6334 5f28 9fa9 122a 1d08 b328 5016 6c2b
000003d0: d563 a32b c495 6a2b 4d46 022b 569b 0b2c
000003e0: 2bcc 022a ca3d 9929 f9ec 332b cb8f 532b
000003f0: 6a25 822b f17e 0b2a f9e2 a92a 7aee a52b
7.654822e-12 9.673027e-12 1.1933915e-11 7.5782445e-12 2.2267299e-11 2.9059437e-12 2.819571e-12 8.492127e-12
9.689603e-12 1.1831202e-11 2.13739e-12 3.418497e-12 6.8216825e-12 8.039604e-12 1.0199733e-12 1.4541076e-11
6.402273e-12 1.4912677e-11 1.2633017e-11 8.250412e-12 1.281933e-11 1.2444506e-12 6.1229463e-12 4.2127183e-12
3.4710995e-12 1.6810232e-11 5.0114266e-12 1.499267e-12 7.480647e-12 1.2694072e-11 1.1389569e-11 2.9485006e-12
3.4293386e-12 8.103444e-12 5.6792236e-12 3.4248596e-12 1.1600496e-11 2.5943462e-12 1.3987392e-12 3.081385e-12
5.8222064e-12 3.3427482e-12 1.4538326e-11 1.1097251e-11 1.8679554e-11 1.544756e-11 7.0089134e-12 1.6755162e-12
3.8896256e-12 1.7705878e-11 1.3857882e-11 4.3168147e-12 6.3064528e-12 3.1181138e-12 5.102127e-13 8.131996e-12
2.7212742e-11 4.957892e-12 1.2636193e-11 6.674903e-12 1.6679373e-12 1.7699433e-12 5.399639e-12 6.6614292e-12
3.2918195e-12 2.2643961e-12 9.277558e-12 2.5916975e-12 1.7428118e-12 1.3056882e-11 3.4350767e-12 2.928475e-11
1.031495e-12 1.9978673e-11 7.666226e-12 5.5954802e-12 1.5588145e-11 1.747423e-11 3.768449e-12 2.3281243e-11
2.0410284e-12 6.586237e-11 1.0765666e-10 5.8904034e-11 8.5587294e-11 3.8192005e-11 1.11131816e-11 2.5703427e-11
2.4412597e-11 8.0034854e-11 1.0111372e-10 2.2433897e-11 1.3386674e-10 2.4984442e-11 3.3458184e-11 2.3714395e-11
4.076548e-11 1.1293512e-11 3.6833453e-11 1.5453697e-10 7.580948e-11 7.570902e-11 1.701876e-12 4.6848827e-11
3.2722203e-11 9.67322e-12 1.1879392e-10 1.1045312e-10 8.601879e-11 1.9359072e-11 1.14877066e-10 2.4038846e-11
6.063008e-12 6.366492e-11 9.235875e-11 5.7047887e-11 5.376833e-11 5.5104137e-11 2.0604785e-11 1.5444247e-11
2.2708549e-11 4.498338e-11 1.1168909e-10 1.8103319e-10 1.3272791e-10 1.4241512e-10 1.06022094e-10 2.3224115e-11
4.872248e-12 2.1186154e-11 9.6636955e-11 8.7189166e-11 3.8752054e-11 2.0384729e-11 4.0707073e-11 6.4533773e-12
6.815601e-11 5.063991e-10 2.701681e-11 8.9634675e-11 3.117043e-11 1.8148665e-11 6.3577955e-11 2.0220343e-11
3.4731155e-11 1.3649708e-11 5.6894683e-11 3.380113e-11 2.9579526e-11 3.75888e-11 6.041391e-11 9.461292e-12
1.9499555e-10 4.8751506e-12 2.0857618e-10 5.8510696e-11 7.230537e-11 1.316327e-10 1.0693385e-10 2.1654855e-11
3.4789147e-10 4.4545635e-11 1.642223e-14 4.303618e-14 3.0788214e-14 1.628476e-14 3.428082e-14 8.9850595e-15
3.9305675e-15 2.7360348e-14 3.2794192e-14 4.6791598e-14 7.084837e-15 1.1467976e-14 4.860161e-14 1.8124713e-14
3.1066865e-15 5.5498283e-14 1.9009857e-14 5.7921184e-14 2.9400883e-14 2.2058371e-14 3.159493e-14 4.8731745e-15
1.0932726e-14 2.8108966e-14 9.075428e-15 6.9044996e-14 7.3918244e-15 1.6609052e-14 7.72225e-15 7.5597514e-14
3.684257e-14 2.039824e-14 9.010653e-15 1.5644815e-14 2.3540035e-14 2.317902e-14 4.3635468e-14 4.4243724e-15
1.708442e-14 7.210352e-15 1.59664e-14 8.730698e-15 5.681479e-14 4.1805877e-14 7.23959e-14 6.738438e-14
1.0284786e-14 8.561213e-15 1.1211676e-14 2.7399847e-14 4.530228e-14 1.9799432e-14 1.2184289e-14 2.4195168e-15
2.3765678e-14 3.9250273e-14 1.5466918e-13 1.0325238e-14 1.4205784e-14 1.4693453e-14 1.7010875e-14 5.0380893e-15
5.5783104e-15 1.0114231e-14 6.4276964e-15 1.7334402e-14 3.6019835e-15 3.6431425e-15 5.96439e-15 3.1740525e-15
1.4364129e-14 1.5976367e-13 3.8531973e-15 5.716564e-14 1.5721184e-14 1.8577704e-14 8.6118185e-14 1.1299777e-13
1.2390346e-14 1.3026254e-13 1.987651e-14 8.387501e-13 1.1609556e-12 8.334134e-13 4.628284e-13 1.9839317e-12
1.1617154e-13 6.8052836e-14 6.392244e-13 7.516181e-13 9.24744e-13 1.2389722e-13 3.0177925e-13 1.1790146e-12

exp_avg f4 [128, 81]
00000000: 6585 26b6 3f6f 06b6 05d4 07b6 eb73 1fb5
00000010: e746 6036 8e65 6635 39f7 e4b5 b62a 2bb5
00000020: adba 8635 c341 2436 69df 5d35 c525 c634
00000030: 4a0e ceb6 408b a635 11eb e1b5 95df 9b36
00000040: 6d7e 6936 77b3 6635 a6ef cb35 09db 09b6
00000050: 5cf4 70b5 dc13 ab35 0c72 2235 b9fb a336
00000060: ff54 96b6 d229 c935 f61d 81b4 ad47 7735
00000070: e6c0 6bb6 c5ba 4536 3b76 96b6 7306 9c35
00000080: adef 0136 ad0a e0b5 1937 9036 e516 4cb6
00000090: f9b2 64b5 acfa a535 ebe7 2936 d9bc 4db5
000000a0: 04db a835 f65e 4536 5f1a 2c36 46db 1432
000000b0: 5e34 84b5 6445 bbb5 080b 70b6 75d5 bc35
000000c0: cc5c b3b5 36aa 1c36 8a2a 9f36 f386 99b6
000000d0: 442d 6c35 1992 3a34 96ee 4c36 e8b8 6236
000000e0: 42b1 5736 bf29 52b6 85b2 e435 dad7 5e35
000000f0: ccc6 8d35 424d 68b5 fdc5 b835 769a 8236
00000100: b97d 8d34 ec9f 83b5 4e8a ec35 dec4 5135
00000110: a7c6 b5b5 cd73 07b6 7531 bcb6 3068 96b6
00000120: 72f1 fb35 3aef 4035 9f85 31b6 aef5 c435
00000130: d3a9 9135 588f 7e36 0c78 9fb5 fd98 8036
00000140: ac0d 3736 7824 c432 c3f8 05b5 325c a1b5
00000150: 81b4 dc34 5e89 9635 13c2 2fb5 8f9c 83b5
00000160: eb75 71b5 8977 8eb5 5f56 f635 fb1f d334
00000170: 04d6 0c36 622e 9ab5 ba1b e535 53a3 8735
00000180: b02d e835 cf14 6135 fe80 8535 bb21 9035
00000190: faf0 eb34 a579 c234 c510 65b5 c109 4a35
000001a0: 102f 2236 9cf4 42b6 68d4 a934 6a26 2eb5
000001b0: 34ac a9b4 06f8 1db5 82c7 1136 f6b9 82b6
000001c0: 12a7 3eb5 1513 3234 3db2 aab4 dbbd fe35
000001d0: 4d12 a5b5 5da4 3bb5 f135 3e36 8b36 6835
000001e0: a19e ddb5 4dbe d5b5 f690 db35 ba24 7636
000001f0: bd68 ae35 7052 7db5 14a6 8eb4 fce4 1bb6
00000200: fcba 2d34 fce5 0db5 215e f535 32f9 ab35
00000210: fc34 3db6 a6ac 8635 8001 e235 26c4 7b35
00000220: f32d 3e36 fdfe 0c35 92fa 4db6 48df 3235
00000230: a6d0 0ab5 696e 5736 7c42 cdb4 aac2 9935
00000240: 5f23 3235 a796 56b5 0668 2a35 f483 ba35
00000250: 26df 8f35 b849 7f35 eaa8 b9b5 eb75 66b6
00000260: 2a3b ceb5 4268 0236 93af a335 f1ab e6b5
00000270: d360 ad34 f351 f235 df28 4436 d8b1 aab5
00000280: ac36 6636 8324 5f35 e6d2 29b6 66ca b7b5
00000290: e805 8bb5 c858 f7b3 e130 8f36 c23d ae35
000002a0: e182 12b6 585b c0b5 5974 1835 e196 2b36
000002b0: b60d 8a35 3fe2 ac35 179c 52b6 623d b635
000002c0: 2bb3 e6b4 6574 7c36 f59a 1436 780e a835
000002d0: ce0c 8535 ae75 92b3 9799 e2b5 ae3b 38b3
000002e0: 1301 19b5 f3fa b935 d2f9 fab5 cd3f 1036
000002f0: 84e4 9bb5 b1ab 0534 0a65 b3b5 7087 8035
00000300: 42ac 94b5 36c6 bf34 e052 c7b3 85de 3cb4
00000310: d65d 8a35 cb42 99b5 a5b7 efb5 7079 1e36
00000320: a2db a035 8654 31b6 b139 7433 3386 1835
00000330: d6ee 6436 827b 8535 17bc efb5 cc1a ffb5
00000340: 2ea3 24b6 935c cc35 b660 ce34 887b c235
00000350: 2af5 3236 7b85 2eb6 1016 e434 149c 3236
00000360: 1332 2235 a78f 8735 ae4b 3336 58f1 ecb5
00000370: 5034 8235 0fdc bcb5 d675 1e36 aae9 e835
00000380: 272e 5636 d112 9d35 3449 3435 b99a ec34
00000390: b6f6 b833 b744 08b5 dd33 6ab4 5d23 88b5
000003a0: 6ca1 1bb6 af8c 09b6 061c ea35 0f1a b235
000003b0: d19a 06b6 deca 3635 bfa2 c935 a726 6e36
000003c0: d9f2 23b5 9948 2d36 df8f c8b4 fb47 77b6
000003d0: 3c8b 4eb5 e3e4 c5b5 72b9 0135 668d 9d36
000003e0: ce27 c434 d264 36b6 5630 30b6 58d0 ba35
000003f0: aac5 2036 f2a6 5d35 f965 8bb4 3854 90b6
-2.4813573e-06 -2.003231e-06 -2.023998e-06 -5.94008e-07 3.3419872e-06 8.582946e-07 -1.7059275e-06 -6.3764617e-07
1.0038108e-06 2.4476183e-06 8.265402e-07 3.6907855e-07 -6.140942e-06 1.2408491e-06 -1.683222e-06 4.6453883e-06
3.4793295e-06 8.594283e-07 1.5194425e-06 -2.0542086e-06 -8.9762557e-07 1.2746273e-06 6.0515663e-07 4.887083e-06
-4.480243e-06 1.4987838e-06 -2.4049922e-07 9.211897e-07 -3.513001e-06 2.9464002e-06 -4.484112e-06 1.1624783e-06
1.9362008e-06 -1.6692408e-06 4.2979486e-06 -3.0411695e-06 -8.519706e-07 1.2366413e-06 2.5317956e-06 -7.664326e-07
1.2580717e-06 2.9410562e-06 2.5645347e-06 8.664591e-09 -9.850007e-07 -1.3952781e-06 -3.5769208e-06 1.4069216e-06
-1.3363547e-06 2.3344887e-06 4.7435215e-06 -4.5754655e-06 8.798272e-07 1.737575e-07 3.0537244e-06 3.3784254e-06
3.2140674e-06 -3.1316738e-06 1.703928e-06 8.301555e-07 1.0563176e-06 -8.653916e-07 1.376669e-06 3.8922835e-06
2.6354772e-07 -9.806804e-07 1.7623622e-06 7.8145047e-07 -1.3543366e-06 -2.0183973e-06 -5.608594e-06 -4.4824774e-06
1.8771227e-06 7.1873694e-07 -2.6452833e-06 1.467464e-06 1.0852767e-06 3.7932386e-06 -1.1881361e-06 3.8325074e-06
2.7277083e-06 2.2833987e-08 -4.9908357e-07 -1.2022267e-06 4.1109527e-07 1.121585e-06 -6.5474995e-07 -9.805825e-07
-8.995109e-07 -1.0614614e-06 1.8353566e-06 3.9325082e-07 2.09862e-06 -1.1487393e-06 1.7069899e-06 1.0105817e-06
1.7298644e-06 8.384931e-07 9.946814e-07 1.0738653e-06 4.3947495e-07 3.6223824e-07 -8.533355e-07 7.526506e-07
2.4167275e-06 -2.9050634e-06 3.163325e-07 -6.487595e-07 -3.1603997e-07 -5.884798e-07 2.1722813e-06 -3.8959506e-06
-7.1023635e-07 1.6584484e-07 -3.1794653e-07 1.897973e-06 -1.2298784e-06 -6.990211e-07 2.8343604e-06 8.6506105e-07
-1.651195e-06 -1.5925121e-06 1.6358961e-06 3.6678234e-06 1.2994493e-06 -9.4369807e-07 -2.65704e-07 -2.3230086e-06
1.6179905e-07 -5.2861265e-07 1.8281318e-06 1.2813018e-06 -2.8194036e-06 1.0034025e-06 1.6838749e-06 9.379022e-07
2.8338952e-06 5.252512e-07 -3.0693232e-06 6.6635084e-07 -5.171263e-07 3.2101764e-06 -3.82326e-07 1.1456043e-06
6.636164e-07 -7.994044e-07 6.348131e-07 1.3896483e-06 1.0719275e-06 9.510218e-07 -1.3832735e-06 -3.4341308e-06
-1.5365415e-06 1.9432196e-06 1.2195545e-06 -1.7186377e-06 3.229421e-07 1.8054255e-06 2.9230066e-06 -1.2717746e-06
3.4304494e-06 8.3127105e-07 -2.5305721e-06 -1.3693468e-06 -1.0358026e-06 -1.1517983e-07 4.2674224e-06 1.2981984e-06
-2.1831877e-06 -1.4331699e-06 5.679372e-07 2.5568809e-06 1.0285792e-06 1.2880845e-06 -3.1383295e-06 1.3577921e-06
-4.29712e-07 3.7618677e-06 2.2143915e-06 1.2521186e-06 9.912999e-07 -6.8200606e-08 -1.6883013e-06 -4.2895117e-08
-5.6998505e-07 1.385661e-06 -1.8699159e-06 2.149481e-06 -1.1614907e-06 1.2449051e-07 -1.3365946e-06 9.576161e-07
-1.1076993e-06 3.572074e-07 -9.2817345e-08 -1.7589817e-07 1.0309111e-06 -1.1418828e-06 -1.7860335e-06 2.361452e-06
1.198485e-06 -2.6424254e-06 5.6863147e-08 5.68197e-07 3.4113668e-06 9.945218e-07 -1.7861629e-06 -1.900678e-06
-2.4532887e-06 1.5226127e-06 3.8440857e-07 1.4490079e-06 2.6666771e-06 -2.6005716e-06 4.2484362e-07 2.6614916e-06
6.042257e-07 1.0100092e-06 2.671713e-06 -1.765361e-06 9.70098e-07 -1.4071137e-06 2.3612424e-06 1.7353352e-06
3.191535e-06 1.1702888e-06 6.716175e-07 4.4071e-07 8.613044e-08 -5.076394e-07 -2.1811816e-07 -1.0143082e-06
-2.319076e-06 -2.049648e-06 1.7442514e-06 1.3269618e-06 -2.005767e-06 6.8095494e-07 1.5023032e-06 3.5487262e-06
-6.107562e-07 2.5821266e-06 -3.7357583e-07 -3.6847766e-06 -7.694359e-07 -1.4744259e-06 4.8326103e-07 4.6954256e-06
3.6536807e-07 -2.7178799e-06 -2.625418e-06 1.3918716e-06 2.3956914e-06 8.2571853e-07 -2.5964962e-07 -4.301339e-06

exp_avg_sq f4 [128, 81]
00000000: 681e bd2e 6df5 f62e 730c b02e f60f 482c
00000010: 24f6 b42f 9ceb 432c 6f86 942d 552a 972e
00000020: 28c9 a62e 69d3 3f2e 171f a82d d8d3 1a2e
00000030: e509 0030 4a17 2f2e 6d26 362d 47e7 402f
00000040: 2fea 482f fbe5 9c2c 39eb 072e 8e5e 892e
00000050: c072 642d debc 092e 0362 442e 3668 002f
00000060: 656e a52f c63d 5d2f f306 0f2d 0659 8d2c
00000070: 9299 cf2e 80b1 ef2e bd18 c12f 9256 af2c
00000080: 4ef3 102d 4fc0 e12c 8bf6 7d2e 48bf 172e
00000090: 9c99 602f f316 502c f943 a12c 1b6c 682e
000000a0: 7da5 ab2e 68c3 b62d d035 b22e 046b 552e
000000b0: 3c0a e12d 3b1e 3d2e b8fe 2830 8664 ef2e
000000c0: 5187 452c 4e41 0e2d fdb8 f62f b5ac 142f
000000d0: 42da 892e 7754 5d2b 11fd a82e b1ee 8a2d
000000e0: 6a45 6b2d 9680 a32e caeb 992d e2d4 032e
000000f0: 08e3 522d 9d7d f32d 6e53 052f 4be9 272e
00000100: 4543 032d feed ad2b aff7 0c2f afe3 c82d
00000110: aed1 582c 7ad1 b92d b67e 0730 fb9e 6a30
00000120: c3d8 a22c 8690 9e2c 249c bd2e f26f 072e
00000130: 7a1f 932f 4aff b42e f829 302d f072 1e2f
00000140: b2d8 dd2d 7fbb a82d 5be2 c02e 9469 a52d
00000150: 58f1 222d 8d00 882f db2e 532e f7ec 022d
00000160: 171c 212c 182d 472f 9c56 6a2d 5a5e f82b
00000170: 61de 0a2d 2cb5 1f2f b7ff 2e2e 995f cc2d
00000180: be37 882e ed1a 112e 30ba 9b2d 68e6 522d
00000190: f879 f32c 230e ed2d 37c1 122e be8b cd2d
000001a0: f096 982d 4826 2b2f 94bf 4c2f 1b7b ae2c
000001b0: a04f 722d a5c6 222d 08bc 642d ce4f 3a2e
000001c0: b8e0 342e 8eb7 042e b990 0b2e 6d89 992e
000001d0: 55ce 3d2f 4e28 ae2f ca03 292f 62a5 782c
000001e0: d154 ed2c dcd7 af2e d012 112f cad7 e62c
000001f0: 7978 c42c e4e1 202f 371e f72e 2801 b02e
00000200: 66e9 bd2d 9023 c12c 5f8d 5f2e bc75 5e2f
00000210: 0f2d 742e 976b 302e 1e14 312e d38f 4b2e
00000220: 036a da2c 552a ab2d bcf8 5f2e 247e ef2c
00000230: c5b5 b92c 3944 9c2e b205 512d bf71 a32e
00000240: d831 152e 087d 262e 50cd 0b2d 7f92 992c
00000250: 5878 882c 771d 7d2c 6d6f be2c f0aa a12e
00000260: b022 392e 3cdd 652d 1a4a 7b2c d2b8 642e
00000270: baab 0f2e 2eb5 9e2c aab3 282e 9336 922d
00000280: 8d8a 822d dd02 302d cbf0 082e 45ca 1f2d
00000290: ba39 2d2c b611 3d2c cf4c bf2d df9e 842d
000002a0: ea46 692d 81f5 872d 390d 442d 3786 a32d
000002b0: ad24 5c2c 5642 982e 14c1 0f2e 6cf5 b52e
000002c0: 4a98 552d 615f 402e da9e 152d 9aa4 472d
000002d0: ccb5 072f 3c7d 532d a777 ad2d 2a52 652e
000002e0: 2de7 7e2c 2129 0a2e 4b1e 612d 3d1f e42d
000002f0: a8d9 4f2c 8199 d42c 643d 9f2c 794e 642c
00000300: 3443 152e 72ef 382c d78a 972d b784 aa2d
00000310: 1ab7 992d e965 022e a7d9 b92d 45d3 a32e
00000320: 853b cb2d e863 992d 3a8c 1e2f f403 fc2d
00000330: 5818 872e 82a1 652d db4c 342d 4a40 242e
00000340: d3d4 202e c227 9d2c 13ed 5d2d 1249 b12c
00000350: 88f6 6e2e 1bce 422e 1a6a c32c fa7b 542e
00000360: 0808 322d 5ef0 1c2d e1fd 3c2d 1d75 452e
00000370: 8ed1 e72c eec5 db2e 1acd 0f2e 5299 e92d
00000380: b2ce 042e dc36 952e 8a01 c52d 96e8 ce2c
00000390: 2bc7 152d 7f10 612c 0b2c d72c 3960 b82c
000003a0: 6690 d82e eb59 022e f22a fd2b 6981 7a2e
000003b0: 41d1 db2d bb1d 922d 31e7 642d 272c 2d2f
000003c0: 377b 3b2d 23c6 572e 425c d52c cb08 0f2e
000003d0: a79e af2b 1ccd 552c d313 d22c 204a 332e
000003e0: b46e 352c ea86 ca2c ccd8 be2d e5f5 342c
000003f0: 73ed 032e 4f6f 8d2c 9808 e12e 45ce 932d
8.600126e-11 1.1230381e-10 8.005765e-11 2.843057e-12 3.2916703e-10 2.7841956e-12 1.6885352e-11 6.874205e-11
7.5845386e-11 4.3616142e-11 1.9113195e-11 3.52037e-11 4.658019e-10 3.9811078e-11 1.03540345e-11 1.7544464e-10
1.8273093e-10 4.4593196e-12 3.0904366e-11 6.246835e-11 1.2985779e-11 3.131794e-11 4.4652292e-11 1.1678555e-10
3.0091765e-10 2.0121779e-10 8.130152e-12 4.0173446e-12 9.44055e-11 1.0899992e-10 3.5124073e-10 4.9834104e-12
8.239477e-12 6.416235e-12 5.7744514e-11 3.4503317e-11 2.0427254e-10 2.9571317e-12 4.5834417e-12 5.284671e-11
7.805576e-11 2.0777782e-11 8.104062e-11 4.8525642e-11 2.5584083e-11 4.3000475e-11 6.148002e-10 1.0886318e-10
2.80705e-12 8.086266e-12 4.4878581e-10 1.352188e-10 6.268809e-11 7.863219e-13 7.684709e-11 1.5794784e-11
1.33736165e-11 7.435223e-11 1.7498798e-11 2.997503e-11 1.1987529e-11 2.7681685e-11 1.212592e-10 3.817861e-11
7.461425e-12 1.2358445e-12 1.2820921e-10 2.283848e-11 3.0811842e-12 2.1125091e-11 4.929278e-10 8.535463e-10
4.6283823e-12 4.5066754e-12 8.622461e-11 3.0794874e-11 2.676151e-10 8.230801e-11 1.0013761e-11 1.441085e-10
2.5221023e-11 1.9182654e-11 8.771358e-11 1.8805214e-11 9.262223e-12 2.4738647e-10 4.801746e-11 7.442261e-12
2.289507e-12 1.8114965e-10 1.3320591e-11 1.7647648e-12 7.89377e-12 1.4525331e-10 3.979014e-11 2.3234569e-11
6.194466e-11 3.2993098e-11 1.7704144e-11 1.1988278e-11 6.9200166e-12 2.6950059e-11 3.3368166e-11 2.336786e-11
1.7347429e-11 1.556596e-10 1.8621754e-10 4.959045e-12 1.3773788e-11 9.252742e-12 1.3002051e-11 4.2362384e-11
4.1126852e-11 3.0176354e-11 3.173348e-11 6.982046e-11 1.7262754e-10 3.1679054e-10 1.5371807e-10 3.5334726e-12
6.7453616e-12 7.996423e-11 1.3194357e-10 6.5609506e-12 5.58403e-12 1.4632168e-10 1.1237627e-10 8.003759e-11
2.1590462e-11 5.489338e-12 5.0829892e-11 2.023261e-10 5.5519197e-11 4.0113326e-11 4.0263008e-11 4.6284598e-11
6.2077023e-12 1.9459248e-11 5.092525e-11 6.806793e-12 5.2781967e-12 7.1061775e-11 1.1881539e-11 7.432587e-11
3.3922948e-11 3.785508e-11 7.946824e-12 4.364786e-12 3.8787133e-12 3.5969819e-12 5.4124955e-12 7.351797e-11
4.209494e-11 1.3066267e-11 3.571038e-12 5.200535e-11 3.266696e-11 4.510745e-12 3.835835e-11 1.6622514e-11
1.4840818e-11 1.00050775e-11 3.1136687e-11 9.0830165e-12 2.4616823e-12 2.6868347e-12 2.1748296e-11 1.5077216e-11
1.3260263e-11 1.5456749e-11 1.1144246e-11 1.8590558e-11 3.128424e-12 6.9239434e-11 3.2685923e-11 8.274523e-11
1.2141463e-11 4.374046e-11 8.5049415e-12 1.1348389e-11 1.2342766e-10 1.2021769e-11 1.972096e-11 5.2141548e-11
3.62239e-12 3.1414097e-11 1.2796496e-11 2.5934472e-11 2.9537293e-12 6.0424448e-12 4.5258675e-12 3.244431e-12
3.3938366e-11 2.6280892e-12 1.722837e-11 1.93857e-11 1.74754e-11 2.9649092e-11 2.1128722e-11 7.449911e-11
2.310486e-11 1.7438453e-11 1.4419835e-10 2.8650839e-11 6.1434136e-11 1.3053005e-11 1.0248881e-11 3.7346383e-11
3.6568814e-11 4.4666224e-12 1.2615037e-11 5.038755e-12 5.43339e-11 4.429355e-11 5.554013e-12 4.8313333e-11
1.0119912e-11 8.920946e-12 1.0742935e-11 4.489663e-11 6.58868e-12 9.9941264e-11 3.2696602e-11 2.6557121e-11
3.0196907e-11 6.7854805e-11 2.239699e-11 5.8806944e-12 8.513894e-12 3.198358e-12 6.1155573e-12 5.2402774e-12
9.848193e-11 2.963844e-11 1.7988651e-12 5.6958358e-11 2.4990345e-11 1.6611481e-11 1.3011634e-11 1.5749944e-10
1.06570785e-11 4.906132e-11 6.064067e-12 3.2522245e-11 1.2478533e-12 3.038298e-12 5.97076e-12 4.0765724e-11
2.57831e-12 5.7561638e-12 2.1696776e-11 2.5716037e-12 2.999685e-11 4.0198188e-12 1.0233342e-10 1.6803567e-11

exp_avg f4 [128, 32]
00000000: 388d 7ab4 f072 60b4 f201 7db4 1537 7fb4
00000010: 140b 6db4 7d39 3fb4 b85f 61b4 93ac e3b3
00000020: 7488 8634 3f35 89b4 4b21 83b4 c3e3 96b4
00000030: aa67 86b4 c430 8b34 6727 7434 1910 78b4
00000040: c498 93b4 0f4c 7db4 40f2 7834 359b 9ab4
00000050: 2dfe 90b4 7e69 9634 7c74 8034 00f8 88b4
00000060: e36d 5034 9d20 42b2 4b55 8fb4 19e2 8034
00000070: 6c8d 8fb4 aae9 7eb4 6401 7034 45ce a5b4
00000080: 24ec 65b4 f88f 22b4 eadc 60b4 7c4d 54b4
00000090: 010c 3db4 ec99 17b4 7452 32b4 7a99 b7b3
000000a0: 5b09 4c34 e5e1 68b4 93a3 4ab4 85f0 7db4
000000b0: 9bc5 4fb4 0730 6634 3fcb 5134 ee7b 52b4
000000c0: e7a4 6bb4 9657 51b4 6047 4f34 267c 85b4
000000d0: 861a 62b4 2784 5c34 5940 6034 33f4 5eb4
000000e0: 6301 3234 2634 e331 ff8c 72b4 1480 3e34
000000f0: 793c 6ab4 843d 44b4 efa7 3234 790e 87b4
00000100: e97e 08b4 ae3e f1b3 6e68 b0b3 59d2 0ab4
00000110: ba60 e7b3 144b c8b3 a479 c7b3 fb1e 91b3
00000120: 26ed 0634 dfe8 fbb3 90fd fdb3 0b4e 24b4
00000130: 50ed 06b4 5e98 0334 174f f533 2b80 ccb3
00000140: e555 18b4 326a 01b4 c498 1334 47af 23b4
00000150: fcfb 1cb4 30be 1634 f326 0034 bb45 15b4
00000160: 7224 a233 eb97 26b2 c87f 07b4 0555 0d34
00000170: c216 0db4 0087 fcb3 937e f833 fd7f 2fb4
00000180: ac86 92b4 16b2 66b4 4040 98b4 c694 70b4
00000190: db97 78b4 1776 59b4 615b 6db4 80d6 e2b3
000001a0: a7e5 9034 06d8 99b4 b5c8 89b4 d17c a2b4
000001b0: 00e6 89b4 8ab2 8f34 90a9 8734 2597 88b4
000001c0: aacf 98b4 b571 86b4 828c 8134 0189 a9b4
000001d0: ba2f 96b4 6a70 9334 717b 8d34 902c 9bb4
000001e0: 0c23 6134 edd1 3b32 a0da a0b4 51b9 7634
000001f0: 4735 9ab4 d751 86b4 471e 6334 59b1 aeb4
00000200: 7532 1bb4 418b fcb3 6e02 18b4 ed1e 17b4
00000210: 5b63 d5b3 4c16 cfb3 c75f f9b3 e67e 8bb3
00000220: ca1a 1034 f370 12b4 0957 24b4 4139 28b4
00000230: 3a20 10b4 cda5 1d34 c52b 0a34 2b5d 08b4
00000240: 02b4 20b4 2d2f 00b4 3b9e 0434 7a0f 34b4
00000250: ab27 2fb4 f227 1f34 4a82 1234 9908 25b4
00000260: 34be db33 6357 f9b0 80d2 24b4 4a8f 0c34
00000270: 4a51 22b4 51d6 01b4 16e8 0c34 0c2b 3eb4
00000280: 1269 8cb2 598b 64b2 8d72 88b2 6991 88b2
00000290: 48e2 56b2 62c9 42b2 dafa 60b2 9f73 e6b1
000002a0: 8001 8e32 fbac 89b2 8eee 91b2 461f a0b2
000002b0: fcb9 8db2 38b2 a232 03ee 7d32 e6d4 63b2
000002c0: 6c71 8eb2 757f 68b2 fa68 8132 8666 9fb2
000002d0: 2714 a5b2 84ec 9f32 9a90 6932 7ffe 8cb2
000002e0: 1bf6 3832 84e3 00b0 95f2 8bb2 4375 8132
000002f0: cc5b 97b2 7c84 7cb2 5b1c 8732 1221 aeb2
00000300: 0d99 d6b4 ca84 b0b4 12fb afb4 6ae9 c6b4
00000310: a6c5 b5b4 5f7d 90b4 d7c7 8cb4 eb17 61b4
00000320: eac4 c034 3bfe d0b4 25d3 b8b4 5798 e7b4
00000330: 34b9 cfb4 0279 d234 130f c834 db7b 9fb4
00000340: 65f7 d8b4 1cff beb4 19a8 b634 da94 f3b4
00000350: f4e0 d6b4 9580 de34 0d9a bd34 b2da c4b4
00000360: 783c 8534 c961 0432 a688 c6b4 b9ad c734
00000370: b559 dab4 de32 c9b4 3fa2 b834 f143 f8b4
00000380: a243 75b4 0b7e 73b4 bf90 72b4 39ca 72b4
00000390: c8b1 70b4 a03c b5b3 16ea 6db4 4d19 3bb3
000003a0: 7bac 7034 93ad 74b4 3e42 73b4 aff1 76b4
000003b0: 5ec9 74b4 601a 7534 ddc0 7234 0e28 70b4
000003c0: a997 74b4 8a10 70b4 eb9e 7234 1314 78b4
000003d0: 67a3 75b4 4fed 7634 a427 7034 6ce4 70b4
000003e0: 8658 6d34 1e7e 6cb2 4c7e 76b4 cb0b 7434
000003f0: c42d 75b4 49c7 72b4 5cec 6e34 26cc 79b4
-2.333444e-07 -2.090344e-07 -2.3563169e-07 -2.3768764e-07 -2.2076375e-07 -1.7809175e-07 -2.098958e-07 -1.0601902e-07
2.5058728e-07 -2.555698e-07 -2.4424875e-07 -2.8105396e-07 -2.503487e-07 2.592625e-07 2.2738605e-07 -2.3102656e-07
-2.7492035e-07 -2.3590131e-07 2.318493e-07 -2.8797663e-07 -2.7007027e-07 2.8016433e-07 2.3926611e-07 -2.5512418e-07
1.9411486e-07 -1.1299702e-08 -2.6697884e-07 2.4006366e-07 -2.6738724e-07 -2.37406e-07 2.2352248e-07 -3.0883726e-07
-2.1413194e-07 -1.5139801e-07 -2.0941994e-07 -1.9772227e-07 -1.7606364e-07 -1.4118967e-07 -1.6607538e-07 -8.549519e-08
1.9002384e-07 -2.1688864e-07 -1.8872224e-07 -2.3649962e-07 -1.9350266e-07 2.1437891e-07 1.9538582e-07 -1.960286e-07
-2.1946072e-07 -1.9496505e-07 1.9304343e-07 -2.486351e-07 -2.105754e-07 2.0537173e-07 2.0885035e-07 -2.07642e-07
1.6578046e-07 6.612498e-09 -2.25893e-07 1.7741723e-07 -2.1814948e-07 -1.8276302e-07 1.6638636e-07 -2.515624e-07
-1.2712157e-07 -1.12338384e-07 -8.214634e-08 -1.2928776e-07 -1.077437e-07 -9.3268824e-08 -9.288786e-08 -6.757724e-08
1.2565997e-07 -1.1730457e-07 -1.1827353e-07 -1.5302082e-07 -1.2566056e-07 1.2255757e-07 1.1423088e-07 -9.522804e-08
-1.4187351e-07 -1.2052695e-07 1.3746018e-07 -1.5244323e-07 -1.4620304e-07 1.4039028e-07 1.1935099e-07 -1.3902074e-07
7.550342e-08 -9.697014e-09 -1.2619341e-07 1.3162578e-07 -1.3139928e-07 -1.1759221e-07 1.15714236e-07 -1.6344707e-07
-2.7292606e-07 -2.1485207e-07 -2.8358954e-07 -2.2405865e-07 -2.3152045e-07 -2.025266e-07 -2.2105588e-07 -1.05629624e-07
2.6989184e-07 -2.8655649e-07 -2.5664272e-07 -3.0265667e-07 -2.5685586e-07 2.676573e-07 2.5269082e-07 -2.5441946e-07
-2.8463302e-07 -2.5042178e-07 2.4130355e-07 -3.1578386e-07 -2.7974403e-07 2.7462676e-07 2.6353112e-07 -2.8903423e-07
2.0967508e-07 1.0932564e-08 -2.9961393e-07 2.2977953e-07 -2.87235e-07 -2.501899e-07 2.1152037e-07 -3.2539063e-07
-1.4453856e-07 -1.17599946e-07 -1.4156987e-07 -1.4074222e-07 -9.936658e-08 -9.6432444e-08 -1.1612388e-07 -6.4957746e-08
1.3420791e-07 -1.36384e-07 -1.5305353e-07 -1.5667048e-07 -1.3422769e-07 1.4682082e-07 1.2868175e-07 -1.2699881e-07
-1.4966648e-07 -1.1938091e-07 1.2351022e-07 -1.6769437e-07 -1.6312576e-07 1.4822561e-07 1.3644708e-07 -1.536995e-07
1.023258e-07 -1.8141971e-09 -1.535027e-07 1.3090644e-07 -1.5116998e-07 -1.2092029e-07 1.3122948e-07 -1.7710789e-07
-1.6345926e-08 -1.3303031e-08 -1.5884575e-08 -1.5898609e-08 -1.250789e-08 -1.1338075e-08 -1.3095553e-08 -6.7070256e-09
1.6531658e-08 -1.6027562e-08 -1.6988704e-08 -1.8640673e-08 -1.6499136e-08 1.8940327e-08 1.4780656e-08 -1.32615465e-08
-1.6582554e-08 -1.3533158e-08 1.5065314e-08 -1.8556658e-08 -1.9217692e-08 1.8617591e-08 1.3595264e-08 -1.6413876e-08
1.07661675e-08 -4.688945e-10 -1.6292043e-08 1.5070901e-08 -1.7620458e-08 -1.4698454e-08 1.5728963e-08 -2.0271305e-08
-3.9971965e-07 -3.287917e-07 -3.2778968e-07 -3.7050205e-07 -3.3857685e-07 -2.691331e-07 -2.6222435e-07 -2.0963459e-07
3.590606e-07 -3.8927996e-07 -3.44263e-07 -4.3137945e-07 -3.8691508e-07 3.9203593e-07 3.726387e-07 -2.9706175e-07
-4.0413138e-07 -3.5575874e-07 3.402245e-07 -4.537058e-07 -4.002428e-07 4.1444278e-07 3.531608e-07 -3.6666967e-07
2.4817177e-07 7.705645e-09 -3.69798e-07 3.7193038e-07 -4.0670935e-07 -3.7476178e-07 3.439072e-07 -4.6243034e-07
-2.2842008e-07 -2.2676993e-07 -2.2590665e-07 -2.2611574e-07 -2.2416418e-07 -8.439497e-08 -2.2157505e-07 -4.356234e-08
2.241449e-07 -2.2787417e-07 -2.2655237e-07 -2.299846e-07 -2.2797528e-07 2.2826998e-07 2.260817e-07 -2.2366314e-07
-2.2779444e-07 -2.2357759e-07 2.259582e-07 -2.3104103e-07 -2.2876849e-07 2.2996868e-07 2.2366163e-07 -2.2434841e-07
2.210455e-07 -1.3765684e-08 -2.2956482e-07 2.2728561e-07 -2.2834053e-07 -2.2610506e-07 2.2251464e-07 -2.3264201e-07

exp_avg_sq f4 [128, 32]
00000000: 6b18 932f cc51 aa2e 9507 3e2f 2df1 362f
00000010: 0722 792f 1844 882f c267 2c2e a6ae d02e
00000020: c85e 902f 7592 742f b671 382f c1d4 802f
00000030: 5f8c 912e 950e 642f ea49 a42f 925b e12d
00000040: 976c 772f ecb8 022e e958 e42e 64f7 412f
00000050: ffb2 832f 11fa 132f f28b 862f e28a 642f
00000060: fcf6 522c 7999 0e2f cefa bd2f 39d2 472f
00000070: 11f4 6f2f 53fc 222f 7c4b 6b2f 7718 942f
00000080: d4b6 1b2e d6f6 5c2d 208b d32d 868e 932d
00000090: 5a62 152e 9e81 092e 78d5 c52c f68b 9d2d
000000a0: 645b 032e 46a2 092e 75f7 b92d b2e4 022e
000000b0: fe55 752d 23b1 d22d 9db4 1f2e 9557 b22c
000000c0: 26e9 012e f49a 0f2d 802b a22d e257 c72d
000000d0: 68c4 052e f66d b92d b978 f42d 4c94 072e
000000e0: 8834 7c2b c8f5 902d 5c1a 252e 411c c92d
000000f0: 6420 fe2d bf1e ed2d b87a ed2d 85eb 132e
00000100: 46fe a02d 85a6 092d c6df 0f2d 1815 642d
00000110: 6f40 7a2d d885 592d df81 592c 8810 c02c
00000120: d84b 822d 2edc 5e2d ab4c 502d d735 902d
00000130: fadb fd2c 16d3 5d2d c9fc ae2d 56cf 002c
00000140: 14df 692d e63c f02b 37a0 1f2d a3ef 4d2d
00000150: 9449 8c2d 7b3b 1c2d e1c6 9f2d eb25 852d
00000160: 37bd 142b 6c68 1c2d 4e0a d02d 9410 472d
00000170: 8ac7 6d2d 1b94 342d 46e3 832d 7707 852d
00000180: 2e76 7f2e 7df3 be2d 349a 262e fd0f f32d
00000190: 46a9 642e 8a95 542e ffe6 0e2d 893b d12d
000001a0: df0f 542e 7267 3b2e f058 172e de7c 542e
000001b0: 6490 992d 14bf 392e 1bcc 8d2e bbb5 bc2c
000001c0: 0175 372e d904 102d d7b7 e12d 1bd5 152e
000001d0: 4d3d 5d2e 299a e02d 5b01 542e 8485 542e
000001e0: cee3 a32b 30ae 062e 8274 9f2e 1087 312e
000001f0: f2f9 472e e828 1e2e e2ce 612e 7ef3 5d2e
00000200: daeb dd2d f377 bd2c 667c 9c2d 8cba a92d
00000210: 6444 8a2d ad67 c02d 94b1 8d2c 0d8f 282d
00000220: 935b cc2d 5bc0 b82d aebe 972d de87 cc2d
00000230: 2d60 ed2c 431c d42d 1dfe ef2d adc9 232c
00000240: 89fc ac2d 167f 762c d34b 202d 040b 752d
00000250: b206 ab2d 0253 542d fef9 d52d 39f1 b42d
00000260: 0f93 f02a ac39 882d 81f7 162e 6d6d 992d
00000270: c62a a32d 876c 662d 9b8c b22d 943c ea2d
00000280: 5387 502d 2493 422c 0a9b ea2c 0794 042d
00000290: 5170 0b2d bcd8 3d2d b907 d72b 470b 662c
000002a0: d2c9 412d 0007 202d 0fa6 012d da55 292d
000002b0: 2b01 362c 4a55 2c2d 9f62 642d 674a 4a2b
000002c0: 354e 142d f6bb 932b 0457 4b2c 8488 0f2d
000002d0: c88f 192d 6241 a12c 7c04 312d a9f4 132d
000002e0: 2703 832a 4943 b32c b441 8b2d 9a0f 072d
000002f0: ade2 282d f556 d72c df2f 312d 8083 512d
00000300: 9e47 c82f 79e5 5a2f e47b ad2f 8a0d 822f
00000310: ca15 c12f 8cd8 992f 3c8e c22e 68ba 662f
00000320: 0c7e 9a2f 5dd9 a32f 2b9b 832f ddcf ad2f
00000330: 4bae 452f 1590 a02f 27c5 d12f 402c 7c2e
00000340: 2928 992f 8a3d e32e b9a7 8d2f beea 602f
00000350: 03be be2f d02f 572f bbb5 b22f 7b51 bb2f
00000360: 6e95 852d 98f4 7d2f 2169 db2f e78d 932f
00000370: b3e0 b02f 19aa 8f2f a290 a62f 00d4 ab2f
00000380: 5a75 502e 8dc7 112e a7b1 3a2e 74ff 312e
00000390: a1c0 492e a5d7 fa2d 8596 e72d c820 8c2d
000003a0: 22a0 362e f7b5 382e cbfa 242e 37c1 3d2e
000003b0: 58a9 fe2d 0d2b 372e e363 5d2e 3b34 ca2d
000003c0: 7ace 3b2e 9225 db2d 82d3 1d2e 54f2 1f2e
000003d0: 8926 4d2e 30a4 132e b42f 4a2e deb9 402e
000003e0: 40ff c02d 0129 732d 20ca 6b2e f6e2 2c2e
000003f0: 8b9c 422e d41c 2a2e 340d 302e 8210 482e
2.6756494e-10 7.745235e-11 1.7283093e-10 1.6638486e-10 2.2658507e-10 2.478664e-10 3.9200428e-11 9.489769e-11
2.6260794e-10 2.2243703e-10 1.6775101e-10 2.3434235e-10 6.6187715e-11 2.074166e-10 2.9883945e-10 2.5620204e-11
2.2503098e-10 2.972282e-11 1.0384033e-10 1.7641139e-10 2.3955946e-10 1.3458414e-10 2.4473895e-10 2.078582e-10
2.9979899e-12 1.2969349e-10 3.4557107e-10 1.817363e-10 2.1823633e-10 1.4823458e-10 2.1399943e-10 2.6938426e-10
3.5405304e-11 1.2560361e-11 2.4049707e-11 1.6775258e-11 3.396603e-11 3.1265317e-11 5.6227765e-12 1.7910989e-11
2.9867123e-11 3.129432e-11 2.1141958e-11 2.97617e-11 1.3945732e-11 2.39529e-11 3.631283e-11 5.068788e-12
2.953828e-11 8.163015e-12 1.8436586e-11 2.2662709e-11 3.0415143e-11 2.1080897e-11 2.77932e-11 3.082716e-11
8.9601286e-13 1.6480053e-11 3.754007e-11 2.2863602e-11 2.8890841e-11 2.6957435e-11 2.6998279e-11 3.3633114e-11
1.8302814e-11 7.824523e-12 8.178297e-12 1.2964983e-11 1.4225162e-11 1.2364741e-11 3.0909648e-12 5.4588035e-12
1.481297e-11 1.2668129e-11 1.1840455e-11 1.6394814e-11 7.215115e-12 1.2609266e-11 1.9893769e-11 1.8304989e-12
1.329405e-11 1.7069928e-12 9.0736784e-12 1.1706111e-11 1.5948833e-11 8.880781e-12 1.8164527e-11 1.5137188e-11
5.284275e-13 8.89076e-12 2.3651438e-11 1.13155214e-11 1.3516197e-11 1.0264701e-11 1.4993905e-11 1.5123664e-11
5.8085252e-11 2.170863e-11 3.788099e-11 2.7633002e-11 5.1991543e-11 4.8336037e-11 8.123057e-12 2.3786988e-11
4.8217316e-11 4.2610755e-11 3.4412417e-11 4.8314124e-11 1.7458208e-11 4.223384e-11 6.448194e-11 5.3634575e-12
4.1713303e-11 8.186529e-12 2.566118e-11 3.4067953e-11 5.030403e-11 2.5534313e-11 4.8204423e-11 4.8321805e-11
1.1645075e-12 3.0622782e-11 7.251179e-11 4.03651e-11 4.5469357e-11 3.5961373e-11 5.1342826e-11 5.0465847e-11
2.522953e-11 5.38502e-12 1.779039e-11 1.9295919e-11 1.5719155e-11 2.1873914e-11 4.027176e-12 9.581458e-12
2.3232782e-11 2.1003801e-11 1.7251391e-11 2.3252452e-11 6.746623e-12 2.411416e-11 2.7284003e-11 2.3275646e-12
1.9666284e-11 3.502925e-12 9.111783e-12 1.3929084e-11 1.9443423e-11 1.2069236e-11 2.4326315e-11 2.0570755e-11
4.2734607e-13 1.5487021e-11 3.432588e-11 1.7442681e-11 1.854995e-11 1.3098084e-11 2.0298698e-11 2.6629622e-11
1.1853479e-11 2.7650738e-12 6.667893e-12 7.5362e-12 7.9261745e-12 1.0791531e-11 1.5278812e-12 3.2691226e-12
1.1015593e-11 9.096501e-12 7.3696734e-12 9.625601e-12 2.5864404e-12 9.796006e-12 1.2982198e-11 7.186807e-13
8.4301914e-12 1.0497148e-12 2.8896338e-12 8.1589215e-12 8.728969e-12 4.583154e-12 1.0062281e-11 8.410308e-12
2.3272462e-13 5.094956e-12 1.5831648e-11 7.677326e-12 9.6000265e-12 6.1203217e-12 1.0071915e-11 1.1909473e-11
3.6430675e-10 1.990851e-10 3.1556546e-10 2.3656482e-10 3.5121978e-10 2.7984404e-10 8.8473645e-11 2.0984603e-10
2.8101999e-10 2.9803973e-10 2.3939015e-10 3.1616212e-10 1.7978967e-10 2.9206207e-10 3.8156964e-10 5.7337468e-11
2.7859073e-10 1.03336964e-10 2.5766925e-10 2.0456078e-10 3.469581e-10 1.9571123e-10 3.250714e-10 3.4072997e-10
1.518671e-11 2.3097113e-10 3.9910567e-10 2.6839972e-10 3.2173872e-10 2.613241e-10 3.0297992e-10 3.1255354e-10
4.7397954e-11 3.314642e-11 4.244929e-11 4.047203e-11 4.5873198e-11 2.8517475e-11 2.6328504e-11 1.5930715e-11
4.1524235e-11 4.1998374e-11 3.751203e-11 4.3145234e-11 2.895166e-11 4.164762e-11 5.03383e-11 2.2987936e-11
4.2702265e-11 2.4914102e-11 3.5885524e-11 3.6367645e-11 4.664583e-11 3.3569758e-11 4.597185e-11 4.382083e-11
2.1941227e-11 1.38220555e-11 5.3612337e-11 3.9309854e-11 4.424953e-11 3.867913e-11 4.0029494e-11 4.5489397e-11

exp_avg f4 [128]
00000000: 0e2e 15b7 b738 a4b6 07cf c2b6 5d8a fcb6
00000010: 8794 beb6 62a7 93b5 d392 0ab7 6cb2 90b5
00000020: 67b6 80b6 c45f 9fb6 d894 82b6 d2fb 98b6
00000030: 7279 b3b6 a0a5 92b6 36f5 e6b6 d9e3 a9b6
00000040: 0a03 8fb6 bb35 b5b6 d6be b6b6 258d 28b6
00000050: 87ea 07b7 ca72 87b6 36c0 73b6 2577 53b6
00000060: 2ee1 aeb6 9df2 7eb5 38e8 d5b6 331c 4cb6
00000070: 1207 b8b6 99c6 ebb6 0998 4cb6 df20 b4b6
00000080: 92b1 96b4 d4f9 a3b4 4c3b 81b4 1b16 a4b4
00000090: 22fb 82b4 a230 08b3 6d8a d9b4 818e 29b4
000000a0: 6b97 32b4 8392 b3b4 6624 77b4 64ad 96b4
000000b0: 48c7 a2b4 4e95 a1b4 4424 b3b4 d299 c9b4
000000c0: 225a 88b4 db78 8cb4 c9f0 9db4 0296 65b4
000000d0: 65b6 f3b4 3598 a7b4 4011 49b4 4445 59b4
000000e0: dfec e8b4 e479 cbb4 a92d acb4 d515 5eb4
000000f0: 3c21 d0b4 7eee 9ab4 c0d1 16b4 7479 acb4
00000100: 3e5b e0b6 3792 02b7 6dc9 3ab7 1f20 24b7
00000110: 03ab c7b6 d829 d1b5 0121 1db7 dbb0 d1b5
00000120: 40d5 d236 ea9c 1bb7 39af b7b6 ac5b c1b6
00000130: 8566 86b6 a08c dd36 3947 2437 18c8 1cb7
00000140: 70ce f0b6 23ad f5b6 e02d 1f37 e07e 62b6
00000150: 868f 1bb7 195a fa36 760f 1437 c049 96b6
00000160: 3b62 2837 5b35 a4b4 829b 0ab7 6036 a836
00000170: 2a82 d0b6 5a8e ebb6 a272 b936 38e4 f1b6
00000180: 0348 eab6 609d ccb6 004b dab6 2d77 23b7
00000190: 74ee c5b6 39a6 7cb6 ab37 56b7 eb55 fab5
000001a0: f98c edb6 a8a1 d7b6 4d73 00b7 0514 18b7
000001b0: 24e6 b0b6 f36e c0b6 bf7d dbb6 aace edb6
000001c0: 4015 30b7 872c 2db7 d341 9db6 e11d 35b7
000001d0: 4454 c1b6 a37b 3eb7 6bf4 12b7 8ff8 95b6
000001e0: 596b 03b7 4c80 c5b5 f9cd e0b6 696a a4b6
000001f0: 5eb3 02b7 fbda f1b6 e98c ddb6 ddc4 22b7
-8.891815e-06 -4.8941833e-06 -5.8057517e-06 -7.526293e-06 -5.679732e-06 -1.1001068e-06 -8.259626e-06 -1.0780764e-06
-3.8359317e-06 -4.749718e-06 -3.8916296e-06 -4.5592687e-06 -5.348754e-06 -4.3704204e-06 -6.8830805e-06 -5.0631174e-06
-4.262086e-06 -5.4004754e-06 -5.446239e-06 -2.5116108e-06 -8.101232e-06 -4.0366767e-06 -3.6321703e-06 -3.1510801e-06
-5.2118185e-06 -9.497542e-07 -6.3749285e-06 -3.0414783e-06 -5.4844504e-06 -7.0266656e-06 -3.0486865e-06 -5.3682447e-06
-2.8068877e-07 -3.054289e-07 -2.4071267e-07 -3.0563464e-07 -2.439711e-07 -3.17092e-08 -4.0520118e-07 -1.5791194e-07
-1.6632627e-07 -3.344795e-07 -2.3016909e-07 -2.8065836e-07 -3.0319848e-07 -3.009722e-07 -3.3367735e-07 -3.7551087e-07
-2.5397554e-07 -2.6164966e-07 -2.9418723e-07 -2.138186e-07 -4.5394987e-07 -3.121692e-07 -1.8725859e-07 -2.0234899e-07
-4.3385714e-07 -3.7900384e-07 -3.207072e-07 -2.0683304e-07 -3.87672e-07 -2.885826e-07 -1.4046145e-07 -3.2125865e-07
-6.686342e-06 -7.782647e-06 -1.1133362e-05 -9.7826405e-06 -5.9505705e-06 -1.5583892e-06 -9.365614e-06 -1.5623185e-06
6.2833133e-06 -9.275254e-06 -5.4742236e-06 -5.7625202e-06 -4.005446e-06 6.602684e-06 9.791745e-06 -9.3449125e-06
-7.17659e-06 -7.3217248e-06 9.48782e-06 -3.3750475e-06 -9.272137e-06 7.4610693e-06 8.825087e-06 -4.478934e-06
1.0036451e-05 -3.0586202e-07 -8.261648e-06 5.0131202e-06 -6.214036e-06 -7.0201177e-06 5.5267747e-06 -7.208928e-06
-6.9821267e-06 -6.0979946e-06 -6.5056374e-06 -9.743305e-06 -5.898817e-06 -3.764768e-06 -1.2768355e-05 -1.8651457e-06
-7.079562e-06 -6.4263186e-06 -7.65624e-06 -9.064567e-06 -5.2720006e-06 -5.734962e-06 -6.5413474e-06 -7.0872093e-06
-1.0495365e-05 -1.0321971e-05 -4.6866276e-06 -1.0795397e-05 -5.761658e-06 -1.1353669e-05 -8.759186e-06 -4.469482e-06
-7.833202e-06 -1.4714983e-06 -6.6996986e-06 -4.8999686e-06 -7.790366e-06 -7.2078524e-06 -6.6027173e-06 -9.701788e-06

exp_avg_sq f4 [128]
00000000: 0857 9f30 9907 b22e 3953 ab2e 03a4 462f
00000010: 0362 e72e ae96 992e cd95 2a30 bb63 b42e
00000020: a9ca 5d2f f216 3a2f 257c 3b2e 0105 be2e
00000030: bac0 e52e 5902 ec2e 9d91 b62f a267 a42f
00000040: dd5f 292e fbbb 0b2f 5a35 0b2f 16b3 fb2d
00000050: 62b7 0c30 1ac2 ce2e 7fcf 5a2e f7fd 262e
00000060: 087b 0230 2b4a 162e 1232 6c2f 4e30 3f2e
00000070: 005c 402f 367b 4830 7f81 1a2d 210d 192f
00000080: 9b9d eb30 79f0 4730 df75 3030 232a 2530
00000090: fbc3 fe2f 101c 482f 60f4 b230 7ee8 ac2f
000000a0: 9035 0330 0a17 8130 c3c4 a92f b4db cd2f
000000b0: f3a9 332f b63f dc2f f303 8630 354b 5530
000000c0: 4a1f 842f c4a6 c72f a869 6530 2a56 d62e
000000d0: 6c60 b530 2a99 ca2f 25d6 ed2f a760 2730
000000e0: ee02 e530 d0f0 5c2f 66b2 2a30 0945 dc2f
000000f0: 2b01 a130 6327 9530 eaac ac2f 867f a22f
00000100: bf46 cf30 026d cb30 b351 5131 0d4e b230
00000110: e46e 4a30 5899 8f2f 7e0b 8b30 9a87 4530
00000120: 951c 7b30 994b 7431 5cc6 5530 c071 1830
00000130: 7385 732f bd70 2830 629a 2631 bfac 8530
00000140: 16af e12f c144 2b30 f025 0a31 dc1a 3d2f
00000150: 39af f730 6e92 8230 78c5 3231 bea7 2530
00000160: 87a7 3a31 6ee2 642f 9a89 b730 3758 6330
00000170: 1db1 a730 0a92 6430 2d49 5f30 2d11 ff2f
00000180: d1a2 6031 0eea 8930 8048 0331 1b46 c631
00000190: b6b0 ac30 d77d dd30 5335 2732 7e17 9230
000001a0: 7eaa 2e31 69ee 2d31 7ef0 7831 a4a0 7231
000001b0: 9474 f92f 1ee3 df30 481c 1b31 b8e8 2931
000001c0: 3869 c831 58cd be31 c035 8130 1ce4 8f31
000001d0: 15ef 0031 fa05 5a32 45ef 3831 a36b 1e30
000001e0: 58f7 3631 8feb 1b31 261c 3731 7bbe 6c30
000001f0: 6e43 2131 0dbb 2031 f8e3 d130 0864 c931
1.1593508e-09 8.0958525e-11 7.790963e-11 1.8066264e-10 1.0522074e-10 6.9844006e-11 6.205852e-10 8.203168e-11
2.0171832e-10 1.6924753e-10 4.262914e-11 8.6410885e-11 1.04479495e-10 1.07324545e-10 3.3209072e-10 2.9905062e-10
3.8511295e-11 1.270876e-10 1.266093e-10 2.8614926e-11 5.1192306e-10 9.402275e-11 4.9751755e-11 3.7969596e-11
4.746856e-10 3.4171926e-11 2.1481864e-10 4.3471275e-11 1.7494983e-10 7.293467e-10 8.78264e-12 1.3919933e-10
1.7143295e-09 7.273751e-10 6.419593e-10 6.008653e-10 4.6341583e-10 1.8199864e-10 1.302066e-09 3.1451813e-10
4.773364e-10 9.392533e-10 3.0880729e-10 3.744539e-10 1.6340333e-10 4.0063036e-10 9.750906e-10 7.7595824e-10
2.4032892e-10 3.6316383e-10 8.345986e-10 9.746899e-11 1.3196888e-09 3.6852416e-10 4.3262208e-10 6.08916e-10
1.6662776e-09 2.0094437e-10 6.209916e-10 4.006682e-10 1.1714624e-09 1.0852371e-09 3.140948e-10 2.955824e-10
1.508134e-09 1.4801176e-09 3.0459943e-09 1.2973388e-09 7.3644757e-10 2.6120506e-10 1.0116847e-09 7.1860884e-10
9.1353886e-10 3.5549645e-09 7.7770834e-10 5.5458926e-10 2.2148132e-10 6.1278255e-10 2.4243936e-09 9.726121e-10
4.1051668e-10 6.2307143e-10 2.0103208e-09 1.7198992e-10 1.8021417e-09 9.500363e-10 2.6014657e-09 6.0265026e-10
2.716179e-09 2.0816923e-10 1.3354111e-09 8.270748e-10 1.2201188e-09 8.315345e-10 8.1230916e-10 4.6396434e-10
3.268884e-09 1.0034584e-09 1.910422e-09 5.7705285e-09 1.2564871e-09 1.6115632e-09 9.732804e-09 1.0629575e-09
2.5417246e-09 2.5310334e-09 3.6225454e-09 3.5306948e-09 4.537567e-10 1.6289936e-09 2.2571545e-09 2.4725022e-09
5.832728e-09 5.5530727e-09 9.401262e-10 4.187781e-09 1.8762354e-09 1.2690629e-08 2.6911533e-09 5.7633026e-10
2.6625084e-09 2.2689368e-09 2.6646005e-09 8.612699e-10 2.3466913e-09 2.338939e-09 1.5271544e-09 5.861242e-09
