lightning_logs/version_38/checkpoints/epoch=584.ckpt (torch_old, 51529 bytes, 21 tensors)

exp_avg f4 [84, 36]
-2.5819352e-08 1.0965876e-08 -9.412113e-09 -4.8843933e-08 1.3791403e-08 -7.389768e-08 4.8285084e-08 -5.6613544e-08
2.752589e-08 -2.260671e-08 -1.1313836e-08 2.8309499e-08 -3.603937e-08 -6.216951e-08 -2.1544718e-08 1.4198218e-09
-4.6166583e-08 -2.2770523e-09 1.1559483e-08 2.3674987e-08 1.4751348e-08 -2.156234e-08 -5.7073027e-08 4.9731073e-09
2.3427093e-08 -4.5279087e-08 -5.0476118e-08 -3.4449368e-08 3.9042984e-08 8.90278e-08 -5.046231e-08 5.0532822e-08
-4.2965624e-08 2.19427e-09 -1.4683953e-08 7.7910806e-10 6.644567e-08 -7.978995e-08 4.674281e-07 4.0561574e-07
-4.11847e-07 1.9112285e-07 8.525955e-07 -4.4893102e-07 7.573784e-07 -4.789087e-07 8.244427e-07 7.0041374e-08
6.9598036e-07 7.5950965e-07 -9.0905655e-07 -1.815235e-07 5.201256e-07 6.761815e-07 -9.746228e-07 -3.4485848e-07
6.1443666e-07 -3.5093913e-07 3.0903857e-07 5.455294e-07 3.937237e-07 -5.942104e-07 -2.845455e-07 -2.208149e-07
3.5671104e-07 8.200334e-07 6.6782155e-07 -8.7412855e-07 2.4094007e-07 1.1272976e-07 2.5148876e-07 -3.9575502e-07
4.877805e-08 -3.0389263e-08 2.7628086e-08 2.2033209e-08 7.03035e-08 1.0306455e-07 1.4782338e-08 8.6240526e-08
-7.462546e-08 8.584895e-08 2.805369e-08 1.7215596e-08 2.6139446e-08 4.8402708e-08 4.795085e-08 4.121733e-08
2.5263335e-08 -9.105957e-08 -2.3064805e-08 1.932155e-08 -7.352492e-08 -6.239489e-08 -2.460314e-09 1.3641936e-08
-5.971353e-08 8.250911e-08 1.747443e-08 -2.2538567e-08 -1.3547552e-07 -1.3531749e-07 4.544174e-08 -2.036856e-08
5.6207725e-08 2.571295e-08 -1.8847032e-08 1.3497625e-08 -1.3903998e-07 6.900879e-08 1.3227718e-07 1.254855e-07
-4.265651e-08 1.12997604e-07 1.6615655e-07 2.620535e-09 2.0789255e-07 1.7417293e-09 8.924307e-08 -3.5640173e-08
3.1527968e-08 -2.1700638e-08 -2.5388253e-08 -1.1028297e-07 1.06056504e-07 1.2306353e-07 3.2172212e-09 -3.255278e-08
7.284089e-08 6.5620306e-08 -1.9537593e-08 5.6219264e-08 5.0376364e-08 -3.1303244e-08 -1.4962221e-07 7.641631e-08
4.8916945e-08 9.928296e-08 2.8227982e-08 9.6589915e-08 -5.729316e-08 1.3890437e-07 9.5562925e-08 7.545589e-08
0.0 0.0 0.0 0.0 0.0 0.0 0.0 0.0
0.0 0.0 0.0 0.0 0.0 0.0 0.0 0.0
0.0 0.0 0.0 0.0 0.0 0.0 0.0 0.0
0.0 0.0 0.0 0.0 0.0 0.0 0.0 0.0
0.0 0.0 0.0 0.0 1.1313531e-07 -1.8428683e-08 -8.021237e-08 1.3470896e-07
-4.6161816e-08 -2.1677096e-08 1.0225036e-08 8.256836e-08 1.1600009e-09 -5.442094e-08 5.404867e-08 -1.1976834e-07
-1.835218e-08 1.7969607e-07 -6.9272446e-08 -1.8866982e-07 3.549556e-08 1.2872236e-07 -8.653788e-08 -2.9500782e-08
6.0843895e-08 1.1825256e-07 1.2819334e-07 -7.156234e-08 1.4562248e-07 5.5817445e-08 8.707864e-08 -1.0877924e-08
-3.5043515e-09 -1.0926223e-07 6.58092e-08 -1.6887557e-07 1.3752023e-07 -1.9480064e-08 -6.955218e-09 7.660069e-08
0.0 0.0 0.0 0.0 0.0 0.0 0.0 0.0
0.0 0.0 0.0 0.0 0.0 0.0 0.0 0.0
0.0 0.0 0.0 0.0 0.0 0.0 0.0 0.0
0.0 0.0 0.0 0.0 0.0 0.0 0.0 0.0
0.0 0.0 0.0 0.0 3.0452874e-09 -5.1450697e-09 3.780112e-09 -5.0271236e-08
00000000: 5bc9 ddb2 6f64 3c32 e9b2 21b2 79c8 51b3
00000010: 3bef 6c32 aeb1 9eb3 0362 4f33 4027 73b3
00000020: 1272 ec32 ae30 c2b2 c75e 42b2 3f2d f332
00000030: b5c9 1ab3 0d82 85b3 5611 b9b2 8a23 c330
00000040: b248 46b3 547a 1cb1 2597 4632 d95d cb32
00000050: 1d6d 7d32 1638 b9b2 7520 75b3 eadf aa31
00000060: b93c c932 e278 42b3 14cb 58b3 7bf5 13b3
00000070: 37b0 2733 8d2f bf33 e6bb 58b3 6d09 5933
00000080: 3489 38b3 02ca 1631 b544 7cb2 db28 5630
00000090: e5b0 8e33 fd58 abb3 d4f2 fa34 67c3 d934
000000a0: d21b ddb4 7337 4d34 ebdd 6435 9c04 f1b4
000000b0: a64e 4b35 5b8e 00b5 454f 5d35 a769 9633
000000c0: 68d3 3a35 1be1 4b35 e405 74b5 cde8 42b4
000000d0: c29e 0b35 d782 3535 c9cf 82b5 fd24 b9b4
000000e0: c4ef 2435 b568 bcb4 f0e9 a534 7f70 1235
000000f0: f960 d334 d481 1fb5 a3c3 98b4 2319 6db4
00000100: fe81 bf34 4420 5c35 5944 3335 a8a5 6ab5
00000110: 8d5a 8134 d715 f233 5a04 8734 2878 d4b4
00000120: 0880 5133 5985 02b3 ce52 ed32 8a43 bd32
00000130: c2f9 9633 5654 dd33 69f5 7d32 3b33 b933
00000140: c841 a0b3 f65b b833 b7fa f032 7fe1 9332
00000150: 4089 e032 57e3 4f33 84f2 4d33 ef06 3133
00000160: a902 d932 878c c3b3 0b20 c6b2 8af8 a532
00000170: c1e4 9db3 f4fd 85b3 4d12 29b1 de5d 6a32
00000180: dc3b 80b3 dd2f b133 ae1a 9632 d59a c1b2
00000190: 3a77 11b4 ca4b 11b4 b92b 4333 f0f6 aeb2
000001a0: 0c69 7133 60df dc32 10e5 a1b2 2fe3 6732
000001b0: 054b 15b4 fc31 9433 1308 0e34 31bd 0634
000001c0: 5435 37b3 17a9 f233 c468 3234 f014 3431
000001d0: 1239 5f34 a761 ef30 e6a5 bf33 c912 19b3
000001e0: 5e69 0733 3568 bab2 5c15 dab2 b4d4 ecb3
000001f0: 2ec1 e333 7223 0434 f415 5d31 29d0 0bb3
00000200: b46c 9c33 25eb 8c33 9fd3 a7b2 bc75 7133
00000210: 665d 5833 4872 06b3 d7a7 20b4 501a a433
00000220: c018 5233 6235 d533 fd79 f232 de6c cf33
00000230: 7f12 76b3 be25 1534 4638 cd33 500a a233
00000240: 0000 0000 0000 0000 0000 0000 0000 0000
00000250: 0000 0000 0000 0000 0000 0000 0000 0000
00000260: 0000 0000 0000 0000 0000 0000 0000 0000
00000270: 0000 0000 0000 0000 0000 0000 0000 0000
00000280: 0000 0000 0000 0000 0000 0000 0000 0000
00000290: 0000 0000 0000 0000 0000 0000 0000 0000
000002a0: 0000 0000 0000 0000 0000 0000 0000 0000
000002b0: 0000 0000 0000 0000 0000 0000 0000 0000
000002c0: 0000 0000 0000 0000 0000 0000 0000 0000
000002d0: cbf4 f233 1a4d 9eb2 3741 acb3 84a4 1034
000002e0: 7443 46b3 7034 bab2 2faa 2f32 7050 b133
000002f0: e76d 9f30 75bc 69b3 2423 6833 ac99 00b4
00000300: dfa4 9db2 7bf2 4034 eec2 94b3 2a95 4ab4
00000310: c873 1833 ef36 0a34 b4d6 b9b3 e868 fdb2
00000320: 49a9 8233 08f2 fd33 84a5 0934 d0ad 99b3
00000330: 675c 1c34 eebb 6f33 fdff ba33 9ee1 3ab2
00000340: 34d1 70b1 8ca3 eab3 fe52 8d33 2a54 35b4
00000350: 46a9 1334 1d55 a7b2 bffa eeb1 ad7f a433
00000360: 0000 0000 0000 0000 0000 0000 0000 0000
00000370: 0000 0000 0000 0000 0000 0000 0000 0000
00000380: 0000 0000 0000 0000 0000 0000 0000 0000
00000390: 0000 0000 0000 0000 0000 0000 0000 0000
000003a0: 0000 0000 0000 0000 0000 0000 0000 0000
000003b0: 0000 0000 0000 0000 0000 0000 0000 0000
000003c0: 0000 0000 0000 0000 0000 0000 0000 0000
000003d0: 0000 0000 0000 0000 0000 0000 0000 0000
000003e0: 0000 0000 0000 0000 0000 0000 0000 0000
000003f0: 4345 5131 83c8 b0b1 37e2 8131 cfe9 57b3

exp_avg_sq f4 [84, 36]
1.4786565e-10 2.3177814e-10 2.829459e-10 5.1262666e-10 1.6536333e-11 2.9760322e-10 3.0726718e-10 5.2907706e-11
2.072428e-10 3.7126854e-11 1.2853232e-10 3.4296562e-11 7.059586e-11 6.2001244e-11 8.919312e-11 1.4681317e-10
7.883055e-11 2.8601296e-10 4.142725e-11 2.3971258e-10 1.5673382e-10 1.8337086e-10 1.2988503e-10 2.9560257e-11
2.2160897e-10 5.6779054e-11 1.5612042e-10 7.346056e-11 7.136819e-11 1.14355234e-10 1.8469702e-10 1.2657193e-10
1.4011582e-10 8.248362e-11 1.7558115e-10 2.5258937e-11 2.2745189e-10 1.5313696e-10 5.1022986e-10 2.354009e-10
1.9074615e-10 4.0545967e-10 1.0750112e-10 1.8745334e-10 1.00195865e-10 4.1448522e-10 4.859982e-10 2.8812444e-10
1.8773484e-10 3.191427e-11 3.1179928e-10 3.285779e-10 1.11192514e-10 2.65162e-10 2.0823158e-10 9.586763e-11
1.9952212e-10 2.5093355e-10 1.3802816e-10 2.5490907e-10 9.979052e-11 1.644912e-10 1.10222095e-10 6.980159e-11
5.492959e-10 1.4179394e-10 1.8066706e-10 3.182673e-10 2.2128897e-10 2.5532745e-10 1.7255222e-10 9.851488e-11
6.63269e-11 1.314786e-10 2.8622893e-10 4.24733e-10 4.4338488e-11 1.8892245e-10 4.670638e-10 6.0733814e-11
3.3247682e-10 1.2127317e-10 1.0197482e-10 8.255087e-11 3.1344143e-11 2.1746459e-10 4.7383575e-10 6.4325706e-10
1.4607499e-10 1.2812869e-10 1.1582156e-10 4.1062324e-11 1.0359196e-10 3.7344083e-10 5.434509e-10 2.1171083e-10
3.5261302e-10 7.6384704e-11 4.988887e-10 2.566061e-10 2.8745367e-10 3.7167286e-10 2.1077136e-10 4.6579424e-10
3.3955896e-10 4.5270737e-10 1.6331646e-10 3.4264293e-11 1.5109092e-10 5.278477e-11 7.8791246e-10 7.892884e-10
3.1059943e-11 4.005641e-11 8.0927953e-10 1.0428752e-10 1.15114286e-10 1.3421707e-10 3.115364e-10 3.639327e-11
3.8378477e-11 4.4668888e-10 7.793309e-10 2.9197336e-10 5.854879e-11 4.4377665e-10 7.686839e-11 3.4388062e-11
4.1454692e-10 1.5121883e-10 1.6684049e-10 4.170136e-11 8.763594e-10 3.742603e-11 1.8711412e-10 4.677543e-10
2.6861868e-10 7.116229e-11 6.1283495e-10 1.8712254e-10 1.9494595e-10 4.5036494e-10 2.8862294e-11 1.4394523e-11
0.0 0.0 0.0 0.0 0.0 0.0 0.0 0.0
0.0 0.0 0.0 0.0 0.0 0.0 0.0 0.0
0.0 0.0 0.0 0.0 0.0 0.0 0.0 0.0
0.0 0.0 0.0 0.0 0.0 0.0 0.0 0.0
0.0 0.0 0.0 0.0 1.4435034e-10 7.3273346e-11 5.7252136e-10 4.1732506e-10
4.473554e-11 2.535157e-10 3.1072406e-10 2.606819e-10 1.1182804e-10 1.8607685e-10 4.2186334e-11 3.4030515e-10
2.0614267e-10 1.0706984e-10 1.5840032e-10 6.294509e-10 1.197757e-10 3.2211317e-10 5.5942844e-11 2.0936351e-10
1.9959148e-10 7.9017476e-10 3.6331335e-10 1.6888754e-11 2.2977271e-10 3.014247e-10 6.893975e-11 1.0506146e-10
1.5919406e-10 1.2802208e-10 2.3358315e-10 7.296134e-11 1.2723524e-10 4.0817363e-11 1.7611679e-10 7.8491025e-10
0.0 0.0 0.0 0.0 0.0 0.0 0.0 0.0
0.0 0.0 0.0 0.0 0.0 0.0 0.0 0.0
0.0 0.0 0.0 0.0 0.0 0.0 0.0 0.0
0.0 0.0 0.0 0.0 0.0 0.0 0.0 0.0
0.0 0.0 0.0 0.0 3.7438034e-12 3.109994e-12 2.842809e-12 1.8787524e-12
00000000: 7b94 222f bfd7 7e2f 188d 9b2f e5e8 0c30
00000010: 8374 912d ee9b a32f 03ec a82f c8b0 682e
00000020: aadd 632f 1f49 232e a252 0d2f 7fd6 162e
00000030: f03d 9b2e 9957 882e 4323 c42e 3c6c 212f
00000040: a859 ad2e bf3c 9d2f f032 362e 8cc8 832f
00000050: a654 2c2f 4f9e 492f 63cf 0e2f e401 022e
00000060: 61a9 732f 88b7 792e fea7 2b2f 9e8a a12e
00000070: b8f0 9c2e 4678 fb2e 9713 4b2f d52a 0b2f
00000080: 190f 1a2f 2662 b52e b30d 412f 122e de2d
00000090: 0416 7a2f 3960 282f 3c40 0c30 bb69 812f
000000a0: 45ba 512f 60e7 de2f c065 ec2e 6d1b 4e2f
000000b0: 4255 dc2e 9cdd e32f 1597 0530 e965 9e2f
000000c0: a96a 4e2f 465c 0c2e d969 ab2f 3aa3 b42f
000000d0: d283 f42e 3cc6 912f fbf3 642f aed0 d22e
000000e0: 7c60 5b2f c2f3 892f 79c3 172f 4323 8c2f
000000f0: 1271 db2e 28dc 342f 8661 f22e cd7e 992e
00000100: 43fd 1630 72e7 1b2f 42a5 462f 24f8 ae2f
00000110: 4f4f 732f 255e 8c2f 22b9 3d2f f2a2 d82e
00000120: bada 912e f08f 102f 245b 9d2f db7f e92f
00000130: b300 432e f1b8 4f2f b162 0030 198e 852e
00000140: f4c7 b62f 5d57 052f b83e e02e 0288 b52e
00000150: 5eda 092e d71a 6f2f 3a3f 0230 31d1 3030
00000160: 749c 202f 05e1 0c2f beb1 fe2e 1198 342e
00000170: 17cd e32e 204d cd2f f561 1530 4dc7 682f
00000180: dfd9 c12f c4f8 a72e 2c22 0930 1912 8d2f
00000190: 8207 9e2f 4e54 cc2f ddbe 672f 5b09 0030
000001a0: adac ba2f e6e0 f82f 7f91 332f 2ab2 162e
000001b0: 5020 262f 5e26 682e 6994 5830 3cf5 5830
000001c0: 639a 082e 822b 302e fc73 5e30 a854 e52e
000001d0: 9523 fd2e bf92 132f da44 ab2f 2e0f 202e
000001e0: 53ca 282e df91 f52f 8938 5630 9983 a02f
000001f0: 0ac0 802e 03f8 f32f 0e09 a92e 843d 172e
00000200: 4be6 e32f 5144 262f 6c71 372f 8f67 372e
00000210: 4fe4 7030 f799 242e f1bb 4d2f 4893 0030
00000220: b8ac 932f cf7c 9c2e 6d74 2830 50be 4d2f
00000230: 6858 562f 3b97 f72f 1ce0 fd2d 2b3b 7d2d
00000240: 0000 0000 0000 0000 0000 0000 0000 0000
00000250: 0000 0000 0000 0000 0000 0000 0000 0000
00000260: 0000 0000 0000 0000 0000 0000 0000 0000
00000270: 0000 0000 0000 0000 0000 0000 0000 0000
00000280: 0000 0000 0000 0000 0000 0000 0000 0000
00000290: 0000 0000 0000 0000 0000 0000 0000 0000
000002a0: 0000 0000 0000 0000 0000 0000 0000 0000
000002b0: 0000 0000 0000 0000 0000 0000 0000 0000
000002c0: 0000 0000 0000 0000 0000 0000 0000 0000
000002d0: 02b7 1e2f 3a21 a12e 9c5f 1d30 486d e52f
000002e0: bebf 442e 2a5f 8b2f 86d2 aa2f b74f 8f2f
000002f0: 97e9 f52e fa97 4c2f 9789 392e b115 bb2f
00000300: 01a8 622f f672 eb2e ba29 2e2f ab05 2d30
00000310: ddb1 032f 6615 b12f 0b0a 762e 9732 662f
00000320: 0274 5b2f 9b33 5930 cfbb c72f 188e 942d
00000330: 45a3 7c2f c1b5 a52f a199 972e 5808 e72e
00000340: 2509 2f2f 03c3 0c2f e869 802f 9571 a02e
00000350: 89e5 0b2f 4484 332e 78a4 412f 26c1 5730
00000360: 0000 0000 0000 0000 0000 0000 0000 0000
00000370: 0000 0000 0000 0000 0000 0000 0000 0000
00000380: 0000 0000 0000 0000 0000 0000 0000 0000
00000390: 0000 0000 0000 0000 0000 0000 0000 0000
000003a0: 0000 0000 0000 0000 0000 0000 0000 0000
000003b0: 0000 0000 0000 0000 0000 0000 0000 0000
000003c0: 0000 0000 0000 0000 0000 0000 0000 0000
000003d0: 0000 0000 0000 0000 0000 0000 0000 0000
000003e0: 0000 0000 0000 0000 0000 0000 0000 0000
000003f0: 2fb9 832c acd8 5a2c 7f0b 482c 9834 042c

exp_avg f4 [11, 36]
-2.0477939e-05 -2.6679829e-05 1.0250682e-05 1.1486972e-05 2.6373327e-05 -1.2836614e-06 5.4215598e-06 3.70205e-05
-1.0620672e-05 1.9127769e-05 1.1578029e-05 -1.5626792e-05 4.7275385e-05 1.4010209e-05 -5.7072757e-05 2.9175064e-05
6.9174284e-06 5.5617886e-05 -1.4308878e-05 -1.5805086e-05 -8.032041e-06 -3.6296962e-05 -2.4772397e-05 -3.3435088e-05
8.6946675e-06 -6.551157e-05 1.7210426e-05 1.2948703e-05 -4.3686414e-06 -2.8952032e-05 2.1988977e-05 -1.8219327e-05
-1.6752962e-05 -3.5018948e-05 2.5045158e-06 -1.9297042e-05 1.709411e-05 -2.5676643e-06 -1.1015708e-06 1.8209248e-06
3.3788424e-06 2.9734583e-06 4.9967894e-06 -7.8266485e-06 -7.733941e-06 1.7488028e-05 2.5041052e-07 -2.3944942e-06
-4.714633e-07 2.2726356e-06 7.4857817e-06 4.53705e-06 -6.6291426e-07 6.3981844e-07 5.1763636e-06 -1.7666912e-06
-5.3983626e-06 -9.618081e-06 5.6272944e-07 -7.61517e-06 -1.1303157e-05 1.291319e-06 2.0228597e-05 -6.5571776e-06
3.1310427e-07 -1.8046952e-05 1.4955312e-05 9.039491e-06 6.60796e-06 -5.591654e-06 -4.8574174e-07 2.0960442e-05
8.2652014e-07 -9.355432e-08 -2.775133e-07 8.9677263e-07 1.7011048e-07 5.0911103e-07 -1.3217631e-06 -6.7560785e-07
-8.025157e-08 3.9130217e-07 -5.315571e-07 6.2666595e-07 -7.185266e-07 -6.4706006e-07 4.7499734e-07 -1.3793215e-06
-4.4330105e-07 -1.0630495e-06 8.940929e-07 1.5987728e-06 -5.6933663e-07 5.098482e-07 7.748083e-07 4.33264e-07
-3.753855e-07 2.7832505e-06 -6.572507e-08 -4.3718956e-07 -3.7709464e-07 5.0990036e-07 -6.253473e-07 5.5683495e-07
3.4852198e-07 5.4502334e-07 -1.8991106e-07 5.025943e-07 9.230231e-08 -1.1299776e-07 -2.758096e-07 5.276058e-07
-1.2789891e-07 3.283455e-08 -2.783449e-07 -1.6032303e-08 3.3807206e-07 -1.8403568e-07 9.957488e-07 3.4720955e-07
3.1094672e-07 2.5601673e-07 2.3870806e-08 -6.96246e-08 -1.5754462e-07 2.8044148e-08 -5.572902e-07 1.2428735e-07
-2.2584264e-07 1.8883999e-07 -2.6619377e-08 1.3542176e-07 -1.6464763e-07 5.2580737e-07 6.8603555e-07 -6.3382714e-07
-3.8083166e-07 -4.53262e-07 3.72845e-07 -2.0574812e-07 -1.786035e-07 3.5389817e-07 -6.290232e-07 1.1571516e-07
-7.649999e-08 -9.2801804e-07 8.0876436e-07 -3.8136028e-07 1.7540934e-07 3.298739e-07 6.564153e-07 -2.2273342e-07
-3.049811e-07 7.3729046e-07 -6.8846258e-09 4.3881352e-07 2.9834015e-07 4.6517678e-07 6.171493e-07 5.8659543e-07
-2.737718e-07 -6.4369294e-07 3.1354884e-07 -2.0887776e-07 2.0445958e-07 -9.003159e-07 -7.835649e-08 4.5601215e-07
-4.6804408e-07 1.0158892e-07 -5.18171e-07 -5.529645e-07 -6.0407837e-07 -7.798993e-08 1.9604852e-07 1.5388267e-07
1.0995334e-07 1.9832996e-07 6.941848e-07 -3.6900352e-07 3.5403522e-07 -4.6024022e-07 2.8859294e-08 -1.3999321e-06
-8.155223e-07 2.8319644e-07 -1.333867e-07 -1.3075286e-06 5.118263e-07 -7.127975e-08 -1.5584467e-06 -6.489832e-07
-1.1188582e-06 -3.5248567e-07 -2.789215e-07 1.408805e-06 2.6173288e-07 4.1451125e-07 9.3717796e-07 -1.2277739e-06
6.7514253e-07 -5.0705665e-07 2.5679492e-07 2.1882401e-07 1.5948679e-07 -5.7913866e-07 -7.697148e-08 1.0969985e-06
1.0254078e-06 9.426904e-07 -8.823402e-07 -4.2773692e-07 6.622872e-08 -6.929363e-07 -2.0980584e-08 -7.93583e-07
-4.5949587e-08 1.897065e-07 8.9791513e-07 7.5202344e-08 3.3754807e-07 4.796237e-07 -5.1528826e-08 3.7139841e-07
-2.733513e-07 1.0872438e-06 -2.394949e-08 -4.1102328e-07 2.6855818e-07 1.4998427e-07 -5.9265474e-08 1.7701552e-07
4.4658898e-07 -1.3409216e-07 -1.14041875e-07 -2.4457648e-07 -3.3503575e-08 -2.7316247e-07 -2.5283535e-07 -2.7111778e-07
-6.150367e-07 3.3500345e-07 9.1811074e-08 -1.7814394e-07 8.5256396e-08 -3.683413e-08 1.7165083e-07 3.3295868e-07
1.9367667e-07 -2.9629828e-07 3.2031969e-07 1.0201539e-07 2.4506008e-07 2.5162905e-07 1.5454763e-08 3.8113053e-06
00000000: 0ac8 abb7 7fce dfb7 58fa 2b37 2bb8 4037
00000010: 4a3c dd37 454a acb5 d8ea b536 7646 1b38
00000020: 702f 32b7 9274 a037 423f 4237 4816 83b7
00000030: 8f49 4638 640d 6b37 6861 6fb8 f9bc f437
00000040: 421c e836 4047 6938 2a10 70b7 2a95 84b7
00000050: 5ac1 06b7 913d 18b8 51ce cfb7 a73c 0cb8
00000060: 50df 1137 4263 89b8 1c5f 9037 423e 5937
00000070: 5896 92b6 04de f2b7 f874 b837 b5d5 98b7
00000080: b688 8cb7 4fe1 12b8 4113 2836 15e0 a1b7
00000090: 5265 8f37 2350 2cb6 afd9 93b5 8066 f435
000000a0: 12c0 6236 a08b 4736 18aa a736 334f 03b7
000000b0: 06c1 01b7 41b3 9237 2970 8634 19b1 20b6
000000c0: 6c1d fdb4 9583 1836 602e fb36 f63c 9836
000000d0: 1ff3 31b5 fdbf 2b35 a0b0 ad36 0c1f edb5
000000e0: 9523 b5b6 585d 21b7 790e 1735 d085 ffb6
000000f0: b1a2 3db7 6251 ad35 95b0 a937 ba05 dcb6
00000100: b918 a834 8963 97b7 93e8 7a37 51a8 1737
00000110: f2b9 dd36 f19f bbb6 eb63 02b5 35d4 af37
00000120: 08de 5d35 08e8 c8b3 23fd 94b4 bfb9 7035
00000130: 9da7 3634 d8a9 0835 6f67 b1b5 6b5b 35b5
00000140: c456 acb3 2914 d234 53b0 0eb5 2838 2835
00000150: c6e0 40b5 a1b1 2db5 2303 ff34 2021 b9b5
00000160: d5fe edb4 1aae 8eb5 9901 7035 6a95 d635
00000170: 84d4 18b5 80dc 0835 6cfc 4f35 5a9b e834
00000180: 9788 c9b4 e1c7 3a36 bd24 8db3 e0b6 eab4
00000190: 7e73 cab4 16e0 0835 8add 27b5 6879 1535
000001a0: 7f1c bb34 b84d 1235 5bea 4bb4 04ea 0635
000001b0: bb37 c633 2da9 f2b3 fc12 94b4 cba0 0d35
000001c0: 9654 09b4 f805 0d33 6f6f 95b4 68b7 89b2
000001d0: 4580 b534 589b 45b4 aba5 8535 1e68 ba34
000001e0: 31f0 a634 ac72 8934 750c cd32 8784 95b3
000001f0: 8929 29b4 bce5 f032 b198 15b5 d973 0534
00000200: 277f 72b4 f1c3 4a34 a1a8 e4b2 7368 1134
00000210: ffc9 30b4 3525 0d35 0128 3835 4524 2ab5
00000220: 1b75 ccb4 db57 f3b4 6d2b c834 9deb 5cb4
00000230: 28c6 3fb4 65ff bd34 25da 28b5 157f f833
00000240: 5048 a4b3 ea1c 79b5 dd19 5935 c2bd ccb4
00000250: 2758 3c34 8619 b134 8434 3035 7f28 6fb4
00000260: 49bc a3b4 37ea 4535 cf8d ecb1 1296 eb34
00000270: 8f2b a034 69bd f934 2daa 2535 8876 1d35
00000280: e9fa 92b4 3eca 2cb5 d355 a834 e247 60b4
00000290: 6c89 5b34 3dad 71b5 f044 a8b3 d5d1 f434
000002a0: 7d47 fbb4 1929 da33 7118 0bb5 6e6f 14b5
000002b0: f327 22b5 6b7b a7b3 6881 5234 f23a 2534
000002c0: 7d1f ec33 86f4 5434 0458 3a35 751b c6b4
000002d0: 3b12 be34 ef16 f7b4 42e6 f732 4de5 bbb5
000002e0: 44ea 5ab5 390a 9834 0f39 0fb4 577e afb5
000002f0: 6f64 0935 7512 99b3 d22b d1b5 c935 2eb5
00000300: ad2b 96b5 433d bdb4 aebe 95b4 2c16 bd35
00000310: 4b84 8c34 fe89 de34 6192 7b35 fdc9 a4b5
00000320: 713b 3535 ab1c 08b5 a0dd 8934 e3f5 6a34
00000330: 653f 2b34 1b76 1bb5 854b a5b3 953c 9335
00000340: bea0 8935 310d 7d35 f5d9 6cb5 b7a3 e5b4
00000350: a039 8e33 3802 3ab5 cb38 b4b2 9c06 55b5
00000360: 1b5a 45b3 20b2 4b34 4208 7135 ed7e a133
00000370: 4138 b534 7dbf 0035 8b50 5db3 9c64 c734
00000380: 1ec1 92b4 6aed 9135 7cb9 cdb2 9caa dcb4
00000390: 5b2e 9034 5d0b 2134 148b 7eb3 a811 3e34
000003a0: b9c2 ef34 f9fa 0fb4 2fe7 f4b3 564e 83b4
000003b0: 92e5 0fb3 2aa7 92b4 6dbd 87b4 258e 91b4
000003c0: 0019 25b5 86da b334 ac29 c533 d547 3fb4
000003d0: 3316 b733 8e33 1eb3 054f 3834 7ec1 b234
000003e0: 70f5 4f34 ed12 9fb4 67f8 ab34 8e13 db33
000003f0: cd90 8334 a217 8734 62c1 8432 bac5 7f36

exp_avg_sq f4 [11, 36]
8.927352e-09 6.58009e-09 4.3136943e-09 4.0617326e-08 2.1705424e-09 1.5189919e-08 5.401817e-09 5.888131e-09
1.6820596e-09 9.906597e-09 3.6878074e-08 5.545576e-09 9.577554e-09 1.5884632e-09 2.3361708e-09 9.400233e-09
8.168391e-09 3.6047432e-09 4.4584914e-09 4.571668e-09 5.5849614e-09 5.946134e-09 2.4539886e-09 2.7861193e-09
4.2949413e-09 7.385041e-09 9.925395e-09 6.98529e-09 3.657513e-09 7.325621e-09 4.960406e-09 4.600245e-09
2.566374e-09 4.6472324e-09 9.834729e-09 6.722885e-09 7.926059e-09 2.2669907e-08 2.058203e-09 7.0891018e-09
8.229643e-09 2.7869658e-09 1.3730086e-08 8.004693e-09 3.0400107e-09 1.0470758e-08 1.9999487e-08 1.9673953e-08
1.0563241e-08 1.3854439e-09 4.5956243e-09 7.784831e-09 5.6177463e-09 7.3983877e-09 5.3665286e-09 1.5401042e-08
3.914923e-09 3.583322e-09 2.5950628e-09 3.7264987e-09 4.0447743e-09 4.4853454e-09 7.804976e-09 8.736074e-09
3.75305e-09 4.7771636e-09 1.0687952e-08 6.5873182e-09 5.5840053e-09 7.43008e-09 7.585659e-09 9.084325e-09
1.675685e-08 5.6522147e-09 1.1765125e-08 5.952613e-09 4.746891e-09 5.425336e-09 1.5493475e-08 9.3213535e-09
8.0122495e-09 1.21623955e-08 8.328365e-09 1.6527126e-08 8.673282e-09 2.9171856e-09 9.740368e-09 4.77673e-09
2.4327356e-09 6.7797674e-09 4.676372e-09 6.26173e-09 6.7197674e-09 8.558779e-09 1.4999928e-08 5.5777236e-09
1.1179764e-08 1.5320262e-08 1.9891887e-08 2.0454427e-08 2.5387112e-09 5.206075e-09 2.5683546e-09 5.8966223e-09
9.196882e-09 3.421582e-09 2.050307e-08 8.672894e-09 6.3919856e-09 4.7254596e-09 4.973624e-09 9.056845e-09
9.438689e-10 3.94697e-09 4.095425e-09 2.962427e-09 2.6421558e-09 1.10007745e-08 7.446529e-09 9.780966e-09
2.4312603e-09 2.21307e-09 2.5299758e-09 2.5270896e-09 2.1682365e-09 5.4518385e-09 4.6545243e-09 2.9924463e-09
2.446854e-09 1.1890553e-08 1.3710808e-08 3.3300365e-09 9.893807e-09 4.851171e-09 1.04995e-08 2.4555307e-09
7.3292306e-09 6.5498136e-09 5.661758e-09 1.3171558e-09 1.8325448e-08 3.9630046e-09 5.4654707e-09 6.4280377e-09
6.237869e-08 1.0666475e-08 3.0612306e-08 1.3056272e-08 1.578391e-08 3.2658085e-09 1.1321191e-08 2.8753735e-08
3.0981816e-08 3.5660463e-08 1.6653113e-08 2.0610274e-08 2.8207316e-08 2.308919e-08 5.466849e-08 2.671853e-08
8.2042995e-09 1.840904e-08 1.6147437e-08 1.8006416e-08 5.94348e-09 9.086935e-09 1.846452e-08 2.0136879e-08
2.4927603e-08 1.5809736e-08 2.9360995e-08 2.1776588e-08 9.739214e-08 7.7514756e-08 4.2337533e-09 1.2788419e-08
5.3592778e-08 1.7096731e-08 2.8602894e-08 1.5727277e-08 1.9874465e-08 3.205457e-08 3.0114138e-09 1.7578532e-08
7.1566517e-09 6.1965593e-09 6.5892007e-09 1.27639765e-08 1.5907212e-08 1.5926455e-08 6.2587757e-09 6.5749934e-09
4.8163752e-08 2.0383562e-08 1.3405956e-08 2.315579e-08 1.0450401e-08 1.4047975e-08 4.3036588e-09 7.3813142e-09
3.2555294e-09 1.92118e-08 3.4539227e-09 3.5049228e-09 2.1929706e-08 1.9833227e-08 1.056151e-08 2.087167e-08
1.1023419e-08 1.9984745e-08 1.3944454e-08 8.617624e-09 3.2539131e-09 3.8109094e-09 2.9415464e-08 1.275927e-08
2.6205162e-09 8.897683e-09 1.6729821e-08 2.7708111e-09 3.9512265e-09 4.0315826e-09 1.0153759e-08 3.5502665e-09
1.3383044e-09 1.0446333e-08 1.3042595e-09 4.750825e-09 7.3000757e-09 1.0412759e-08 1.8261984e-09 4.740133e-09
1.1795069e-09 3.3552883e-09 1.8328508e-09 1.4874996e-09 1.0810149e-09 1.4793212e-09 6.4579625e-10 7.1355126e-09
2.0528699e-09 2.0686457e-09 1.8144888e-09 4.5619366e-09 3.728566e-09 7.1206654e-09 3.4205145e-09 1.4478607e-09
2.9749136e-09 6.307077e-09 3.0715168e-09 3.2518255e-09 1.2324193e-08 3.4511647e-08 1.6956323e-08 1.05053935e-07
00000000: e95e 1932 1517 e231 a837 9431 3973 2e33
00000010: 9628 1531 fc7a 8232 e39a b931 8c50 ca31
00000020: 362e e730 ad31 2a32 df63 1e33 678b be31
00000030: 878a 2432 1551 da30 5a8a 2031 a97e 2132
00000040: f754 0c32 50b7 7731 4e31 9931 d114 9d31
00000050: d7e5 bf31 bf4e cc31 06a3 2831 ee75 3f31
00000060: b492 9331 82bf fd31 5984 2a32 4303 f031
00000070: a657 7b31 d8b4 fb31 3170 aa31 2f10 9e31
00000080: 215c 3031 7dad 9f31 98f5 2832 1fff e631
00000090: 2d2b 0832 a7bb c232 4a70 0d31 6694 f331
000000a0: 5a62 0d32 d284 3f31 8fe1 6b32 0385 0932
000000b0: 6fe8 5031 e1e2 3332 56cb ab32 7bff a832
000000c0: a079 3532 f969 be30 8ae7 9d31 0cbe 0532
000000d0: 3806 c131 e834 fe31 7c64 b831 404b 8432
000000e0: 0784 8631 783e 7631 d454 3231 a10a 8031
000000f0: 36fa 8a31 841d 9a31 a616 0632 a915 1632
00000100: 2df4 8031 6024 a431 1c9e 3732 aa56 e231
00000110: 6edd bf31 ad4b ff31 1552 0232 4911 1c32
00000120: b4f0 8f32 6835 c231 911f 4a32 bd87 cc31
00000130: 181a a331 c369 ba31 8316 8532 bf23 2032
00000140: 3fa6 0932 c8f2 5032 8914 0f32 89f7 8d32
00000150: 7f01 1532 ac77 4831 9756 2732 9020 a431
00000160: 232d 2731 77f3 e831 cead a031 c226 d731
00000170: b3e3 e631 e809 1332 31d9 8032 2da6 bf31
00000180: 1f11 4032 9d99 8332 b9de aa32 c3b3 af32
00000190: 7b75 2e31 1fe1 b231 f97e 3031 3d9b ca31
000001a0: 5100 1e32 1b21 6b31 ba1e b032 cbff 1432
000001b0: 80a0 db31 955d a231 76e4 aa31 6d98 1b32
000001c0: 6fb9 8130 ea9d 8731 bdb7 8c31 9193 4b31
000001d0: 4c91 3531 ebfd 3c32 5ddc ff31 2509 2832
000001e0: 2f13 2731 bd14 1831 cedb 2d31 08a9 2d31
000001f0: 0500 1531 e152 bb31 a1ed 9f31 aca3 4d31
00000200: 8325 2831 3547 4c32 c58c 6b32 9fd6 6431
00000210: 6cf9 2932 5aaf a631 4a61 3432 27be 2831
00000220: 98d4 fb31 c50c e131 5a89 c231 4d07 b530
00000230: 166a 9d32 f52a 8831 caca bb31 9edd dc31
00000240: 0cf5 8533 a73f 3732 967a 0333 174e 6032
00000250: 2f95 8732 b66c 6031 207f 4232 22fe f632
00000260: de10 0533 1829 1933 950c 8f32 790a b132
00000270: 8b4c f232 aa55 c632 a4cc 6a33 ab82 e532
00000280: e4f2 0c32 e821 9e32 97b4 8a32 87ac 9a32
00000290: 6737 cc31 c31c 1c32 e99b 9e32 77f9 ac32
000002a0: 6120 d632 facd 8732 8335 fc32 390f bb32
000002b0: e525 d133 3076 a633 7d78 9131 10b4 5b32
000002c0: e22d 6633 1cdc 9232 6eb2 f532 a618 8732
000002d0: 69b8 aa32 5fac 0933 5af1 4e31 9aff 9632
000002e0: 93e6 f531 83e9 d431 3967 e231 9048 5b32
000002f0: 54a4 8832 a5ce 8832 c60c d731 41ea e131
00000300: 9bdc 4e33 ed17 af32 0550 6632 1fe8 c632
00000310: 5a89 3332 a657 7132 62df 9331 ba9e fd31
00000320: e1b7 5f31 3207 a532 0d5a 6d31 41db 7031
00000330: ef5f bc32 ba5d aa32 0372 3532 4a49 b332
00000340: 8261 3d32 ebaa ab32 5b90 6f32 b60c 1432
00000350: 729b 5f31 1df1 8231 4aad fc32 dd33 5b32
00000360: 9c14 3431 6cdc 1832 44b5 8f32 a068 3e31
00000370: 5bc3 8731 2d86 8a31 b470 2e32 f3f8 7331
00000380: 66ef b730 7577 3332 8d41 b330 b33c a331
00000390: 25d4 fa31 cce3 3232 a5fd fa30 a7de a231
000003a0: 361c a230 db92 6631 b4e7 fb30 bd70 cc30
000003b0: d592 9430 fd50 cb30 df83 3130 a22c f531
000003c0: 7812 0d31 0028 0e31 a661 f930 38bf 9c31
000003d0: d01c 8031 09aa f431 540e 6b31 12fe c630
000003e0: 3c6f 4c31 a3b5 d831 b212 5331 b876 5f31
000003f0: 60ba 5332 f539 1433 59a7 9132 039a e133

exp_avg f4 [11, 11]
-4.296108e-05 -1.6570706e-05 -3.9387392e-05 -0.00016706093 -4.796448e-05 -9.123282e-06 -4.8557908e-05 -3.362381e-07
4.8362253e-05 -7.9431855e-05 4.8947263e-06 1.0979308e-05 -3.0882236e-06 -6.0015814e-06 1.4836446e-05 8.449083e-06
1.6051958e-05 -1.5433117e-05 -5.1804095e-06 -1.1139954e-05 -1.489969e-05 1.5267758e-05 1.0676857e-06 2.3121981e-06
-1.4976519e-06 2.5166257e-06 2.6646408e-06 -1.3410432e-06 -2.3539164e-07 1.5094107e-06 -9.85041e-07 1.874153e-06
-1.1149602e-06 -1.0711472e-07 1.3161618e-07 -3.5086626e-07 -5.3600647e-08 -4.62454e-09 -2.7899802e-07 -4.5134882e-08
2.5029442e-07 2.0402668e-07 -3.1152243e-08 -6.9020736e-08 1.3291916e-06 -8.383215e-07 2.3773941e-07 3.2966284e-07
-1.092729e-07 1.017554e-07 1.2454666e-07 -8.4663776e-07 -4.5224868e-07 -6.237223e-07 -3.047274e-07 3.3752742e-06
2.4285544e-07 -1.9142574e-06 1.7070777e-06 2.463599e-06 1.0643405e-06 -8.183218e-07 5.9380403e-07 -2.3314951e-06
-2.393461e-06 1.6184036e-06 2.7381356e-08 4.2945747e-08 1.6139204e-09 2.5084506e-07 -1.628488e-07 -1.0560636e-08
1.7786455e-07 4.2430962e-08 -1.6729238e-07 -3.906352e-08 -2.2418001e-07 -2.0025238e-05 7.6285933e-06 -8.279973e-06
-3.253831e-05 3.7130214e-06 1.3802005e-05 -2.0889544e-05 -3.333153e-06 1.2911664e-05 1.2110504e-05 1.7635659e-05
-7.654989e-08 -1.3123095e-07 2.5061175e-07 -1.4083888e-08 1.1654061e-07 -3.0168756e-08 -1.0645672e-07 -2.3181775e-07
1.1656717e-07 1.6727151e-07 9.403812e-08 0.00031067643 -0.0001273189 0.00039496084 0.0008297312 0.00026622423
0.00025545678 0.0001228121 -0.0003361066 -0.00044674787 0.000107461856 -3.04192e-05 2.3143495e-07 -1.9393072e-07
-1.1838756e-06 8.753836e-07 -8.866799e-08 6.355178e-09 -4.2372895e-07 1.1284931e-06 -4.1312808e-07 -1.091203e-06
1.2465748e-07
00000000: 1c31 34b8 5201 8bb7 e433 25b8 142d 2fb9
00000010: 782d 49b8 3310 19b7 a8aa 4bb8 3684 b4b4
00000020: 93d8 4a38 a794 a6b8 613d a436 c533 3837
00000030: 473f 4fb6 3161 c9b6 0dea 7837 89c0 0d37
00000040: 51a7 8637 5e76 81b7 61d3 adb6 bde5 3ab7
00000050: aef9 79b7 4313 8037 674d 8f35 432b 1b36
00000060: ed02 c9b5 4de3 2836 2ed2 3236 e5fd b3b5
00000070: f6bf 7cb4 f596 ca35 c035 84b5 688b fb35
00000080: bea5 95b5 f106 e6b3 6152 0d34 b15e bcb4
00000090: 8936 66b3 e2e5 9eb1 32c9 95b4 54da 41b3
000000a0: 3460 8634 6d12 5b34 41cc 05b3 8d38 94b3
000000b0: ad66 b235 0409 61b5 5045 7f34 84fc b034
000000c0: 69a9 eab3 9f84 da33 20bb 0534 8144 63b5
000000d0: 96cc f2b4 df6d 27b5 6a99 a3b4 c582 6236
000000e0: cc61 8234 b176 00b6 be1e e535 4f54 2536
000000f0: 76da 8e35 a5aa 5bb5 e765 1f35 c876 1cb6
00000100: 599f 20b6 ed37 d935 3d34 eb32 5973 3833
00000110: c7d0 dd30 e2ab 8634 8adb 2eb4 2b6e 35b2
00000120: 09fb 3e34 563d 3633 fba0 33b4 cbc6 27b3
00000130: 22b6 70b4 dffb a7b7 1ef9 ff36 37ea 0ab7
00000140: bf79 08b8 392d 7936 298f 6737 f43b afb7
00000150: 22af 5fb6 2d9f 5837 382e 4b37 4af0 9337
00000160: bf63 a4b3 7de8 0cb4 d18b 8634 98f5 71b2
00000170: e144 fa33 e692 01b3 339d e4b3 94e9 78b4
00000180: 7b53 fa33 3e9b 3334 01f2 c933 49e2 a239
00000190: e880 05b9 bf12 cf39 5182 593a 0394 8b39
000001a0: d4ee 8539 1fc7 0039 7737 b0b9 7c39 eab9
000001b0: 255d e138 bc2c ffb7 5b80 7834 453b 50b4
000001c0: a8e5 9eb5 e7fb 6a35 be69 beb3 bd5c da31
000001d0: dd7c e3b4 ba76 9735 e4cb ddb4 7375 92b5
000001e0: 96d9 0534

exp_avg_sq f4 [11, 11]
6.6750134e-09 5.1601687e-09 6.957768e-09 5.7921725e-09 4.6070747e-09 4.627142e-09 5.299687e-09 5.167095e-09
6.159948e-09 5.240974e-09 4.895346e-09 5.4945737e-09 2.7045934e-09 2.927108e-09 1.6029706e-09 5.484132e-09
5.081801e-09 2.039096e-09 7.756661e-09 3.205701e-09 3.4119874e-09 2.3034346e-09 5.9977965e-09 7.4125435e-09
5.334776e-09 6.1973737e-09 2.8839806e-09 4.0315955e-09 4.2120325e-09 4.7654467e-09 6.8042216e-09 7.435337e-09
4.0298818e-09 3.1500165e-09 3.0620009e-09 2.8649236e-09 2.7132574e-09 2.9145264e-09 3.745818e-09 3.4032008e-09
5.665912e-09 3.9611425e-09 3.299537e-09 2.2018731e-09 8.047446e-09 5.098446e-09 1.1868026e-08 1.1117892e-08
1.0111531e-08 5.673377e-09 8.48426e-09 1.1556424e-08 6.1486793e-09 8.513963e-09 1.09187e-08 6.2547136e-09
7.737948e-09 9.572355e-09 9.029007e-09 7.419241e-09 4.438335e-09 7.127035e-09 8.563496e-09 9.346657e-09
7.320806e-09 9.691696e-09 1.7053833e-09 2.8459979e-09 1.2795781e-09 6.7058387e-10 7.804521e-10 9.0584734e-10
1.7450783e-09 9.1697894e-10 1.0247816e-09 2.2135356e-09 6.731674e-10 5.5380568e-08 8.174709e-08 1.209028e-07
6.6160965e-08 6.585684e-08 5.787066e-08 7.647168e-08 8.3482966e-08 7.730151e-08 5.4254823e-08 7.424494e-08
2.621486e-09 1.7226371e-09 2.9738971e-09 2.6489184e-09 2.1857076e-09 1.5822947e-09 1.8757484e-09 1.9147872e-09
2.0782698e-09 4.1064956e-09 1.9986401e-09 2.108632e-08 4.915109e-08 4.061925e-08 3.752551e-08 1.9591228e-08
3.5286682e-08 9.448277e-09 4.0254957e-08 3.1583106e-08 2.1196788e-08 3.480239e-08 1.2547773e-08 9.245295e-09
4.4119792e-09 4.8000888e-09 4.8346394e-09 3.5842929e-09 6.7558976e-09 4.0884998e-09 5.8759784e-09 1.301297e-08
4.024677e-09
00000000: 0a5a e531 534d b131 2d11 ef31 7d04 c731
00000010: 424c 9e31 c5fc 9e31 8a18 b631 408a b131
00000020: 7aa7 d331 1814 b431 eb33 a831 c8ca bc31
00000030: b6db 3931 3a26 4931 844f dc30 ef6e bc31
00000040: ff9b ae31 2820 0c31 2842 0532 4a4b 5c31
00000050: 5178 6a31 734a 1e31 2d15 ce31 6cb1 fe31
00000060: 304d b731 adf0 d431 862f 4631 4a86 8a31
00000070: 6eb9 9031 50bd a331 91ca e931 ea79 ff31
00000080: 3777 8a31 ad77 5831 4a6b 5231 45e0 4431
00000090: 2174 3a31 e448 4831 90b4 8031 bedd 6931
000000a0: e4ad c231 941a 8831 12be 6231 c34f 1731
000000b0: 0b41 0a32 682e af31 21e4 4b32 0201 3f32
000000c0: fcb6 2d32 8def c231 2cc2 1132 b189 4632
000000d0: 5b44 d331 ce44 1232 f394 3b32 0be9 d631
000000e0: dbef 0432 aa73 2432 fe1d 1b32 56ec fe31
000000f0: 0280 9831 10e2 f431 a71e 1332 0893 2032
00000100: 7e8a fb31 8880 2632 d762 ea30 5393 4331
00000110: 27dd af30 2554 3830 6f87 5630 57ff 7830
00000120: 7cd7 ef30 a80e 7c30 4cd8 8c30 ee1c 1831
00000130: f209 3930 94db 6d33 f08c af33 82d1 0134
00000140: 6014 8e33 2e6d 8d33 778d 7833 c038 a433
00000150: 3f47 b333 f400 a633 cf05 6933 9670 9f33
00000160: ab25 3431 e8c1 ec30 5a5d 4c31 4408 3631
00000170: 6033 1631 0c78 d930 84e6 0031 4b95 0331
00000180: 4fd1 0e31 1e19 8d31 7358 0931 4f21 b532
00000190: 321a 5333 5675 2e33 bc2b 2133 9149 a832
000001a0: 1e8e 1733 f651 2232 cbe4 2c33 fea5 0733
000001b0: 3b14 b632 a279 1533 b091 5732 3dd5 1e32
000001c0: 2e98 9731 07ee a431 f01d a631 8c4f 7631
000001d0: 8121 e831 d37a 8c31 a7e5 c931 a68f 5f32
000001e0: 6f49 8a31

exp_avg f4 [11]
-2.774256e-05 1.0257909e-05 6.9807413e-07 1.084549e-07 7.2279875e-07 8.896247e-07 -7.644011e-08 -2.9939627e-06
6.6840684e-08 -3.8124646e-05 -1.3821925e-07
00000000: b2b8 e8b7 6219 2c37 4a63 3b35 b6e7 e833
00000010: 5a06 4235 8bce 6e35 6527 a4b3 e3eb 48b6
00000020: 0e8a 8f33 07e8 1fb8 6b69 14b4

exp_avg_sq f4 [11]
7.3473356e-09 2.1278378e-08 6.7568706e-09 3.7148207e-09 1.5779811e-08 6.289686e-09 2.647236e-09 1.4001562e-08
5.9652425e-09 2.0646558e-08 1.133607e-08
00000000: d973 fc31 a6c7 b632 102a e831 d147 7f31
00000010: 2c8c 8732 aa1c d831 abea 3531 858b 7032
00000020: d4f6 cc31 435a b132 90c0 4232

exp_avg f4 [11]
-2.774256e-05 1.0257909e-05 6.9807413e-07 1.084549e-07 7.2279875e-07 8.896247e-07 -7.644011e-08 -2.9939627e-06
6.6840684e-08 -3.8124646e-05 -1.3821925e-07
00000000: b2b8 e8b7 6219 2c37 4a63 3b35 b6e7 e833
00000010: 5a06 4235 8bce 6e35 6527 a4b3 e3eb 48b6
00000020: 0e8a 8f33 07e8 1fb8 6b69 14b4

exp_avg_sq f4 [11]
7.3473356e-09 2.1278378e-08 6.7568706e-09 3.7148207e-09 1.5779811e-08 6.289686e-09 2.647236e-09 1.4001562e-08
5.9652425e-09 2.0646558e-08 1.133607e-08
00000000: d973 fc31 a6c7 b632 102a e831 d147 7f31
00000010: 2c8c 8732 aa1c d831 abea 3531 858b 7032
00000020: d4f6 cc31 435a b132 90c0 4232

exp_avg f4 [36, 11]
3.744e-05 5.7350912e-06 -1.8551887e-05 1.9957452e-05 1.5631786e-05 -2.1087902e-05 9.759285e-06 1.6122513e-05
1.5504476e-05 -4.2741183e-05 -1.0708407e-05 -7.433929e-05 0.00010492563 1.8097095e-05 -0.00010183574 9.3636474e-05
9.732876e-05 -0.00010643443 2.8063416e-05 8.777865e-05 7.790029e-05 0.00010691232 9.930166e-07 -6.374161e-07
7.097506e-07 -1.211352e-08 9.1960715e-09 -5.5302326e-07 2.2216503e-07 6.761199e-08 -6.890944e-08 3.412324e-08
-2.6019535e-07 1.2948531e-06 -8.232074e-07 -9.2374854e-08 2.2801576e-07 -3.670408e-07 -1.7999391e-06 -1.7485307e-07
-2.8952186e-07 7.373899e-08 -4.400387e-07 -1.0543479e-06 9.577851e-07 -6.775559e-07 6.3009423e-07 2.4829671e-07
2.2207986e-07 -4.9685957e-07 3.657555e-07 3.3153347e-07 2.242114e-07 9.990798e-08 -4.2009742e-07 2.6177602e-06
-1.0635982e-05 2.2597414e-08 1.0875417e-05 -9.958545e-06 -4.9135724e-06 3.0737633e-07 2.4350854e-06 -9.828628e-07
-2.838368e-06 -1.04571955e-05 7.0675515e-07 -4.5168915e-07 5.475046e-07 2.7421578e-07 1.3966297e-08 -5.8723305e-07
2.71959e-07 -1.4580381e-07 -9.085278e-08 -6.983538e-08 -2.5888977e-07 5.1359876e-07 -4.8308783e-07 4.855006e-07
1.9055992e-07 -6.1444226e-08 -3.9645164e-07 1.132942e-07 1.09945056e-07 -8.0589e-09 -1.0076461e-07 -2.8928463e-07
-4.3195228e-06 3.3985448e-06 7.2494004e-06 5.7095162e-06 -1.5894184e-05 -1.6977174e-05 3.5789144e-06 -1.3766671e-05
-1.7185776e-05 -7.677222e-06 -4.15299e-06 -2.1081303e-06 2.0694017e-06 -8.622156e-07 5.189666e-06 -2.7604326e-06
4.024912e-06 -3.2384835e-07 1.4378413e-07 -5.301982e-06 1.0087755e-06 1.2058494e-07 -5.6711224e-06 -7.236922e-06
5.774908e-07 2.6591636e-06 9.211417e-08 -6.206829e-06 4.0333057e-06 -2.2388181e-07 -2.8163975e-06 -5.3249405e-06
-1.4401753e-06 8.527748e-07 -5.210588e-07 4.4627282e-07 -5.509209e-09 -1.2128976e-07 -1.048131e-06 4.87256e-08
-2.7820957e-07 -8.334098e-08 -1.00641685e-07 1.4864689e-08 -2.4046055e-06 1.0730713e-06 -1.014753e-06 3.340701e-06
-5.2092105e-06 2.3985701e-06 1.170192e-06 -1.4807082e-06 -3.657721e-06 1.3280421e-06 -1.2488665e-06 8.813365e-06
6.139831e-06 -5.6467575e-06 9.153604e-06 -3.7940936e-07 1.3032175e-05 5.124573e-06 5.4013485e-06 -1.3071714e-05
1.0699688e-05 -1.2956024e-05 8.9671685e-06 -1.1378709e-05 -1.293611e-05 -1.2730469e-05 7.852063e-06 4.6589003e-07
1.6133372e-05 -6.0462676e-06 -9.003543e-06 6.7328415e-06 2.3809275e-06 6.822813e-07 -4.0349093e-07 4.471326e-07
1.4550119e-07 8.595359e-08 -5.482383e-07 1.5073749e-07 -1.9080947e-08 7.91114e-08 -8.4605986e-08 -2.964249e-07
1.5326008e-05 -2.138023e-05 -3.0077697e-05 -2.2811933e-05 -3.0822637e-05 -9.209681e-06 -9.074285e-06 1.4991143e-05
-6.2136305e-06 -7.3612982e-06 5.722212e-06 -1.0151394e-06 4.563714e-06 -4.708867e-05 -1.1249453e-05 6.504683e-06
1.674669e-05 -1.0010026e-05 -6.41841e-05 7.587761e-06 -3.1202428e-05 9.515807e-06 -1.3146358e-05 -4.5999393e-05
1.654182e-05 -2.651338e-05 -3.891852e-05 2.9876288e-05 2.554537e-05 -2.0265237e-05 1.7563494e-05 8.166089e-06
-2.8442284e-05 7.090293e-07 -8.356498e-07 5.6842407e-07 7.703536e-08 -5.540284e-07 -1.1340962e-06 2.0382525e-07
-1.6676881e-07 -3.7086437e-07 -3.0909763e-07 -5.0110884e-07 -3.7958154e-05 4.231634e-05 -4.8117905e-05 -1.1951869e-05
-3.522041e-05 3.6317185e-06 1.2041463e-05 4.5681187e-05 -1.01226846e-07 3.412941e-05 -1.4487767e-05 1.8610002e-07
3.4630385e-09 -4.8545076e-08 3.7705126e-07 -4.2936318e-07 -1.0385187e-07 3.2141074e-07 -1.0808867e-08 -5.4656044e-07
2.3512649e-07 -2.2224545e-07 5.032032e-07 -3.3514445e-07 4.8617073e-07 2.0507338e-07 -1.4595584e-08 -3.6589012e-07
2.2381896e-07 4.0689304e-08 -1.3134532e-07 7.0982655e-09 -2.1190084e-07 5.514396e-05 -1.1852417e-05 1.1989725e-05
00000000: e508 1d38 0f70 c036 e09f 9bb7 4d6a a737
00000010: 0121 8337 ede5 b0b7 cfbb 2337 d53e 8737
00000020: 9c0f 8237 ff44 33b8 42a8 33b7 9ae6 9bb8
00000030: 850b dc38 37cf 9737 a690 d5b8 b35e c438
00000040: fb1c cc38 8d35 dfb8 ba69 eb37 ce15 b838
00000050: 665e a338 1d36 e038 ca47 8535 e71a 2bb5
00000060: b185 3e35 d31b 50b2 c0fc 1d32 7873 14b5
00000070: 428c 6e34 1632 9133 5efb 93b3 e68e 1233
00000080: fab0 8bb4 d0ca ad35 62fa 5cb5 9d5f c6b3
00000090: 7fd4 7434 b40d c5b4 7095 f1b5 3fbf 3bb4
000000a0: 956f 9bb4 705a 9e33 753e ecb4 1e83 8db5
000000b0: 3f8d 8035 49e1 35b5 bf23 2935 a44d 8534
000000c0: d974 6e34 ee5f 05b5 0e5d c434 9dfd b134
000000d0: c3be 7034 fe8c d633 c089 e1b4 c7ac 2f36
000000e0: 3271 32b7 3d1c c232 8f75 3637 a013 27b7
000000f0: 44df a4b6 7b05 a534 736a 2336 e9ea 83b5
00000100: ca7a 3eb6 5071 2fb7 d8b7 3d35 af7f f2b4
00000110: 3bf8 1235 ee37 9334 6cf0 6f32 59a2 1db5
00000120: c301 9234 3f8e 1cb4 d81a c3b3 68f8 95b3
00000130: 8afd 8ab4 3dde 0935 8bad 01b5 5953 0235
00000140: b69c 4c34 52f3 83b3 e6d7 d4b4 254c f333
00000150: ef1a ec33 6b73 0ab2 ee63 d8b3 fa4e 9bb4
00000160: 6bf0 90b6 8e12 6436 e03f f336 5f94 bf36
00000170: 8054 85b7 346a 8eb7 482d 7036 67f7 66b7
00000180: 2c2a 90b7 6bcd 00b7 ea59 8bb6 6779 0db6
00000190: 0de0 0a36 0173 67b5 e422 ae36 df3f 39b6
000001a0: bb0d 8736 61dd adb4 1563 1a34 aee7 b1b6
000001b0: 4365 8735 237a 0134 924a beb6 b0d4 f2b6
000001c0: de04 1b35 1574 3236 4dd0 c533 4144 d0b6
000001d0: d555 8736 2a64 70b4 5701 3db6 e4ac b2b6
000001e0: 0c4c c1b5 3dea 6435 e3de 0bb5 4597 ef34
000001f0: 844b bdb1 e03b 02b4 82ad 8cb5 5d46 5133
00000200: d55c 95b4 30f9 b2b3 5a20 d8b3 985f 7f32
00000210: cf5e 21b6 7306 9035 a632 88b5 ce30 6036
00000220: c7ca aeb6 1ff7 2036 7e0f 9d35 bfbc c6b5
00000230: 2b77 75b6 2e3f b235 ba9e a7b5 1ddd 1337
00000240: bf04 ce36 4779 bdb6 6e92 1937 a0b1 cbb4
00000250: c4a4 5a37 bff3 ab36 3b3d b536 964e 5bb7
00000260: cf82 3337 b35d 59b7 b271 1637 2fe7 3eb7
00000270: 2b08 59b7 f394 55b7 5bbc 0337 701f fa34
00000280: 2756 8737 0be1 cab6 ec0d 17b7 abea e136
00000290: 06c8 1f36 0426 3735 5f9f d8b4 700d f034
000002a0: 103b 1c34 7c95 b833 a62a 13b5 68da 2134
000002b0: 72e7 a3b2 f4e3 a933 a2b0 b5b3 5424 9fb4
000002c0: 5a90 8037 b259 b3b7 5d4f fcb7 415c bfb7
000002d0: 8e47 01b8 4783 1ab7 c23d 18b7 7882 7b37
000002e0: ae7e d0b6 1201 f7b6 6d01 c036 ed3f 88b5
000002f0: 0122 9936 1381 45b8 08bc 3cb7 cd42 da36
00000300: 3e7b 8c37 bcf0 27b7 949a 86b8 5f9a fe36
00000310: 5adf 02b8 14a6 1f37 2d8f 5cb7 79ef 40b8
00000320: 4ac3 8a37 0d69 deb7 713c 23b8 d79e fa37
00000330: 444a d637 44ff a9b7 5155 9337 1601 0937
00000340: 5797 eeb7 1f54 3e35 6b51 60b5 ce95 1835
00000350: a36e a533 8bb8 14b5 4037 98b5 0fdb 5a34
00000360: 1011 33b4 361b c7b4 0ef2 a5b4 f083 06b5
00000370: 4235 1fb8 d37c 3138 35d2 49b8 e384 48b7
00000380: a1b9 13b8 73b8 7336 b105 4a37 cd99 3f38
00000390: 0c62 d9b3 2d26 0f38 7c10 73b7 c9d2 4734
000003a0: 6bfa 6d31 e07f 50b3 886d ca34 3a83 e6b4
000003b0: 2b05 dfb3 5b8e ac34 e6b1 39b2 59b7 12b5
000003c0: 1477 7c34 5da2 6eb4 dc13 0735 e7ed b3b4
000003d0: 6681 0235 2432 5c34 0fc0 7ab2 8e6f c4b4
000003e0: e352 7034 5dc2 2e33 ed07 0db4 01e5 f331
000003f0: dc86 63b4 604a 6738 bed9 46b7 7a27 4937

exp_avg_sq f4 [36, 11]
5.800345e-07 5.2970233e-08 3.1699048e-07 7.427319e-08 1.13354865e-07 9.804114e-08 1.1641519e-07 1.7196876e-07
1.9289575e-07 8.661309e-07 1.5100855e-07 4.526396e-06 5.0399344e-06 3.4354168e-06 6.7723236e-06 4.680778e-06
4.016726e-06 1.071672e-06 4.579764e-06 5.074188e-06 4.242384e-06 6.535594e-06 5.8935377e-09 2.6613758e-09
7.72002e-09 5.9186642e-09 1.2158458e-09 7.733335e-10 1.8715016e-09 1.3228707e-09 1.1298109e-09 1.41419285e-08
1.11258665e-08 2.4690575e-08 6.067032e-08 1.2050822e-08 1.7502469e-08 8.500034e-09 1.6933503e-08 2.3849736e-08
2.8528856e-08 6.6977353e-09 8.887893e-09 1.1101423e-08 4.109781e-09 7.3027797e-09 4.4728657e-10 1.4939818e-09
2.5257851e-09 6.158287e-10 1.443817e-09 6.4396044e-10 2.6037223e-09 7.500519e-09 2.1160564e-09 9.302128e-09
9.70804e-09 1.1504184e-08 5.9117014e-09 9.482617e-09 6.2938943e-09 8.2547515e-09 6.4910273e-09 9.211049e-09
1.3936121e-08 7.861608e-09 2.5827056e-09 1.573628e-09 3.761136e-09 4.3698092e-10 4.326828e-09 5.6017596e-10
6.5556954e-10 1.4668913e-09 1.9893314e-09 6.648168e-09 4.895281e-09 2.9328229e-09 4.973865e-09 7.89981e-10
6.145377e-10 3.3041505e-09 2.8921643e-10 1.8349148e-09 4.3689669e-10 1.9699142e-09 6.0528076e-09 1.5640559e-09
5.0381747e-08 3.7640515e-08 2.8777158e-08 2.0363856e-08 4.3591516e-08 2.6001183e-08 9.105231e-09 1.7466547e-08
3.864456e-08 5.535832e-08 1.552824e-08 2.627342e-09 3.2444338e-09 5.967019e-09 9.7444035e-09 7.85494e-10
2.8928984e-09 3.6475992e-10 2.0209976e-09 9.9412185e-09 2.2995783e-09 4.3969455e-09 2.6511349e-09 4.334917e-09
1.261457e-09 2.4529174e-09 1.7430187e-09 3.190812e-09 2.5992288e-09 2.1224904e-09 4.5405253e-09 4.1038772e-09
2.359323e-09 4.0920582e-09 3.1777043e-09 8.475256e-09 3.366737e-09 2.4324773e-09 2.3858315e-09 4.914894e-10
8.051313e-10 6.450401e-09 4.08707e-09 3.8940335e-09 2.597187e-09 1.438819e-09 5.2536455e-09 2.6868259e-09
2.8315925e-09 2.3550542e-09 1.4308691e-09 9.891915e-10 5.350481e-09 1.3960029e-09 7.552279e-09 1.1162865e-08
1.4108166e-08 8.4518895e-08 5.6033088e-08 1.08577405e-08 6.0782725e-08 1.5294201e-08 3.091598e-08 2.2309477e-08
1.8556568e-08 2.7294469e-08 3.2365417e-08 3.8710546e-08 6.328961e-08 6.521327e-08 3.2261088e-08 3.7136854e-08
4.0517772e-08 4.31576e-08 3.2550016e-08 1.36634055e-08 1.1418621e-08 5.280719e-09 4.030554e-09 6.921095e-10
1.573909e-09 2.2195603e-09 7.362756e-10 9.355022e-10 1.2734109e-09 2.0149993e-09 2.7611644e-09 4.8377813e-09
1.5019998e-07 1.3953674e-07 2.0146165e-07 1.74596e-07 2.2922964e-07 5.047531e-08 9.547916e-08 5.0671947e-08
8.999369e-08 1.5612895e-07 4.0979135e-08 4.76762e-08 7.915332e-08 1.4949792e-07 8.17731e-08 5.787153e-08
3.2840802e-08 1.14294174e-07 2.5459087e-07 6.551555e-08 9.2899384e-08 2.8509408e-08 2.7592108e-07 3.9735468e-07
2.1402144e-07 3.122801e-07 8.091745e-07 1.6930892e-07 3.0907992e-07 2.0076246e-07 2.5703122e-07 2.700512e-07
3.10897e-07 1.3193999e-08 2.3685589e-08 4.462399e-09 1.0110556e-08 1.4272699e-08 6.0179635e-09 2.1210873e-09
7.036782e-09 1.4529208e-08 2.111601e-08 2.8294977e-08 3.5705605e-07 5.1389736e-07 5.1744337e-07 4.4718854e-07
8.317999e-07 5.824773e-07 3.302961e-07 9.143128e-07 1.1973066e-07 5.473524e-07 7.065809e-08 8.749852e-10
5.0766835e-10 1.968013e-09 5.001021e-10 6.0323313e-10 1.0662163e-09 5.007804e-10 4.2785603e-10 1.3986292e-09
5.607396e-10 1.6352921e-09 1.5719283e-09 1.1084054e-09 7.583073e-10 2.8219263e-10 2.151521e-09 2.8759548e-10
3.6348738e-10 2.500775e-10 1.5174545e-09 2.330837e-09 1.5589144e-09 6.179845e-07 1.1300153e-07 4.2165713e-08
00000000: abb3 1b35 6381 6333 d72e aa34 1e80 9f33
00000010: 7f6d f333 b08a d233 edff f933 6aa6 3834
00000020: c81e 4f34 1080 6835 ea24 2234 72e1 9736
00000030: b51c a936 038c 6636 d13d e336 940f 9d36
00000040: 6ac7 8636 5fd6 8f35 e0ab 9936 f142 aa36
00000050: cd59 8e36 534c db36 1b80 ca31 6be3 3631
00000060: 02a1 0432 1f5d cb31 c51a a730 8292 5430
00000070: ce9b 0031 60d0 b530 b047 9b30 dcf4 7232
00000080: 1424 3f32 2617 d432 dc49 8233 1308 4f32
00000090: 5658 9632 8b07 1232 2b75 9132 20de cc32
000000a0: 9e0f f532 e721 e631 5eb1 1832 93b8 3e32
000000b0: 0436 8d31 eeeb fa31 fde5 f52f d054 cd30
000000c0: 1592 2d31 1847 2930 cb6f c630 b002 3130
000000d0: 2bed 3231 a2db 0032 0f6a 1131 31cf 1f32
000000e0: 69c8 2632 f0a3 4532 e01f cb31 fee8 2232
000000f0: ae41 d831 c8d0 0d32 ae07 df31 9f3e 1e32
00000100: b56b 6f32 b80f 0732 707b 3131 1d47 d830
00000110: 4d3b 8131 993b f02f 2eab 9431 e1fa 1930
00000120: 9b33 3430 a69b c930 b0b4 0831 e76d e431
00000130: 5933 a831 c48a 4931 94e6 aa31 f925 5930
00000140: 3fec 2830 3b0f 6331 98ff 9e2f 5330 fc30
00000150: be2f f02f 195f 0731 0ff9 cf31 53f6 d630
00000160: 5163 5833 2faa 2133 a431 f732 98ec ae32
00000170: 6139 3b33 3559 df32 3b6d 1c32 5809 9632
00000180: 25fa 2533 1ec3 6d33 f662 8532 b08c 3431
00000190: aff4 5e31 7406 cd31 5768 2732 3aea 5730
000001a0: 68cc 4631 6587 c82f c4e1 0a31 f1c9 2a32
000001b0: 9c06 1e31 f113 9731 422f 3631 55f2 9431
000001c0: 935f ad30 2e90 2831 058f ef30 5c45 5b31
000001d0: 1e9e 3231 3fdb 1131 e202 9c31 1602 8d31
000001e0: a621 2231 209a 8c31 c45e 5a31 929a 1132
000001f0: 435c 6731 9828 2731 fef3 2331 7e19 0730
00000200: 1450 5d30 54a2 dd31 3f6e 8c31 48cc 8531
00000210: 327a 3231 f1bf c530 8e83 b431 24a3 3831
00000220: e795 4231 8dd6 2131 3ba8 c430 15f4 8730
00000230: 54d7 b731 7cdd bf30 46bf 0132 cdc6 3f32
00000240: 5f60 7232 c180 b533 08a9 7033 d988 3a32
00000250: a887 8233 4e60 8332 7bc8 0433 0fa3 bf32
00000260: 5366 9f32 2c75 ea32 2702 0b33 b242 2633
00000270: d5e9 8733 600b 8c33 718f 0a33 6780 1f33
00000280: c305 2e33 485c 3933 1fcd 0b33 4bbc 6a32
00000290: a02b 4432 b271 b531 217d 8a31 e03e 3e30
000002a0: 0051 d830 eb86 1831 ca62 4a30 0f93 8030
000002b0: 2a04 af30 3e78 0a31 ebbe 3d31 9339 a631
000002c0: a846 2134 91d3 1534 5b51 5834 9578 3b34
000002d0: 2a22 7634 31ca 5833 390a cd33 65a2 5933
000002e0: 8e42 c133 66a4 2734 0901 3033 89c4 4c33
000002f0: fffa a933 ad85 2034 3d9b af33 6c8e 7833
00000300: d80c 0d33 e371 f533 b4ae 8834 8eb1 8c33
00000310: fa7f c733 dae4 f432 4e22 9434 0354 d534
00000320: c4cd 6534 73a7 a734 0c36 5935 48cb 3534
00000330: 9fef a534 2a91 5734 1afe 8934 8efb 9034
00000340: 5ce9 a634 d2ab 6232 2975 cb32 ad53 9931
00000350: b2b2 2d32 fe33 7532 91c6 ce31 90c2 1131
00000360: 30c8 f131 229c 7932 9962 b532 500d f332
00000370: 69b1 bf34 c2f2 0935 70e6 0a35 2015 f034
00000380: db48 5f35 895b 1c35 8d53 b134 196f 7535
00000390: 508f 0034 c5ed 1235 b2bc 9733 9c83 7030
000003a0: fc8b 0b30 a73d 0731 8f77 0930 c2d0 2530
000003b0: 278a 9230 4aa7 0930 6237 eb2f e439 c030
000003c0: 8b22 1a30 bac0 e030 4f0b d830 8c56 9830
000003d0: 2271 5030 1523 9b2f f5d9 1331 771b 9e2f
000003e0: 4dd4 c72f 477b 892f af8e d030 852c 2031
000003f0: 6d41 d630 92e3 2535 40ab f233 b119 3533

exp_avg f4 [36]
1.3939488e-06 -7.765681e-05 2.2893316e-06 3.169622e-06 2.2294319e-06 6.26887e-06 2.0533614e-06 1.6111978e-06
1.0350919e-05 2.7242047e-06 4.9485625e-06 2.2495226e-06 2.325835e-06 2.4481662e-06 2.670514e-06 1.8902906e-06
3.9898373e-06 1.1750029e-06 -1.8354175e-06 2.5011375e-06 -1.5376258e-05 1.0337591e-06 1.4136446e-06 1.4515407e-05
1.70419e-06 1.7686829e-06 1.8223186e-06 1.9741965e-06 3.891985e-06 2.592767e-06 -3.544205e-06 6.207155e-06
6.4238275e-06 -8.293588e-06 1.5998274e-06 5.470377e-06
00000000: b717 bb35 afdb a2b8 6ba2 1936 b1b5 5436
00000010: 599d 1536 2f59 d236 7bcc 0936 5640 d835
00000020: dca8 2d37 7bd1 3636 d40b a636 81f6 1636
00000030: 8b15 1c36 2d4b 2436 1537 3336 e4b5 fd35
00000040: 71e0 8536 cbb4 9d35 7758 f6b5 37d9 2736
00000050: 43fc 80b7 b1bf 8a35 75bc bd35 3387 7337
00000060: 86bb e435 7b63 ed35 6496 f435 707c 0436
00000070: e697 8236 66ff 2d36 fad8 6db6 0e47 d036
00000080: 428c d736 b024 0bb7 a7b9 d635 2e8e b736

exp_avg_sq f4 [36]
5.00602e-08 5.1023676e-06 2.4594362e-08 2.980792e-08 2.822362e-08 3.8470265e-08 2.9474961e-08 2.1790902e-08
2.2872042e-08 1.5727775e-08 1.5327904e-08 2.173717e-08 1.5846103e-08 1.0577234e-08 3.1474652e-08 2.3872797e-08
3.0510428e-08 4.8633996e-08 3.8090033e-07 7.238949e-08 3.6717807e-07 7.835703e-09 1.2171032e-08 3.4618758e-08
1.1734083e-08 7.042401e-08 2.7014554e-08 2.4657288e-08 1.9110585e-08 6.821962e-08 2.909156e-08 1.0347529e-08
2.2690699e-08 2.558252e-07 2.5356634e-08 6.1643908e-09
00000000: c601 5733 0135 ab36 9343 d332 2806 0033
00000010: 6670 f232 813a 2533 2030 fd32 b32e bb32
00000020: 2778 c432 be19 8732 6baa 8332 8bb8 ba32
00000030: f31d 8832 2bb7 3532 bf2e 0733 d610 cd32
00000040: 920a 0333 a5e1 5033 8b7e cc34 8b74 9b33
00000050: 9220 c534 c99d 0632 c418 5132 baaf 1433
00000060: 0b97 4932 023c 9733 a20d e832 f3cd d332
00000070: 9f28 a432 2280 9233 04e5 f932 eac4 3132
00000080: 60e9 c232 5958 8934 d4cf d932 8ece d331
