lightning_logs/version_101/checkpoints/epoch=4.ckpt (torch_old, 577539 bytes, 21 tensors)

exp_avg f4 [128, 81]
5.986377e-11 -2.3468383e-11 -1.2448038e-10 -1.0783958e-11 1.3672893e-10 -9.710447e-11 -9.349932e-11 -1.6480817e-10
-1.71044e-10 -6.815171e-11 1.9871964e-10 1.4871708e-10 9.236297e-11 1.04362075e-10 7.3136316e-11 9.581287e-11
3.7409017e-11 -1.2164398e-11 1.2093393e-10 1.1749972e-10 -7.184845e-11 -4.236054e-11 3.5652557e-11 1.5170033e-10
-3.49369e-11 1.2817554e-11 -9.698368e-11 -4.509748e-11 2.1050267e-10 1.0435156e-10 -6.890055e-11 1.6710146e-10
3.1924987e-11 -1.2824027e-10 5.162641e-11 -9.751834e-11 -6.942756e-11 7.987852e-11 1.4210572e-10 -9.8933896e-11
8.292189e-11 5.582284e-11 -1.1462417e-11 1.339597e-10 1.226957e-10 8.240011e-11 -3.5064635e-11 -1.770372e-10
-8.954545e-11 3.7843124e-11 -1.4031525e-10 -1.1120568e-10 -8.706021e-11 -2.0791086e-11 4.9065276e-11 -5.881212e-11
-1.06197454e-10 8.722702e-11 1.3477422e-10 1.9192403e-10 6.7464846e-11 -5.7557913e-11 8.417405e-11 4.3682484e-12
-6.541275e-11 -1.4478363e-12 -1.3932114e-10 7.56014e-11 8.273304e-11 2.5154535e-11 2.3401066e-11 1.777184e-11
1.715203e-10 7.6987416e-11 -1.1451565e-10 -8.761245e-11 -1.2847898e-10 1.949417e-10 1.5634927e-10 -1.0301258e-10
-1.2965112e-10 9.981616e-13 -9.174471e-16 -2.0558668e-12 7.832361e-13 3.4274756e-13 -2.1490446e-12 -1.9068902e-12
-2.5421674e-12 -3.2717283e-13 -1.5868701e-12 3.2424313e-12 2.007931e-12 2.1056685e-12 1.8134048e-12 1.1842453e-12
1.2431096e-12 2.0924001e-13 1.6205147e-12 2.2457793e-12 2.551896e-12 -2.665031e-12 -1.2085947e-12 6.4112116e-13
1.5934086e-12 1.1552831e-13 -4.4335577e-13 -3.132341e-12 -1.3251793e-12 3.2006778e-12 2.5785507e-12 -2.0366625e-13
2.1066777e-12 9.971513e-14 -2.2191864e-12 1.8511614e-12 -1.1862658e-12 -6.9975953e-13 3.953342e-12 2.2334949e-12
-2.206867e-12 1.2076324e-12 8.3776383e-13 -8.998457e-13 1.6991158e-12 1.340884e-12 1.4820712e-13 -2.9130547e-13
-2.3497985e-12 -8.600428e-13 -4.9273235e-14 -1.2935707e-12 -1.19392e-12 -1.6080042e-12 -1.3849869e-12 -6.753707e-13
-1.6174617e-12 -4.700917e-13 1.1443973e-12 2.0001214e-12 2.04834e-12 1.7013045e-12 -6.11906e-13 -1.3058453e-12
1.8709077e-13 -1.4854901e-12 4.4055366e-14 -1.0636778e-12 -1.3531554e-12 1.7951297e-12 -8.632559e-13 1.3416687e-12
7.0420144e-14 2.172539e-12 1.3448392e-12 -2.2812694e-12 -2.6820245e-13 -1.7487355e-12 2.151999e-12 1.5209079e-12
-1.8404648e-12 -2.148844e-12 -2.80227e-13 3.9552815e-13 7.174069e-13 -2.4525835e-13 -6.569612e-13 5.634786e-13
6.17335e-13 9.681998e-13 8.238679e-13 4.933718e-13 -1.0106202e-12 -7.8720824e-13 -5.18908e-13 -6.3150494e-13
-2.0537119e-13 -6.26788e-13 -1.9995018e-13 2.606874e-13 -7.61069e-13 -7.5940735e-13 7.2927255e-13 3.1125848e-13
3.525801e-15 -1.0307732e-12 8.6708784e-14 -2.8135892e-13 6.0913676e-13 1.8503641e-14 -9.164874e-13 -8.593383e-13
5.7369674e-13 -8.4664003e-13 -1.067088e-13 8.1883404e-13 -4.5409612e-13 6.8455224e-13 4.55982e-13 -5.194787e-13
-8.587676e-13 7.559286e-13 -5.7128797e-13 -1.60988e-13 3.9488164e-13 -7.865132e-13 -5.569709e-13 -6.4087017e-13
2.7093215e-13 9.611076e-13 6.1208796e-13 -2.9319085e-13 8.801676e-13 6.6887365e-13 6.1776934e-13 3.116569e-13
-5.74254e-14 5.286353e-13 6.430049e-13 -4.9024326e-13 -7.14109e-13 -8.969152e-13 -5.918071e-13 5.1319994e-13
-2.21842e-13 -1.1425554e-13 4.874172e-13 3.163836e-13 5.1369743e-13 -3.4456325e-13 -6.453051e-13 -5.06762e-14
-2.7108058e-13 -3.7806924e-13 -9.902846e-13 -6.35805e-13 7.9188836e-13 6.5969035e-13 7.6751984e-13 -1.0284356e-12
-8.702961e-13 7.8415735e-13 9.022203e-13 2.5816111e-12 3.2412874e-11 3.1374497e-11 -3.1064665e-11 -2.9086348e-11
2.7452006e-11 2.5310703e-11 2.8790451e-11 1.0228485e-11 2.6635869e-11 -2.075076e-11 -2.9093242e-11 -2.7427394e-11
00000000: 4ea4 832e 1a6e cead 1dde 08af a1b6 3dad
00000010: c655 162f f588 d5ae 709b cdae 6035 35af
00000020: 9b10 3caf 01de 95ae 9b7e 5a2f 2384 232f
00000030: bb1b cb2e a07e e52e 16d4 a02e dab1 d22e
00000040: cf86 242e 94ff 55ad e0f7 042f 3b31 012f
00000050: 15ff 9dae ba4d 3aae 36cd 1c2e d9cb 262f
00000060: 74a7 19ae 227d 612d f544 d5ae 4057 46ae
00000070: 3c73 672f b578 e52e 9083 97ae e1ba 372f
00000080: 5768 0c2e 6d00 0daf 2c0e 632e f271 d6ae
00000090: 3eac 98ae 9ca7 af2e 343f 1c2f d58e d9ae
000000a0: e058 b62e ee82 752e 23a6 49ad 4e4a 132f
000000b0: c5e7 062f 2333 b52e 4537 1aae 8ba7 42af
000000c0: 9be9 c4ae 926f 262e 3b47 1aaf 3b8b f4ae
000000d0: 8b72 bfae 5de1 b6ad 97ca 572e 4854 81ae
000000e0: da87 e9ae 72d0 bf2e 922f 142f d005 532f
000000f0: 555b 942e 7324 7dae c719 b92e afb1 992c
00000100: 1bd8 8fae cdc3 cbab 6a2f 19af ce3f a62e
00000110: 90ee b52e fa42 dd2d 84d6 cd2d a052 9c2d
00000120: ac96 3c2f 104c a92e 94d2 fbae 6da9 c0ae
00000130: 9e43 0daf 3657 562f 68e8 2b2f ed86 e2ae
00000140: 8c8d 0eaf 907a 8c2b d337 84a6 34ab 10ac
00000150: 1c76 5c2b 21f3 c02a bf39 17ac 7b2f 06ac
00000160: 9ee3 32ac 932e b8aa 0555 dfab 732a 642c
00000170: ab4b 0d2c 5a2c 142c cb36 ff2b efaa a62b
00000180: bef3 ae2b 5495 6b2a 3211 e42b 5d08 1e2c
00000190: df92 332c ee88 3bac 3718 aaab a675 342b
000001a0: 9840 e02b c512 022a 4d96 f9aa 3d6b 5cac
000001b0: 9e80 baab 493a 612c 0a73 352c cd4e 65aa
000001c0: 883e 142c dc89 e029 4f29 1cac 8f43 022c
000001d0: bbf3 a6ab fdf6 44ab 8a18 8b2c 112b 1d2c
000001e0: 624b 1bac 8bf5 a92b 3fcf 6b2b b748 7dab
000001f0: 1921 ef2b 70b6 bc2b cbdd 262a 8bfd a3aa
00000200: 355a 25ac 9d14 72ab 2ce8 5da9 cc0d b6ab
00000210: 8007 a8ab 754e e2ab 69eb c2ab 9619 3eab
00000220: 33a3 e3ab ad51 04ab 420f a12b fcbe 0c2c
00000230: 9d23 102c f46f ef2b 793c 2cab 09c8 b7ab
00000240: 3ea5 522a 6c10 d1ab 6168 4629 08b3 95ab
00000250: 9070 beab 5da4 fc2b 25fc 72ab b6d2 bc2b
00000260: 7392 9e29 fce0 182c f044 bd2b b287 20ac
00000270: 0cfc 96aa d61c f6ab f86e 172c 7b0c d62b
00000280: de82 01ac 2236 17ac f8c0 9daa 9da9 de2a
00000290: 9dee 492b 7411 8aaa 0beb 38ab ea9a 1e2b
000002a0: adc3 2d2b 1343 882b f0e5 672b 2fdf 0a2b
000002b0: 6e3b 8eab 5594 5dab 430f 12ab bac0 31ab
000002c0: 373a 67aa d66c 30ab b71f 61aa 04c1 922a
000002d0: cd38 56ab 11c1 55ab a045 4d2b 1339 af2a
000002e0: 8c0f 7e27 8511 91ab 3640 c329 1864 9eaa
000002f0: ee74 2b2b 7eaa a628 f0fb 80ab dae1 71ab
00000300: 357b 212b d84e 6eab 6f49 f0a9 367b 662b
00000310: 26a2 ffaa 30af 402b f758 002b 6338 12ab
00000320: bab8 71ab 65c6 542b a3cd 20ab a241 35aa
00000330: 714c de2a 4062 5dab fcc5 1cab 9063 34ab
00000340: 7085 982a 8d43 872b 9649 2c2b 410d a5aa
00000350: c2be 772b 6d45 3c2b f9e2 2d2b 7e72 af2a
00000360: 7d4f 81a9 30cc 142b 63fd 342b c0fd 09ab
00000370: fa00 49ab 8d75 7cab 3294 26ab f473 102b
00000380: 9ac5 79aa eba3 00aa 1c32 092b af1b b22a
00000390: cd97 102b ccf8 c1aa 22a3 35ab ae39 64a9
000003a0: d49a 98aa 85d5 d4aa c35e 8bab 94f6 32ab
000003b0: 92e5 5e2b b3af 392b a209 582b 4cbd 90ab
000003c0: 71f7 74ab 7eb8 5c2b d3f3 7d2b 2caa 352c
000003d0: a78d 0e2e 8bfc 092e b49f 08ae a2d8 ffad
000003e0: 6c78 f12d a3a2 de2d 553e fd2d 00f1 332d
000003f0: a54a ea2d 8f86 b6ad 28e8 ffad 0041 f1ad

exp_avg_sq f4 [128, 81]
1.0811518e-13 8.734163e-13 1.0908388e-12 9.570015e-13 7.436102e-13 3.2464607e-13 2.9215654e-13 1.2970341e-12
2.4544523e-14 4.588665e-13 3.6886046e-13 5.4650175e-13 3.180051e-13 7.66011e-13 2.3486741e-14 6.5349175e-13
1.1139988e-12 8.7843117e-13 8.259132e-13 1.3795115e-12 3.8846132e-13 2.591103e-13 2.3688218e-13 1.5253e-12
5.990809e-14 9.924632e-13 1.1266769e-13 4.0890961e-13 3.4247935e-13 1.0882457e-12 4.207646e-13 4.8495e-13
1.8309827e-13 1.1260358e-12 3.9203444e-13 1.8373506e-12 1.1093446e-13 2.845029e-14 1.1080674e-12 9.88663e-13
8.4527144e-13 7.263795e-14 4.991946e-13 1.3061236e-12 4.024018e-13 1.4805076e-12 6.1717255e-13 1.7808053e-12
8.6658393e-13 7.575345e-13 8.9124254e-13 8.908539e-13 3.8489364e-13 6.9288314e-13 5.663607e-13 9.703063e-13
4.6972604e-13 3.053393e-13 4.54091e-14 8.988874e-14 9.038629e-13 1.2940481e-12 2.6337209e-14 1.7953924e-13
4.3644333e-13 5.851918e-13 2.764289e-13 3.453328e-14 6.7938916e-13 1.4193718e-13 1.3764781e-12 2.7755706e-13
1.198747e-12 1.1654344e-12 5.264571e-13 4.5016473e-13 5.029164e-13 2.4317926e-13 1.7754738e-12 4.6830205e-13
6.9076743e-13 2.599249e-13 2.2649875e-12 5.557812e-12 6.8374e-12 1.8775131e-12 4.3515224e-13 1.3238926e-12
5.7273322e-12 8.8335524e-13 3.996946e-12 1.798309e-12 1.9554065e-12 4.0368347e-12 3.536698e-12 4.929021e-13
5.075805e-12 1.6331289e-11 4.737585e-12 3.881002e-12 1.4321382e-11 1.8230077e-12 4.5930182e-12 2.681008e-12
2.063729e-11 2.3071354e-12 9.9112454e-12 2.8660566e-12 6.551615e-12 2.2027389e-12 4.634383e-12 6.3067276e-13
1.4401088e-12 1.0362349e-12 1.0424844e-11 2.067891e-12 7.478033e-12 5.003795e-13 1.1473038e-13 1.03140205e-11
1.4001257e-11 1.07044625e-11 5.6848726e-13 9.488749e-12 1.3020783e-11 2.5297763e-12 6.300935e-12 3.9548282e-12
1.02981e-11 1.6125642e-12 8.5245136e-12 8.916359e-12 8.487923e-12 1.7802889e-12 4.7722954e-12 3.422589e-12
1.4470207e-12 1.4491007e-12 2.3004368e-12 2.5830473e-12 5.604482e-13 2.4908907e-12 6.7928987e-12 9.467761e-13
2.7638952e-12 7.1313827e-12 7.350952e-12 2.4883988e-12 4.943344e-13 1.6059186e-12 8.8293495e-13 1.9215969e-11
2.3111762e-12 1.1332744e-11 1.722056e-11 3.4722036e-12 1.1166805e-12 7.19175e-13 1.9147255e-12 1.28196264e-11
1.3229406e-12 6.8317825e-12 1.0996176e-14 1.6516617e-14 6.467173e-14 2.26723e-14 7.234164e-14 1.5760352e-14
3.9210036e-14 4.6774515e-14 1.5165518e-14 4.4579493e-14 9.1414906e-14 1.4882227e-14 8.592027e-15 4.8859317e-14
3.170688e-15 4.6660192e-14 7.575021e-15 3.306999e-14 7.0776386e-14 6.8218014e-14 7.864657e-14 3.8296693e-15
1.6990273e-14 2.7065174e-14 3.7705142e-15 1.32649646e-14 6.0008097e-14 2.2763038e-15 6.2421415e-14 7.115938e-14
2.744919e-14 7.77983e-14 5.747294e-16 7.94258e-14 2.8221517e-14 5.2461047e-14 5.742927e-15 5.040908e-15
7.76982e-14 7.6695316e-14 2.6545528e-14 1.3462483e-15 1.3923272e-14 7.763011e-14 5.7008697e-15 4.8041964e-14
5.8685716e-14 6.481631e-14 6.81345e-14 4.2976876e-14 3.6223283e-14 8.041347e-14 2.4396024e-14 5.700845e-14
4.0162995e-15 4.1588108e-14 6.309573e-14 2.9137448e-15 2.9208877e-14 2.9981117e-14 2.4694292e-14 4.896429e-14
6.4956416e-16 2.3725429e-15 3.8722586e-14 3.3876622e-14 5.8201725e-17 7.1757153e-16 7.3717515e-14 1.9133304e-14
2.0216012e-14 4.2947833e-14 7.9434106e-14 6.534293e-14 9.461045e-14 7.2388974e-14 6.0699926e-14 3.5270838e-14
5.4235828e-14 5.837986e-14 6.379258e-14 3.4950596e-13 4.7325924e-13 1.861782e-12 1.260586e-13 1.854838e-12
6.4600663e-13 1.1690204e-12 1.7107576e-12 9.43897e-13 9.177973e-13 2.6144783e-12 1.0912188e-12 3.0077858e-13
00000000: 2874 f329 47d8 752b 9c85 992b 9daf 862b
00000010: c34e 512b 6ec2 b62a 3278 a42a 948a b62b
00000020: d113 dd28 d128 012b 65a6 cf2a 9ad3 192b
00000030: 5d05 b32a e99c 572b bd8c d328 0bf1 372b
00000040: 09c8 9c2b a341 772b 5179 682b 2426 c22b
00000050: 2daf da2a bbdd 912a 525a 852a b9aa d62b
00000060: aae6 8629 41ad 8b2b 80b4 fd29 1632 e62a
00000070: 7acc c02a 2f28 992b 92de ec2a 5580 082b
00000080: 7c26 4e2a b779 9e2b 1eb2 dc2a c44a 012c
00000090: 5dcd f929 f320 0029 56f2 9b2b 5724 8b2b
000000a0: 3aec 6d2b ed90 a329 c382 0c2b 10d2 b72b
000000b0: 3688 e22a e85c d02b f8b7 2d2b 46a0 fa2b
000000c0: f4eb 732b 1d3a 552b cbdc 7a2b cac0 7a2b
000000d0: 05ad d82a 7e07 432b 976a 1f2b f88e 882b
000000e0: 5437 042b 08e4 ab2a 2181 4c29 5569 ca29
000000f0: 306a 7e2b ff1e b62b 7839 ed28 aa24 4a2a
00000100: 1db2 f52a 83b7 242b 9a9d 9b2a 2986 1b29
00000110: 263b 3f2b 9bce 1f2a dab8 c12b 3040 9c2a
00000120: 6ab5 a82b 3305 a42b 3b2f 142b 936b fd2a
00000130: f28e 0d2b d3e5 882a 2fe0 f92b b8d0 032b
00000140: 0a6f 422b 2053 922a 6362 1f2c 528c c32c
00000150: d391 f02c 451e 042c 0cf8 f42a 4252 ba2b
00000160: 3983 c92c 74a4 782b 4aa1 8c2c e916 fd2b
00000170: 7999 092c 9308 8e2c 7ddf 782c 57bd 0a2b
00000180: c996 b22c cba6 8f2d 5fb0 a62c f58c 882c
00000190: c5f1 7b2d 6348 002c 3b9a a12c bfa8 3c2c
000001a0: 0c87 b52d a859 222c 485c 2e2d 49ae 492c
000001b0: b483 e62c 0401 1b2c d00e a32c c384 312b
000001c0: 63ad ca2b 4cd6 912b 5365 372d d083 112c
000001d0: 118e 032d 25d8 0c2b c82c 012a 3872 352d
000001e0: 0e50 762d 9d50 3c2d d303 202b 87ed 262d
000001f0: 6510 652d 6604 322c c7b1 dd2c ed25 8b2c
00000200: 852a 352d c0f2 e22b fff6 152d b6db 1c2d
00000210: 3552 152d ab8d fa2b 04e9 a72c e2d7 702c
00000220: 6aa6 cb2b 5bf1 cb2b fce0 212c 0bc4 352c
00000230: 8dc0 1d2b e647 2f2c fe00 ef2c 343f 852b
00000240: e97d 422c c9e9 fa2c bf51 012d 021b 2f2c
00000250: 8c24 0b2b 5103 e22b 2b86 782b 8406 a92d
00000260: 73a2 222c 245e 472d 4179 972d a955 742c
00000270: a828 9d2b 056e 4a2b a1bc 062c 7786 612d
00000280: f52f ba2b 3a5f f02c e916 4628 bac4 9428
00000290: b7a0 9129 c436 cc28 1ee6 a229 e6f4 8d28
000002a0: 1896 3029 58a7 5229 4e99 8828 a8c4 4829
000002b0: 1bd9 cd29 140c 8628 bbc7 1a28 f50a 5c29
000002c0: df78 6427 8a23 5229 9e75 0828 1aef 1429
000002d0: cf5f 9f29 029d 9929 a918 b129 77fa 8927
000002e0: e708 9928 0bc8 f328 dbd8 8727 daf5 6e28
000002f0: 5020 8729 6506 2427 7f8f 8c29 973c a029
00000300: 863d f728 ab2f af29 8ba7 2526 dbd9 b229
00000310: 6332 fe28 7843 6c29 27e9 ce27 2b9e b527
00000320: f6f5 ae29 d7b3 ac29 d219 ef28 cc03 c226
00000330: c2d1 7a28 b6ce ae29 3e65 cd27 9d5c 5829
00000340: 0326 8429 0ff4 9129 dd6c 9929 f78c 4129
00000350: 9a22 2329 3613 b529 67bd db28 225f 8029
00000360: d3b3 9027 d34b 3b29 3614 8e29 1bf5 5127
00000370: 8b8b 0329 e005 0729 296d de28 fc83 5c29
00000380: 6039 3b26 b1f5 2a27 1a64 2e29 1691 1829
00000390: 3c34 8624 6fd3 4e26 41ff a529 6556 ac28
000003a0: f316 b628 7b6b 4129 a5de b229 a223 9329
000003b0: 360b d529 6701 a329 20af 8829 82d8 1e29
000003c0: a741 7429 b375 8329 eba5 8f29 1ec1 c42a
000003d0: ec35 052b e202 032c ebed 0d2a ca85 022c
000003e0: afd5 352b 6686 a42b 8ac4 f02b 79d7 842b
000003f0: 222b 812b 41fa 372c 4d93 992b c352 a92a

exp_avg f4 [128, 81]
2.410901e-09 -1.4745674e-09 -4.103637e-10 1.2423326e-09 -2.2021134e-09 -1.1552598e-09 5.55857e-10 -7.285914e-10
1.7457299e-09 5.4151966e-10 7.6659334e-10 -7.0636946e-10 -1.0179045e-09 5.836954e-10 5.5345384e-10 2.914412e-11
2.705359e-09 -9.785898e-10 1.683471e-09 6.403186e-10 -4.7421816e-10 -1.4963484e-09 -1.7644531e-09 -3.3136752e-10
5.8342536e-10 -2.82273e-10 -1.728253e-10 -2.5105518e-10 -1.4645056e-09 -1.1998815e-09 -9.423751e-10 -1.1307459e-09
-6.3133204e-10 6.4537137e-10 -2.9965384e-11 1.4229181e-09 -3.6630252e-10 8.911849e-10 -1.0592468e-09 -1.6091376e-09
-2.0071171e-10 -3.6154338e-10 -5.555239e-10 9.295251e-10 3.1061722e-09 8.434293e-10 1.3492724e-09 -2.1251139e-09
1.6498287e-09 -1.0192787e-09 1.555705e-09 -2.3152764e-09 2.116048e-10 3.9206857e-10 1.821546e-10 -1.4695504e-09
2.652605e-10 5.1071325e-10 1.920382e-10 1.5894678e-09 -6.600802e-11 -5.47607e-10 -4.876558e-10 -2.6675254e-11
8.863315e-10 -1.4612813e-09 1.7160355e-09 -1.5546473e-09 -3.3650477e-10 4.7984147e-12 -9.949279e-10 1.3430086e-11
-8.7746016e-10 -1.3595167e-09 4.2024095e-10 -1.5945766e-10 1.9739166e-09 7.793179e-10 -2.0956807e-09 1.8940674e-10
8.764889e-10 -4.0654538e-09 3.2097713e-09 1.5391414e-09 -2.385159e-09 5.4871103e-09 2.0331214e-09 -2.0788022e-09
-2.2318297e-10 -2.3518947e-09 -3.7926046e-10 -3.320617e-10 1.1397652e-09 1.2525914e-09 -1.616508e-09 -9.055007e-10
-7.521871e-10 -4.591977e-09 1.6116877e-09 -3.343263e-09 -1.439564e-09 3.4646577e-10 1.3455428e-09 1.906031e-09
-1.5161205e-09 -2.9159606e-09 7.497004e-10 1.1599063e-09 -1.6231566e-09 2.768996e-09 2.7869784e-09 6.526254e-10
3.992997e-09 2.8329976e-09 -9.430711e-10 -1.7274235e-09 -1.6275378e-09 4.0631798e-10 -2.8978493e-09 1.27593e-09
3.2642073e-09 -4.015002e-10 -5.720337e-11 1.9500688e-09 -2.250568e-09 -6.294943e-09 -1.6062031e-09 -3.1354237e-09
1.5431583e-09 -4.733598e-09 1.0733272e-09 -2.2692839e-09 5.042859e-09 8.602177e-10 -1.0176127e-09 -5.559341e-10
1.9012634e-09 -8.6127516e-10 -2.3718858e-09 -1.6889705e-11 -2.4593645e-09 -3.3971057e-10 4.5697549e-10 8.6056323e-10
1.2569773e-09 -9.979172e-10 2.8452072e-09 -1.8855568e-09 2.3198343e-09 -3.616662e-12 1.4919593e-09 2.362117e-09
1.5525697e-10 2.137844e-09 2.3279498e-09 -1.2702854e-09 1.326106e-10 -3.6492904e-09 -5.658294e-10 3.4747425e-09
8.244494e-10 -1.3184736e-09 -6.3104695e-09 5.6768505e-09 2.0832576e-09 -3.445991e-09 8.038967e-09 3.2156269e-09
-2.201336e-09 -3.075001e-10 -1.8328915e-09 2.404758e-10 7.654752e-10 1.209367e-09 1.217946e-09 -1.3486229e-09
-1.5067977e-09 -2.3501003e-11 -6.68982e-09 1.4251458e-09 -3.6044547e-09 -1.3226172e-09 4.9151905e-10 2.919771e-09
2.3369644e-09 -3.0881047e-09 -2.5410092e-09 8.163507e-10 7.189591e-10 -6.740776e-10 3.9867176e-09 4.984753e-09
2.725683e-10 4.652776e-09 4.6097295e-09 -1.8205472e-09 -2.3142697e-09 -2.4438611e-09 -1.1871065e-09 -3.93267e-09
1.7164786e-09 3.2694532e-09 -1.0649583e-09 8.676833e-10 2.17548e-09 -2.0155302e-09 -7.606477e-09 -2.6128277e-09
-3.5812484e-09 1.893976e-09 -5.7333365e-09 3.0598324e-09 -1.218816e-09 5.726705e-09 2.1369144e-09 -1.0706709e-09
-8.068278e-10 3.485275e-09 -6.8176004e-10 -2.9902876e-09 1.3986214e-09 -2.4775106e-09 -1.4167014e-09 -4.2790496e-10
2.3428504e-09 2.253456e-09 -8.414964e-10 2.1539308e-09 -1.3778703e-09 2.9409417e-09 8.1764895e-10 -2.4870217e-10
2.9200078e-09 1.1113661e-09 2.561819e-09 3.7171226e-09 -2.0009931e-09 -1.6400101e-10 -3.0034e-09 2.6010102e-10
5.7229386e-09 9.407879e-10 -1.126816e-09 -5.1318922e-09 3.6589436e-09 1.2323529e-09 -2.4347147e-09 4.9329603e-09
2.2970805e-09 -1.3152341e-09 6.5679745e-10 -2.9701022e-09 -1.2075726e-09 -1.0834399e-09 1.3719692e-09 2.145948e-09
00000000: 05ad 2531 baa9 cab0 8e99 e1af b1be aa30
00000010: fd53 17b1 17c7 9eb0 f6ca 1830 1046 48b0
00000020: 69ee ef30 0fda 1430 36b8 5230 552a 42b0
00000030: 55e6 8bb0 ea71 2030 da21 1830 5d2d 002e
00000040: 2ee9 3931 117f 86b0 df5f e730 6a02 3030
00000050: 235a 02b0 14a8 cdb0 2d81 f2b0 d52b b6af
00000060: e95e 2030 652e 9baf ff05 3eaf e004 8aaf
00000070: b647 c9b0 14e9 a4b0 e084 81b0 9668 9bb0
00000080: 0b8a 2db0 f965 3130 06ca 03ae 7b90 c330
00000090: 7f60 c9af 90f7 7430 ef94 91b0 7f28 ddb0
000000a0: 53af 5caf b5c2 c6af 85b3 18b0 8481 7f30
000000b0: 5c74 5531 10d7 6730 4d71 b930 6609 12b1
000000c0: 30c0 e230 ae16 8cb0 81d0 d530 c61a 1fb1
000000d0: 75a9 682f bf8a d72f f647 482f 35f9 c9b0
000000e0: 19d4 912f 4062 0c30 f325 532f 6d74 da30
000000f0: 3627 91ae 6b86 16b0 ba0b 06b0 55a3 eaad
00000100: 09a2 7330 44d6 c8b0 a2d9 eb30 4aab d5b0
00000110: d6fe b8af 47d4 a82c eabd 88b0 bb43 6c2d
00000120: c531 71b0 bed9 bab0 a807 e72f 5753 2faf
00000130: 82a5 0731 9f37 5630 9b03 10b1 4241 502f
00000140: 6ced 7030 1cb0 8bb1 e592 5c31 b989 d330
00000150: 29e8 23b1 2289 bc31 0db7 0b31 adda 0eb1
00000160: 6c64 75af f89e 21b1 2a80 d0af 888d b6af
00000170: eca5 9c30 a427 ac30 d22b deb0 f2e6 78b0
00000180: 76c2 4eb0 75c7 9db1 3882 dd30 4ebf 65b1
00000190: 28da c5b0 b978 be2f 14ee b830 41fb 0231
000001a0: bf5f d0b0 1f62 48b1 7a13 4e30 936a 9f30
000001b0: bf15 dfb0 b148 3e31 0b85 3f31 6e64 3330
000001c0: c632 8931 9fae 4231 5d9d 81b0 506a edb0
000001d0: e5af dfb0 2c60 df2f 8123 47b1 cc5c af30
000001e0: 8b50 6031 21ba dcaf 4595 7bae f901 0631
000001f0: 69a8 1ab1 e74a d8b1 3fc1 dcb0 f576 57b1
00000200: 0e17 d430 2ba5 a2b1 5884 9330 aaf1 1bb1
00000210: 7545 ad31 7074 6c30 10dc 8bb0 62d0 18b0
00000220: 61a7 0231 dabe 6cb0 a8fe 22b1 3c90 94ad
00000230: 9901 29b1 03c2 baaf 9539 fb2f c18c 6c30
00000240: f5c1 ac30 1727 89b0 6a85 4331 1193 01b1
00000250: f56a 1f31 fe7f 7eac a70d cd30 cd52 2231
00000260: f4b4 2a2f 59e9 1231 baf9 1f31 3296 aeb0
00000270: 91ce 112f ffc6 7ab1 b488 1bb0 51c8 6e31
00000280: 789f 6230 aa35 b5b0 7ad3 d8b1 1b0e c331
00000290: 0e29 0f31 84ce 6cb1 c01b 0a32 e8f9 5c31
000002a0: 5046 17b1 cb0c a9af 23e9 fbb0 f633 842f
000002b0: 8769 5230 d236 a630 aa64 a730 735a b9b0
000002c0: bb17 cfb0 8eb7 cead 47dc e5b1 dcde c330
000002d0: 3db2 77b1 75c7 b5b0 941b 0730 28a5 4831
000002e0: 5098 2031 8336 54b1 e89d 2eb1 9365 6030
000002f0: 40a0 4530 ff49 39b0 8afb 8831 5a46 ab31
00000300: 94d8 952f 40de 9f31 9c63 9e31 cf36 fab0
00000310: 1009 1fb1 dcf0 27b1 9927 a3b0 2220 87b1
00000320: 39e9 eb30 d4ac 6031 e45d 92b0 c981 6e30
00000330: 737f 1531 9581 0ab1 a4ad 02b2 5a8d 33b1
00000340: fd19 76b1 2e27 0231 f6fe c4b1 2445 5231
00000350: 4783 a7b0 a1c4 c431 ffd8 1231 e226 93b0
00000360: 76c7 5db0 9b81 6f31 9966 3bb0 b27d 4db1
00000370: 9e39 c030 d440 2ab1 c0b5 c2b0 453e ebaf
00000380: dcff 2031 38db 1a31 0b4f 67b0 5a04 1431
00000390: 805f bdb0 9819 4a31 eec0 6030 b8b9 88af
000003a0: 52a9 4831 b8be 9830 ff0b 3031 5070 7f31
000003b0: d881 09b1 2e52 34af 5f64 4eb1 f7fd 8e2f
000003c0: 80a3 c431 084d 8130 50de 9ab0 9a54 b0b1
000003d0: d170 7b31 905f a930 f44f 27b1 c77e a931
000003e0: abda 1d31 b0c3 b4b0 038a 3430 971a 4cb1
000003f0: aff7 a5b0 27e8 94b0 e08f bc30 eb77 1331

exp_avg_sq f4 [128, 81]
2.2548565e-12 7.773375e-13 7.302593e-12 1.4825264e-12 3.1809687e-12 2.0498967e-12 1.6740695e-12 1.4082346e-12
4.3999963e-13 1.0833351e-12 8.771863e-13 1.5925481e-12 1.1423767e-12 4.728901e-12 9.111437e-13 1.3767352e-12
8.8102475e-13 4.4487756e-13 4.135282e-12 3.0347378e-12 3.4329057e-12 4.600574e-13 2.4049695e-12 9.603586e-13
9.282411e-13 9.949838e-13 5.4897054e-13 2.1829528e-12 1.0760871e-12 1.6491945e-12 2.6023712e-12 4.1445007e-12
1.2850557e-12 7.1324405e-12 1.5067165e-12 1.254319e-11 9.131364e-13 8.051517e-13 7.979356e-12 3.9924028e-12
1.3263446e-12 1.1692075e-12 3.8569587e-13 5.5905836e-12 1.1315414e-12 3.170429e-12 8.573515e-13 3.376737e-12
4.360702e-12 8.183591e-13 7.08811e-13 3.4161111e-12 2.5010913e-12 7.1209787e-12 2.0583468e-12 5.454221e-12
3.89821e-12 1.0725051e-12 4.691861e-13 8.816339e-13 1.4189144e-12 1.7184488e-12 4.0128138e-13 3.310468e-12
9.034634e-13 2.0063452e-12 8.5588145e-13 1.1117812e-12 1.3917526e-12 1.1350796e-12 1.3711865e-12 2.7374734e-12
2.0056557e-11 2.130113e-12 4.719688e-12 1.332456e-12 7.387028e-13 4.667528e-12 6.5585766e-12 7.097651e-12
2.9305328e-12 4.4984754e-12 3.5175206e-11 5.716493e-11 8.997465e-12 5.5038817e-11 2.4629255e-12 8.823265e-12
1.9447163e-11 3.8789857e-12 6.5270922e-12 1.1468904e-11 1.4924706e-11 6.026326e-12 2.135756e-11 1.0971137e-12
1.05032155e-11 2.1070623e-11 6.016787e-12 3.1722007e-11 1.5738149e-11 1.7454309e-11 1.1427292e-12 3.691495e-12
2.0571647e-11 5.6821384e-12 2.7274509e-11 2.2747709e-12 1.7973352e-12 2.9062232e-12 4.9875985e-11 2.7348724e-11
2.0937927e-11 1.2727744e-11 6.3851466e-11 1.6159738e-11 1.2993727e-10 6.674869e-12 5.42755e-13 8.22654e-11
2.5270449e-11 3.7548215e-11 5.066676e-13 6.0541576e-12 1.0441289e-10 2.9338908e-12 6.265267e-11 1.9835186e-12
1.0299395e-11 5.675157e-11 5.6700512e-12 8.354095e-12 3.1022806e-11 1.7814715e-11 5.874466e-12 1.273271e-12
1.9753704e-11 1.524891e-11 6.4869087e-12 1.5871897e-12 4.5753847e-13 5.6977227e-12 5.982801e-11 6.0608127e-13
1.8286097e-11 2.8663578e-12 4.8974097e-12 2.165746e-12 2.1142628e-12 7.676636e-12 6.634781e-12 3.1817004e-11
6.835768e-12 1.150251e-10 1.200387e-11 1.8759777e-11 9.561204e-12 1.3827006e-11 3.0821923e-12 2.0136755e-11
1.8132388e-11 4.4059777e-11 1.1722026e-11 3.141559e-11 1.468414e-10 1.881593e-11 6.863333e-11 9.93775e-12
1.128255e-12 1.598695e-11 2.7485197e-12 4.4620134e-11 5.047367e-11 3.771581e-11 1.4860519e-11 3.10699e-11
1.0516753e-11 4.928444e-11 5.694612e-11 2.7034493e-11 1.4600895e-11 1.6039163e-11 4.024338e-11 1.1578816e-11
8.918392e-12 1.4890738e-11 6.992439e-11 5.576101e-11 6.7020695e-12 2.6177417e-12 2.3042748e-11 5.401714e-11
3.0298458e-11 3.6234547e-11 7.239208e-11 1.0120975e-10 1.0714508e-10 2.3563634e-10 2.6984937e-11 5.7086085e-12
1.6915074e-10 2.7332043e-11 3.6975104e-11 1.8252051e-12 1.35506354e-11 2.1355376e-10 8.078996e-12 7.2747926e-11
1.3013926e-11 2.298497e-11 5.0835836e-11 1.4580323e-11 1.2770241e-11 3.476388e-11 6.7744525e-11 2.3366144e-11
9.030804e-12 4.5269743e-11 1.4026897e-11 4.8941007e-12 1.3564596e-12 1.6970902e-11 2.80817e-11 4.0958917e-11
1.08857385e-11 2.5924405e-11 3.062398e-11 1.2963111e-11 9.762224e-12 1.6390523e-12 4.8274596e-11 4.540145e-11
6.210807e-11 3.5602406e-12 2.7185634e-10 8.356145e-12 3.8639657e-11 5.4472503e-11 2.903957e-11 1.2811758e-11
1.7967527e-11 2.399554e-11 5.9801095e-11 2.6497702e-12 1.6480215e-11 2.3356275e-11 5.479794e-12 2.679323e-11
1.0197262e-11 4.5309143e-12 1.0065778e-11 7.559184e-13 1.0014779e-11 3.0271217e-12 1.3444065e-11 6.5369797e-12
00000000: e2ab 1e2c 12cd 5a2b f577 002d a5a5 d02b
00000010: 3dd7 5f2c a83f 102c b69a eb2b 0031 c62b
00000020: a1b2 f72a 4377 982b efe7 762b 9821 e02b
00000030: 75c6 a02b 2762 a62c 693b 802b 1dc2 c12b
00000040: 86fc 772b 9d71 fa2a 4f7f 912c fa8c 552c
00000050: bb91 712c a17e 012b 143c 292c 9128 872b
00000060: 69a3 822b 1208 8c2b 7f85 1a2b 959c 192c
00000070: 2072 972b 7e1a e82b 2720 372c 58d2 912c
00000080: 03db b42b 50f3 fa2c 2f0d d42b 81a9 5c2d
00000090: 3583 802b 4ba1 622b d35f 0c2d 5e78 8c2c
000000a0: 9aaa ba2b 248d a42b a220 d92a 80b3 c42c
000000b0: 1340 9f2b 5f19 5f2c b052 712b e39d 6d2c
000000c0: b66d 992c fd58 662b 3783 472b 3063 702c
000000d0: a8ff 2f2c 138c fa2c e1d7 102c 41e7 bf2c
000000e0: f427 892c 12f1 962b 6c10 042b 6b28 782b
000000f0: c7b1 c72b a5d9 f12b bee6 e12a 17f4 682c
00000100: 664d 7e2b 1a2f 0d2c c2e8 702b 2478 9c2b
00000110: 2cdf c32b 8dbf 9f2b 33fa c02b f0a1 402c
00000120: 5a6b b02d b4e4 152c 2c0f a62c c986 bb2b
00000130: 25ed 4f2b 5b39 a42c 68c2 e62c f5b9 f92c
00000140: c937 4e2c aa46 9e2c c3b3 1a2e fd69 7b2e
00000150: fb48 1e2d 3310 722e 1f50 2d2c 7438 1b2d
00000160: 1e0f ab2d cc7a 882c d2a6 e52c 5ac3 492d
00000170: 7347 832d 5208 d42c f3dc bb2d b067 9a2b
00000180: 47c6 382d d356 b92d 66b2 d32c ce83 0b2e
00000190: 296f 8a2d 9c87 992d 29d3 a02b 08e2 812c
000001a0: 3bf3 b42d 27ec c72c bce8 ef2d a112 202c
000001b0: d3f3 fc2b dd81 4c2c 5e5b 5b2e da8f f02d
000001c0: 052c b82d aae8 5f2d 2e69 8c2e 7f24 8e2d
000001d0: 17de 0e2f e0d9 ea2c 9fc5 182b 4ee7 b42e
000001e0: fe47 de2d 8823 252e 409d 0e2b 0103 d52c
000001f0: 3b9b e52e 4774 4e2c 51c6 892e e593 0b2c
00000200: 5a30 352d 9698 792e 487f c72c 80f7 122d
00000210: 9370 082e 2cb3 9c2d 7cb0 ce2c 6c32 b32b
00000220: 63c1 ad2d 7e21 862d e13c e42c 8960 df2b
00000230: 1fc9 002b 8678 c82c 2d90 832e c298 2a2b
00000240: a1d8 a02d b6b3 492c f24f ac2c 9d66 182c
00000250: 2cc7 142c 7f0c 072d cb70 e92c c3ee 0b2e
00000260: 2083 f02c 60f1 fc2e a02c 532d 4303 a52d
00000270: d633 282d 4d3f 732d d7e3 582c f11f b12d
00000280: 827e 9f2d e6c6 412e 5037 4e2d cf2a 0a2e
00000290: 2e74 212f b581 a52d 21ed 962e a6d3 2e2d
000002a0: acc9 9e2b 699f 8c2d ee68 412c ce3d 442e
000002b0: 4dfc 5d2e 3ae0 252e eab6 822d 99a5 082e
000002c0: 3f03 392d 59c1 582e a273 7a2e 44cc ed2d
000002d0: 4b6e 802d fc14 8d2d 05fe 302e 5ab2 4b2d
000002e0: dee4 1c2d f6fa 822d efc3 992e 513d 752e
000002f0: e0ce eb2c 0b35 382c a8af ca2d e591 6d2e
00000300: 0841 052e 795c 1f2e 1e31 9f2e 0690 de2e
00000310: 519d eb2e de8a 812f ad5c ed2d 93da c82c
00000320: b3fb 392f 4a6a f02d 449e 222e f96f 002c
00000330: a362 6e2d 0ace 6a2f 9020 0e2d 71f9 9f2e
00000340: 83f1 642d 8d2d ca2d 1094 5f2e f83f 802d
00000350: 0da8 602d a6e4 182e c7f8 942e e187 cd2d
00000360: 20df 1e2d 3319 472e 87c3 762d 2432 ac2c
00000370: 9ce7 be2b 1347 952d 5e02 f72d a423 342e
00000380: 0281 3f2d 9208 e42d 89af 062e a90c 642d
00000390: 26bd 2b2d 15ad e62b 5d50 542e 7dad 472e
000003a0: bc93 882e 9887 7a2c 6174 952f bb00 132d
000003b0: 63f0 292e 9692 6f2e 4c6f ff2d 0763 612d
000003c0: 460b 9e2d 2711 d32d 0681 832e 0476 3a2c
000003d0: 25f6 902d a871 cd2d 99cd c02c feac eb2d
000003e0: 6364 332d d96a 9f2c 3c14 312d a9c5 542b
000003f0: 8e2e 302d c703 552c b082 6c2d e1ff e52c

exp_avg f4 [128, 128]
8.663718e-15 -8.140146e-15 -7.892343e-15 -8.168616e-15 -8.447619e-15 -8.648774e-15 -8.40321e-15 8.323207e-15
8.441668e-15 -8.582842e-15 8.152383e-15 -8.123834e-15 8.661447e-15 -8.528839e-15 7.631467e-15 8.030941e-15
8.011592e-15 7.796208e-15 -8.03409e-15 8.576075e-15 8.418893e-15 8.527912e-15 -7.969998e-15 8.593057e-15
-8.397196e-15 7.859987e-15 8.350444e-15 -8.466901e-15 8.347002e-15 -8.465923e-15 -8.6042e-15 -8.2885e-15
-7.925977e-15 -8.540931e-15 -8.5631465e-15 -7.454847e-15 -8.182942e-15 8.119733e-15 8.224868e-15 -8.3623895e-15
8.608283e-15 -7.705467e-15 8.5002035e-15 8.694359e-15 -8.334563e-15 8.087038e-15 8.296097e-15 -7.858801e-15
-8.281461e-15 -8.34825e-15 -8.463335e-15 8.208827e-15 -8.177329e-15 -8.599152e-15 7.986917e-15 8.180114e-15
-5.7945744e-15 -8.7562946e-15 8.425679e-15 8.439498e-15 8.282099e-15 8.158109e-15 -8.122807e-15 -8.205701e-15
2.2911083e-15 8.542158e-15 8.2931226e-15 -8.555381e-15 8.002799e-15 -8.217017e-15 -8.6331334e-15 7.770815e-15
8.152196e-15 8.5893274e-15 8.712664e-15 8.059427e-15 -8.506643e-15 -2.5111482e-15 -8.33101e-15 -8.283627e-15
-8.735306e-15 8.065472e-15 -7.849102e-15 -8.442508e-15 -8.3015726e-15 -8.38615e-15 3.453352e-15 -8.3136165e-15
-8.588077e-15 -7.928225e-15 8.021994e-15 -7.983728e-15 -8.2132745e-15 -5.0663107e-15 -7.968367e-15 -8.0863135e-15
-6.8011774e-15 -8.656306e-15 7.513928e-15 8.515285e-15 8.490752e-15 -8.471819e-15 8.374126e-15 -8.314756e-15
8.509749e-15 8.669531e-15 -5.706219e-15 -3.968989e-15 8.2178755e-15 7.408485e-15 8.142593e-15 -8.0149984e-15
-8.155986e-15 -8.484986e-15 8.450934e-15 8.351327e-15 -8.1610955e-15 8.593798e-15 -8.288921e-15 -8.376784e-15
-8.567232e-15 -6.1133447e-15 8.608028e-15 -8.221656e-15 8.566096e-15 -8.092161e-15 -8.602621e-15 8.751718e-15
-7.3904824e-14 7.414689e-14 7.307929e-14 7.2916364e-14 7.28642e-14 7.3141044e-14 7.3089186e-14 -7.615509e-14
-7.312111e-14 7.2678185e-14 -7.441139e-14 7.526244e-14 -7.3363977e-14 7.369749e-14 3.795958e-14 -7.201653e-14
-7.186258e-14 -7.459536e-14 7.273365e-14 -7.295138e-14 -7.3125615e-14 -7.2681715e-14 7.244053e-14 -7.316211e-14
7.255475e-14 -7.3071635e-14 -7.332034e-14 7.51874e-14 -7.296789e-14 7.286677e-14 7.304242e-14 7.2828645e-14
7.18981e-14 7.393417e-14 7.292676e-14 7.2040396e-14 7.307089e-14 -7.237306e-14 -7.2656196e-14 7.327159e-14
-7.321227e-14 7.2513596e-14 -7.34684e-14 -7.35429e-14 7.269788e-14 -7.359603e-14 -7.410288e-14 7.244684e-14
7.2938603e-14 7.3449676e-14 7.376778e-14 -7.214418e-14 7.2589836e-14 7.36286e-14 -7.319416e-14 -7.224225e-14
6.872628e-14 7.326724e-14 -7.30445e-14 -7.28305e-14 -7.345025e-14 -7.329926e-14 7.4805044e-14 7.193665e-14
3.8878253e-14 -7.3098516e-14 -7.474832e-14 7.283599e-14 -7.239453e-14 7.362648e-14 7.298505e-14 -7.179993e-14
-7.372307e-14 -7.432249e-14 -7.3050026e-14 -7.2606777e-14 7.282994e-14 -6.8673576e-14 7.375611e-14 7.313283e-14
7.3192984e-14 -7.267044e-14 7.261981e-14 7.307583e-14 7.282237e-14 7.27256e-14 -5.883394e-14 7.292693e-14
7.300652e-14 7.3009056e-14 -7.2108064e-14 7.269426e-14 7.281354e-14 6.432869e-14 7.215851e-14 7.2611066e-14
7.235598e-14 7.4352484e-14 -7.1590845e-14 -7.279728e-14 -7.334525e-14 7.380852e-14 -7.263699e-14 7.2938204e-14
-7.343116e-14 -7.3364254e-14 6.8774074e-14 4.3049365e-14 -7.23952e-14 -7.5600306e-14 -7.338306e-14 7.195601e-14
7.22946e-14 7.313459e-14 -7.381653e-14 -7.3974064e-14 7.204029e-14 -7.408405e-14 7.31239e-14 7.476645e-14
7.3290095e-14 7.5832874e-14 -7.377522e-14 7.271014e-14 -7.401045e-14 7.0791775e-14 7.3627126e-14 -7.3554213e-14
00000000: 5912 1c28 cca3 12a8 022d 0ea8 1827 13a8
00000010: c42d 18a8 6ecd 1ba8 f760 17a8 04f0 1528
00000020: 5312 1828 5f9d 1aa8 3bdc 1228 9258 12a8
00000030: e007 1c28 54a4 19a8 ee79 0928 2eac 1028
00000040: f252 1028 aa71 0c28 b3ba 10a8 2a7e 1a28
00000050: 4ba9 1728 0da0 1928 2193 0fa8 7bcc 1a28
00000060: 3b45 17a8 cb97 0d28 a06d 1628 b086 18a8
00000070: c15d 1628 2e82 18a8 deff 1aa8 f64f 15a8
00000080: 1ec8 0ea8 18dc 19a8 8b42 1aa8 6a4b 06a8
00000090: 2969 13a8 a945 1228 822a 1428 b7a4 16a8
000000a0: b312 1b28 32cf 0aa8 4520 1928 a79f 1c28
000000b0: 6324 16a8 e1ae 1128 ff72 1528 5392 0da8
000000c0: 7f2f 15a8 8263 16a8 3e76 18a8 88e0 1328
000000d0: 464f 13a8 97e8 1aa8 27e1 0f28 1e5c 1328
000000e0: 84c5 d0a7 48bd 1da8 96c8 1728 5108 1828
000000f0: 7132 1528 a3f6 1228 d653 12a8 1ed2 13a8
00000100: 7d17 2527 c0e1 1928 4765 1528 bb1e 1aa8
00000110: 652a 1028 4d06 14a8 4d85 1ba8 8ffc 0b28
00000120: 5edb 1228 48bb 1a28 12f4 1c28 8c2f 1128
00000130: f73d 19a8 82f2 34a7 0114 16a8 7d39 15a8
00000140: 7d5c 1da8 6d4b 1128 9865 0da8 3216 18a8
00000150: 3f8c 15a8 4a12 17a8 1ad7 7827 cac3 15a8
00000160: 84b5 1aa8 7cd2 0ea8 eb82 1028 72d2 0fa8
00000170: 0bf5 13a8 7888 b6a7 9b8b 0fa8 8aab 11a8
00000180: ca09 f5a7 2af0 1ba8 e05b 0728 d265 1928
00000190: aff4 1828 5f9d 18a8 d7da 1628 0bc9 15a8
000001a0: 4a4c 1928 282d 1c28 9596 cda7 76ff 8ea7
000001b0: 430a 1428 9b75 0528 15af 1228 a862 10a8
000001c0: d9ec 12a8 17da 18a8 0e3d 1828 b371 1628
000001d0: 6904 13a8 e6cf 1a28 e751 15a8 19e7 16a8
000001e0: 6255 1aa8 a741 dca7 8611 1b28 b21b 14a8
000001f0: 2550 1a28 81c6 11a8 96f8 1aa8 2da8 1d28
00000200: 3b6b a6a9 c6f6 a629 588f a429 6c31 a429
00000210: 5a13 a429 f1b2 a429 0c95 a429 6c7c aba9
00000220: 73a7 a4a9 1fa8 a329 3f8f a7a9 d879 a929
00000230: 7433 a5a9 b6f3 a529 6bf4 2a29 b42a a2a9
00000240: f5d1 a1a9 4cf9 a7a9 18c8 a329 9b45 a4a9
00000250: 0caa a4a9 28aa a3a9 1f1f a329 16bf a4a9
00000260: f760 a329 ee8a a4a9 4c1a a5a9 964e a929
00000270: 204f a4a9 d514 a429 177a a429 dbfe a329
00000280: 6fe6 a129 267c a629 6a37 a429 7638 a229
00000290: 808a a429 3bf8 a2a9 729b a3a9 32fe a429
000002a0: 00dc a4a9 3e49 a329 a66f a5a9 989a a5a9
000002b0: 79b3 a329 39b9 a5a9 67dd a6a9 c322 a329
000002c0: 3e3e a429 db64 a529 3b1c a629 4a74 a2a9
000002d0: 3175 a329 00cc a529 8fd1 a4a9 d2ac a2a9
000002e0: 01c2 9a29 b0fb a429 4a7b a4a9 edff a3a9
000002f0: 3065 a5a9 260e a5a9 2c72 a829 a8fc a129
00000300: 9317 2f29 6d9a a4a9 7951 a8a9 1703 a429
00000310: 9b04 a3a9 c7ca a529 0459 a429 d7ad a1a9
00000320: 7502 a6a9 005c a7a9 797e a4a9 f57e a3a9
00000330: 9aff a329 9fa3 9aa9 8115 a629 35ae a429
00000340: e2d0 a429 a8a3 a3a9 7886 a329 598d a429
00000350: 3dfb a329 74c3 a329 757b 84a9 8337 a429
00000360: 6565 a429 db66 a429 785f a2a9 63b1 a329
00000370: 26f6 a329 f7da 9029 8d7c a229 6e81 a329
00000380: 62ee a229 4a6d a729 5035 a1a9 c6ec a3a9
00000390: a828 a5a9 b733 a629 6090 a3a9 033e a429
000003a0: 2f5a a5a9 9d33 a5a9 8edd 9a29 8ae0 4129
000003b0: fe04 a3a9 9c3c aaa9 743e a5a9 d107 a229
000003c0: 00cb a229 39af a429 5538 a6a9 2593 a6a9
000003d0: 6638 a229 8cd2 a6a9 0fa9 a429 ed5b a829
000003e0: dd08 a529 adc2 aa29 8520 a6a9 8bba a329
000003f0: 1fa8 a6a9 ae68 9f29 26cb a529 1ea1 a5a9

exp_avg_sq f4 [128, 128]
1.2619904e-11 5.7015075e-13 5.2417645e-12 2.2314527e-11 9.476841e-12 2.462183e-11 2.811619e-12 8.529568e-12
1.4460125e-11 2.49347e-11 2.0211702e-11 3.3105842e-12 2.6216087e-12 2.284821e-12 1.0672224e-11 1.9986133e-11
1.8758337e-11 7.1223577e-13 2.0959708e-11 8.607044e-12 4.0419777e-12 1.0123263e-11 2.0123894e-11 1.4475643e-12
2.2577188e-11 2.1138244e-11 2.3843604e-11 5.715675e-12 9.029982e-12 1.3997878e-12 4.271254e-12 2.4368762e-11
1.6265005e-11 1.3869308e-12 2.6389813e-12 9.963121e-12 6.5640236e-12 2.2962732e-11 2.5451896e-11 2.3626073e-11
4.976388e-12 1.0230205e-11 2.342817e-11 2.2099262e-11 2.4462326e-11 9.733385e-12 4.5710386e-13 1.3831142e-11
1.1111825e-11 9.892716e-12 6.559141e-13 2.608132e-11 2.1960607e-11 1.7954898e-11 2.2245992e-11 1.8090219e-11
7.845392e-12 2.1060386e-11 2.2961329e-11 1.8212168e-11 2.4852018e-11 1.8310483e-11 1.5444639e-11 1.1051957e-11
1.7226475e-11 2.2299855e-11 2.3257806e-13 1.5727208e-11 2.4502731e-11 5.6882424e-12 2.1475318e-11 1.1663575e-11
2.0195737e-11 5.1045062e-12 1.8192836e-11 1.488185e-11 3.0076356e-12 1.9272299e-11 1.7556984e-11 1.3043905e-11
2.1112303e-11 2.2906637e-11 2.6935686e-11 2.1672933e-11 2.3485444e-11 2.5720823e-11 6.3512823e-13 1.9975549e-11
1.2706184e-11 2.3113109e-11 2.3992043e-12 2.0582454e-11 1.173301e-11 2.4344006e-11 2.146958e-11 2.28587e-11
5.1621368e-12 8.4931785e-13 1.8218173e-11 1.3684273e-11 2.0205358e-11 1.3641016e-11 2.0019621e-11 6.861638e-12
1.8892497e-11 1.8732613e-12 3.4385149e-12 2.5054125e-11 1.3358219e-11 1.7457029e-11 1.2193248e-11 2.2404724e-11
2.2145143e-11 5.650817e-12 2.4698714e-11 1.6313958e-12 2.1982386e-11 1.2424599e-11 1.415262e-11 2.0017125e-11
2.0632428e-11 3.863251e-12 2.4526504e-11 2.1857799e-11 4.939802e-12 2.4395947e-11 1.9903967e-11 9.224997e-12
7.8389795e-11 8.808334e-12 4.3226703e-11 1.38779e-10 6.26028e-11 1.5932153e-10 2.7570377e-11 4.9203582e-11
8.548655e-11 1.5378117e-10 1.1415867e-10 3.153644e-11 2.5950084e-11 2.5768648e-11 6.103785e-11 1.184031e-10
1.2249898e-10 6.9887195e-12 1.396737e-10 6.489683e-11 3.2675466e-11 6.339668e-11 1.2270567e-10 2.5703831e-11
1.4069498e-10 1.3103765e-10 1.5609358e-10 5.4957247e-11 4.428129e-11 2.3913264e-11 3.5179325e-11 1.4929252e-10
9.542645e-11 1.2209873e-11 1.5791425e-11 6.3777025e-11 5.6478374e-11 1.4622482e-10 1.6500662e-10 1.5528927e-10
3.3292823e-11 6.7666484e-11 1.4651394e-10 1.3269046e-10 1.5907389e-10 6.411044e-11 3.6350029e-12 9.1637635e-11
7.984879e-11 6.7356426e-11 5.6569935e-12 1.6723992e-10 1.3445235e-10 1.10061196e-10 1.3736293e-10 1.1848875e-10
4.030895e-11 1.2008276e-10 1.403216e-10 1.1784604e-10 1.4947545e-10 1.2229247e-10 9.431307e-11 7.40015e-11
1.1022314e-10 1.3741054e-10 2.4011886e-12 1.05557486e-10 1.481077e-10 4.572998e-11 1.372628e-10 7.833115e-11
1.3825228e-10 4.1919582e-11 1.1010679e-10 9.532154e-11 2.5368471e-11 1.1769691e-10 1.0690537e-10 8.014671e-11
1.3389084e-10 1.4025332e-10 1.7363952e-10 1.3299166e-10 1.4176577e-10 1.6797737e-10 5.7798484e-12 1.2035493e-10
7.907984e-11 1.4447023e-10 2.2697906e-11 1.2355393e-10 6.734963e-11 1.5464408e-10 1.3641852e-10 1.4002662e-10
2.4703206e-11 1.343581e-11 1.1753029e-10 7.6237565e-11 1.2814763e-10 8.8415116e-11 1.3121536e-10 5.1973016e-11
1.1338643e-10 1.479583e-11 1.9120625e-11 1.538853e-10 7.648047e-11 9.787999e-11 7.488392e-11 1.3844773e-10
1.3921493e-10 3.9713784e-11 1.4915251e-10 1.464719e-11 1.3776746e-10 8.040874e-11 8.861349e-11 1.13248896e-10
1.411044e-10 2.5169358e-11 1.5841549e-10 1.322264e-10 2.1896537e-11 1.5755099e-10 1.242185e-10 6.6899986e-11
00000000: ff02 5e2d b17b 202b 9e6d b82c d947 c42d
00000010: e6b7 262d 6f93 d82d a0d9 452c c20d 162d
00000020: 9d62 7e2d f453 db2d b5c8 b12d 2ff6 682c
00000030: b47a 382c adc7 202c 6dbf 3b2d c5cc af2d
00000040: 0500 a52d ff79 482b 115d b82d ae6a 172d
00000050: e636 8e2c 2017 322d fb02 b12d 00ba cb2b
00000060: 4f97 c62d 18ef b92d 06bb d12d 391a c92c
00000070: 6cdb 1e2d ac00 c52b 0948 962c 9359 d62d
00000080: 8911 8f2d 7331 c32b a9b3 392c e845 2f2d
00000090: 78f3 e62c 7afb c92d 93e0 df2d 30d1 cf2d
000000a0: 5117 af2c bff8 332d 8d13 ce2d 1d63 c22d
000000b0: 432c d72d 453b 2b2d cea9 002b ed51 732d
000000c0: 367b 432d d508 2e2d 989f 382b e969 e52d
000000d0: e42a c12d d6ee 9d2d 85ad c32d 8d1f 9f2d
000000e0: 8104 0a2d c63f b92d 51f8 c92d 2832 a02d
000000f0: c599 da2d 8b0f a12d 3cda 872d 976d 422d
00000100: 9386 972d cf26 c42d 08ee 822a 8656 8a2d
00000110: 3f87 d72d 2223 c82c 1ee6 bc2d 1230 4d2d
00000120: c2a4 b12d 4e99 b32c a006 a02d f2e6 822d
00000130: bfa4 532c 5c85 a92d d06e 9a2d 8778 652d
00000140: aeb4 b92d 297d c92d c6ed ec2d 1ba3 be2d
00000150: 8594 ce2d 253e e22d d0c5 322b f0b4 af2d
00000160: 9187 5f2d 184e cb2d 39d4 282c 910b b52d
00000170: c868 4e2d d421 d62d 32d9 bc2d 3711 c92d
00000180: 65a0 b52c cd0f 6f2b ae3f a02d 7dbc 702d
00000190: 6cba b12d adf9 6f2d 2e18 b02d 246c f12c
000001a0: 1f2e a62d add1 032c c7f6 712c e060 dc2d
000001b0: 1200 6b2d bc8d 992d 8281 562d f412 c52d
000001c0: 6eca c22d 09d2 c62c 8f40 d92d 3a99 e52b
000001d0: ef5b c12d 6b93 5a2d bcf9 782d 8f12 b02d
000001e0: 197c b52d 12ed 872c c7bc d72d 6343 c02d
000001f0: c8cd ad2c ca96 d62d c013 af2d b149 222d
00000200: 8861 ac2e 36f5 1a2d f11c 3e2e d196 182f
00000210: 3eaa 892e 062d 2f2f f882 f22d 4f66 582e
00000220: a6fc bb2e 8d15 292f 9e09 fb2e e0b2 0a2e
00000230: 6542 e42d d6a9 e22d 4139 862e 832f 022f
00000240: 66b0 062f cae4 f52c a792 192f abb5 8e2e
00000250: 4eb5 0f2e 2869 8b2e 93ea 062f e217 e22d
00000260: 1eb2 1a2f d213 102f 70a0 2b2f 5cb4 712e
00000270: 4dc0 422e e257 d22d 66b8 1a2e 1c26 242f
00000280: 51d8 d12e 61cc 562d 21e7 8a2d 463f 8c2e
00000290: ff64 782e a1c6 202f 3c6d 352f 0bbe 2a2f
000002a0: 636c 122e d8cc 942e 0218 212f 0be5 112f
000002b0: 52e7 2e2f f8fa 8c2e 64ca 7f2c 6783 c92e
000002c0: df96 af2e 4c1e 942e ab09 c72c dae1 372f
000002d0: f9d4 132f f206 f22e 3a08 172f 9e47 022f
000002e0: d847 312e 4b08 042f 0549 1a2f b692 012f
000002f0: 9959 242f 4576 062f 8a65 cf2e 24bb a22e
00000300: 1d62 f22e a115 172f f8f7 282c 951f e82e
00000310: 9dd8 222f 611f 492e 0bec 162f 8440 ac2e
00000320: 8f02 182f 415d 382e 9d20 f22e 429d d12e
00000330: b824 df2d bc68 012f 6016 eb2e 963e b02e
00000340: ec36 132f cd35 1a2f 2eeb 3e2f d339 122f
00000350: 84df 1b2f 6db1 382f 3f5c cb2c e754 042f
00000360: fee5 ad2e c1d8 1e2f 24a7 c72d 57d9 072f
00000370: 791a 942e 7008 2a2f 66fe 152f fdf5 192f
00000380: ad4a d92d 825d 6c2d d639 012f efa5 a72e
00000390: 5ae6 0c2f 496d c22e d745 102f 6a94 642e
000003a0: e356 f92e 3f25 822d d22f a82d dc32 292f
000003b0: ad2e a82e 893d d72e e6ab a42e 9239 182f
000003c0: 8511 192f bfa9 2e2e b3fe 232f 8ad6 802d
000003d0: 187a 172f 19d2 b02e f6dc c22e 7609 f92e
000003e0: 5c25 1b2f 5b64 dd2d ff2d 2e2f 6c62 112f
000003f0: 9e9a c02d a93a 2d2f 6694 082f 581d 932e

exp_avg f4 [128]
-4.8402526e-10 8.576813e-10 -1.233335e-10 9.463658e-10 7.633603e-10 -1.2883904e-10 -6.507507e-11 -1.3824682e-10
9.83287e-10 1.110432e-09 3.917636e-10 7.6345036e-10 1.1501404e-09 6.612422e-10 7.8556806e-10 -1.0303781e-09
-2.6624532e-11 -3.249448e-10 7.5240786e-10 -2.9578237e-10 1.5589002e-09 -1.1020489e-09 4.958409e-10 1.539408e-11
8.405788e-10 -1.1732397e-09 -9.284039e-10 8.502442e-10 1.6802851e-09 -5.218218e-10 -1.0861992e-09 2.4922433e-09
1.5774226e-09 -7.967354e-10 -6.248059e-10 -7.1878264e-10 -1.3279354e-09 -1.6693076e-09 -1.1834629e-09 1.9956703e-09
-3.182213e-10 8.552814e-10 -2.1016093e-10 1.6561738e-10 1.3803934e-09 -2.0207578e-09 1.9252791e-10 3.3225211e-10
2.1094728e-09 1.1634086e-09 -3.3211178e-10 -3.714701e-10 1.3793465e-09 1.8974192e-10 -6.6167805e-10 -2.282549e-09
5.1923343e-10 -1.6435947e-10 6.470585e-10 -1.1066507e-09 -2.0359407e-09 -7.102054e-10 -2.4848876e-10 1.658663e-09
-3.644401e-10 -2.947533e-10 -2.9979308e-10 1.6534255e-09 -1.0811573e-09 5.92961e-11 1.9782056e-11 2.0933442e-10
-1.4296007e-09 -1.2423652e-09 1.8462674e-09 -1.5227948e-09 -1.8992651e-11 6.1275124e-10 3.6349398e-10 8.8097113e-10
-4.7766197e-10 -1.4047352e-09 1.4811629e-09 1.2923659e-09 2.222888e-09 1.5531166e-09 -1.2694914e-09 1.9094981e-09
-6.6569134e-10 1.7064473e-09 -3.505573e-10 5.240189e-10 1.0937535e-09 4.889618e-10 4.7920024e-10 1.9864712e-09
4.2356482e-10 -1.8014631e-09 1.2745285e-09 -7.479727e-11 -2.6990518e-10 5.133393e-10 -9.752539e-10 1.3769705e-11
-1.4815111e-09 1.8180524e-09 -4.008959e-10 4.098824e-10 1.4440028e-09 2.9482838e-10 -5.23371e-10 6.1955563e-10
2.4856392e-09 8.1934765e-10 -1.2176902e-09 -6.987345e-10 6.1383587e-10 3.3480743e-10 1.6732804e-09 -1.4045497e-10
4.3460738e-10 -9.130499e-10 1.1255297e-09 2.20086e-09 6.300726e-10 4.534457e-10 1.278594e-10 6.947827e-10
00000000: 400c 05b0 f5c1 6b30 4b9b 07af 4911 8230
00000010: b5d4 5130 f7a8 0daf 021a 8fae 0501 18af
00000020: 5624 8730 da9d 9830 d35f d72f 0bdb 5130
00000030: f812 9e30 c9c2 3530 70ef 5730 359d 8db0
00000040: 1e31 eaad eaa3 b2af ffd1 4e30 ab9b a2af
00000050: ed40 d630 e676 97b0 b44b 0830 6368 872d
00000060: 790e 6730 b43f a1b0 9e32 7fb0 9eb6 6930
00000070: c7ef e630 f26f 0fb0 3d49 95b0 0244 2b31
00000080: a0cc d830 4501 5bb0 cebe 2bb0 d593 45b0
00000090: 9382 b6b0 8a6d e5b0 66a7 a2b0 3424 0931
000000a0: abf1 aeaf 1419 6b30 0b13 67af 2619 362f
000000b0: 46b8 bd30 8cdd 0ab1 caaf 532f 54a8 b62f
000000c0: 3df6 1031 cde5 9f30 9494 b6af c537 ccaf
000000d0: 7193 bd30 9a9f 502f 74e1 35b0 07db 1cb1
000000e0: ceb9 0e30 14b7 34af b2dc 3130 cf18 98b0
000000f0: a6e8 0bb1 4338 43b0 af9b 88af 04f7 e330
00000100: 625a c8af d70a a2af 20d0 a4af bd3e e330
00000110: d797 94b0 bd64 822e 3b01 ae2d 672a 662f
00000120: 9a7b c4b0 d7bf aab0 c2bf fd30 944a d1b0
00000130: a60f a7ad 896e 2830 3bd5 c72f d528 7230
00000140: 794c 03b0 ba10 c1b0 c991 cb30 159f b130
00000150: 76c1 1831 6f75 d530 427a aeb0 3f38 0331
00000160: ddfb 36b0 4788 ea30 8eb8 c0af 8d0a 1030
00000170: 0853 9630 a167 0630 b8b8 0330 5f82 0831
00000180: 73db e82f 5997 f7b0 7c2b af30 1f7b a4ae
00000190: c761 94af 0b1b 0d30 b209 86b0 3d3d 722d
000001a0: 0a9e cbb0 08df f930 1565 dcaf d255 e12f
000001b0: 5576 c630 6815 a22f f6dc 0fb0 5a4d 2a30
000001c0: d4cf 2a31 7738 6130 aa5b a7b0 1211 40b0
000001d0: dcba 2830 f50f b82f 52f9 e530 8f6e 1aaf
000001e0: 8ded ee2f 2dfa 7ab0 0eb1 9a30 f03d 1731
000001f0: 6b31 2d30 cf48 f92f 3995 0c2f fcfa 3e30

exp_avg_sq f4 [128]
3.7332144e-11 2.3125589e-10 3.9030915e-10 1.196616e-10 8.9306046e-10 2.0720287e-10 1.1269672e-10 2.650198e-11
4.7625975e-10 2.9481115e-10 6.167583e-11 2.2043265e-11 1.09211876e-10 5.488563e-11 4.880413e-11 1.2323031e-10
9.7563485e-11 6.981438e-11 1.344772e-10 4.1841433e-10 2.4095137e-10 3.3731316e-11 1.9861121e-10 2.212675e-10
3.604211e-10 4.7004074e-11 8.350167e-11 5.391518e-11 2.634543e-10 2.4247998e-10 2.1443688e-10 5.1242344e-11
1.16080985e-10 5.049549e-10 4.7677307e-10 5.3285537e-10 9.765208e-11 3.192706e-10 1.02149164e-10 1.4328855e-10
9.9761e-10 1.6985911e-11 1.436444e-10 2.2777429e-10 1.2174309e-10 3.0605007e-10 8.5426756e-11 1.5554552e-10
1.879934e-10 1.1006478e-10 6.405728e-11 2.4197231e-11 3.588096e-10 8.198386e-11 2.4737e-10 3.426697e-10
9.390091e-11 1.0629617e-10 1.6011656e-10 1.08449416e-10 1.9599689e-10 2.6505234e-10 1.402008e-10 5.213791e-10
1.0099424e-10 9.9167737e-11 1.8090761e-10 2.3012624e-10 2.08433e-10 2.843286e-10 9.0637886e-11 9.244714e-11
4.585939e-11 2.3041138e-10 3.2021988e-10 2.2542697e-10 4.983391e-10 8.9029e-11 1.2548906e-10 2.855981e-10
4.929051e-10 3.6883047e-10 5.687805e-11 4.7238654e-11 2.9417446e-10 1.15543575e-10 2.8440495e-11 2.4519461e-10
1.5710307e-10 8.490037e-11 8.544061e-11 4.397022e-10 1.0571664e-10 1.547004e-10 5.987234e-11 4.454871e-11
9.9857275e-11 3.6967662e-10 2.5143118e-10 1.3346364e-10 1.1516499e-10 1.2433124e-10 1.632034e-10 3.312573e-10
3.2707312e-10 6.797548e-10 2.1416247e-10 1.2398427e-10 1.0484921e-10 1.7599262e-10 1.2163309e-10 2.5873947e-10
4.6660183e-11 2.2508521e-10 1.8209036e-10 1.4949189e-10 2.659943e-10 1.1922739e-10 5.2452404e-10 4.9802454e-11
3.6255135e-10 5.3957814e-11 1.5601229e-10 2.1583497e-10 1.09229334e-10 3.3309473e-11 2.3168616e-10 3.0294642e-10
00000000: 4230 242e bf44 7e2f 2193 d62f bf91 032f
00000010: 8b7b 7530 6cd2 632f 9dd2 f72e 271d e92d
00000020: cde9 0230 fb12 a22f 68a0 872e 05e5 c12d
00000030: d228 f02e ba63 712e 91a4 562e 407e 072f
00000040: 5c8b d62e 0186 992e f7db 132f 9506 e62f
00000050: e476 842f 165a 142e 1660 5a2f 4449 732f
00000060: c324 c62f e2b9 4e2e 439f b72e 191f 6d2e
00000070: e5d5 902f 064e 852f 9ec6 6b2f c05d 612e
00000080: c943 ff2e 0bcd 0a30 ec0d 0330 5d78 1230
00000090: 3cbd d62e 5885 af2f dea0 e02e 248c 1d2f
000000a0: 481c 8930 df68 952d 4ef0 1d2f c370 7a2f
000000b0: a2db 052f b840 a82f fdda bb2e 2c06 2b2f
000000c0: 70b3 4e2f f608 f22e 0bdd 8c2e 52d7 d42d
000000d0: f641 c52f cf48 b42e 3cfe 872f 7962 bc2f
000000e0: 837d ce2e 6dbf e92e ce0c 302f 987b ee2e
000000f0: 3880 572f cdb6 912f 0427 1a2f cb50 0f30
00000100: b416 de2e 7912 da2e f7e8 462f c706 7d2f
00000110: ac2c 652f b14f 9c2f 9850 c72e 1d4b cb2e
00000120: 15b1 492e 0a57 7d2f f10a b02f 0ddc 772f
00000130: 7ffb 0830 dfc6 c32e 08fa 092f 5c02 9d2f
00000140: 1d7d 0730 46c4 ca2f fe26 7a2e ffc1 4f2e
00000150: 60b9 a12f 4015 fe2e 4d2a fa2d 13cc 862f
00000160: 95bc 2c2f a9b2 ba2e cae2 bb2e 95ba f12f
00000170: 2d79 e82e 4b18 2a2f 22a9 832e 63ed 432e
00000180: a696 db2e 5c3b cb2f cb39 8a2f adbe 122f
00000190: 2040 fd2e 22b4 082f ac71 332f 521c b62f
000001a0: 73cf b32f 7ed9 3a30 6079 6b2f 7852 082f
000001b0: dc90 e62e 8581 412f acbc 052f 583e 8e2f
000001c0: b236 4d2e db7b 772f e135 482f 3a5e 242f
000001d0: 5f3b 922f 8717 032f 192e 1030 9408 5b2e
000001e0: 9150 c72f 194f 6d2e 8e89 2b2f 2550 6d2f
000001f0: a632 f02e 227f 122e dbbd 7e2f eb8b a62f
